cheating_lstm_model.pth (torch, 68256 bytes, 10 tensors)

lstm.weight_ih_l0 f4 [100, 69]
0.43204933 0.7595045 0.2608131 0.3303148 0.87352055 0.609725 0.54185194 0.83734655
0.70389533 0.8058673 0.7172334 0.8280868 -0.1652151 0.0030212014 -0.05808286 -0.10020234
-0.18308608 -0.45739633 -0.34381202 -0.18446222 0.3847769 0.44118658 0.13531746 0.09834037
0.99376357 0.90987074 0.8604703 1.0015268 0.70021707 0.68528455 0.594165 0.4677637
0.9755586 0.6034164 0.77483845 0.5766557 0.50512266 0.6361342 0.6776726 0.7141337
0.6242027 0.49030647 0.27516168 0.39905164 0.17291759 0.5043722 0.50010234 0.3767896
-0.08166712 -0.16542938 -0.033652753 0.1607982 0.7933663 0.38802943 0.14283937 0.28482673
-0.6424595 -0.118410714 -0.5585128 -0.019814612 0.27879825 0.30397105 0.3087742 -0.21180122
0.06563781 -0.34837908 0.16975184 -0.25385585 -0.17449617 0.51441914 0.5070898 0.5536796
0.2881059 0.11316706 -0.16921605 -0.2590509 -0.3061549 0.030636879 0.095215924 0.2648938
0.15606461 -0.18551101 -0.028702887 0.019921195 0.16107576 -0.4065809 -0.2382876 -0.35006946
-0.5326384 -0.37324184 -0.3471186 -0.23850617 -0.2189079 0.009479286 -0.23224825 -0.076671705
-0.21929269 0.4772665 0.4635406 0.65046906 0.4823031 0.7129791 0.84626544 0.6888293
1.020785 0.73889685 0.7698763 0.76128113 0.6998706 0.6329567 0.5361514 0.587681
0.8833458 0.6088067 0.4791266 0.6408062 0.5384783 0.014351651 0.121270195 0.13277687
-0.19514702 2.0756862 -0.012174357 -0.24617448 -0.07068098 -0.2819147 -0.5423858 -0.06624677
-0.016935958 -0.6278085 -0.5509581 0.27255455 2.028341 -0.15413252 1.1973665 0.4894248
0.4578448 -0.1531421 0.493366 0.2135397 0.16320711 0.41180718 1.64223 1.5130901
1.3444549 0.41242164 0.79011184 0.58927 0.4517916 0.3924311 0.802345 0.70993567
0.84851724 0.66504663 0.78890073 0.7397247 0.87463987 0.6744476 0.43455848 0.34807673
0.49005103 0.16305184 0.20021516 0.38130522 0.43036184 0.20221187 0.6948506 0.39578676
0.5138937 0.55081624 0.29573378 0.32620788 0.48762068 0.356766 0.18563421 -0.03851374
0.033875547 0.19446449 0.3084111 0.058666922 0.30145493 0.06094245 -0.0032341182 -0.023507189
0.10086276 0.31007183 -0.11568613 -0.0004915893 0.084809914 0.19857292 1.3700979 -0.1553557
-1.0674714 -0.6729343 -0.24865834 -0.80710655 -0.8460498 -0.2011171 -0.6018088 0.017297221
0.19924839 0.47672948 -0.039233714 0.53924054 0.12330462 0.22381805 -0.15644154 0.7539126
0.73576564 0.74860954 0.9531296 1.0110819 0.7353889 0.7663755 1.0694752 0.43615204
0.55325687 0.49416715 0.6026976 0.5869742 0.37112623 0.8394521 0.48746064 0.3060245
0.48978102 0.23348327 0.5754939 0.20568839 0.3210681 0.03796006 0.14559038 0.05375747
-0.06215216 0.07878401 -0.044194367 -0.4936827 -0.35347736 -0.42180642 -0.557592 0.86209506
0.6107365 0.7069464 0.5087625 0.6312974 0.3343737 0.58845985 0.5970017 0.20151381
0.3837794 0.25961366 0.4538636 0.690095 0.7608722 0.61310726 0.6035317 -0.13486809
00000000: 9235 dd3e e36e 423f 4b89 853e 051f a93e
00000010: 0b9f 5f3f f016 1c3f cfb6 0a3f 585c 563f
00000020: 7c32 343f 524d 4e3f 9c9c 373f 7ffd 533f
00000030: 262e 29be 59ff 453b 4be8 6dbd e236 cdbd
00000040: eb7a 3bbe da2f eabe 2108 b0be aae3 3cbe
00000050: 7a01 c53e 35e3 e13e a990 0a3e ad66 c93d
00000060: 4a67 7e3f 4aed 683f c847 5c3f 0832 803f
00000070: 6d41 333f cf6e 2f3f 331b 183f b97e ef3e
00000080: 35be 793f 7f79 1a3f d05b 463f b59f 133f
00000090: b84f 013f b1d9 223f f47b 2d3f 77d1 363f
000000a0: c0cb 1f3f 7309 fb3e fee1 8c3e 7f50 cc3e
000000b0: 4f11 313e 891e 013f b506 003f 91ea c03e
000000c0: 1741 a7bd 5266 29be 78d7 09bd 49a8 243e
000000d0: 0e1a 4b3f cbab c63e 7c44 123e cfd4 913e
000000e0: 3a78 24bf 5181 f2bd b2fa 0ebf 4152 a2bc
000000f0: a5be 8e3e 18a2 9b3e a717 9e3e 6be2 58be
00000100: 1e6d 863d be5e b2be 6dd3 2d3e 65f9 81be
00000110: 20af 32be f9b0 033f a3d0 013f f2bd 0d3f
00000120: 9e82 933e 22c4 e73d f946 2dbe 52a2 84be
00000130: 56c0 9cbe 31fa fa3c 9100 c33d 29a0 873e
00000140: 67cf 1f3e 99f6 3dbe 5122 ebbc c631 a33c
00000150: 0bf1 243e 5f2b d0be aa01 74be 4e3c b3be
00000160: fd5a 08bf 8e19 bfbe 87b9 b1be f63a 74be
00000170: 6429 60be 024f 1b3c 7cd2 6dbe 0e06 9dbd
00000180: 438e 60be 465c f43e 3255 ed3e 2485 263f
00000190: 6ff0 f63e cc85 363f daa4 583f 1e57 303f
000001a0: 15a9 823f 5828 3d3f 9d16 453f 52e3 423f
000001b0: b82a 333f 7309 223f 3841 093f 4372 163f
000001c0: f322 623f c2da 1b3f 1550 f53e e00b 243f
000001d0: b7d9 093f 3023 6b3c 825c f83d a9f6 073e
000001e0: 9fd4 47be 0bd8 0440 f476 47bc 2a15 7cbe
000001f0: 31c1 90bd 2057 90be ccd9 0abf 63ac 87bd
00000200: 47bd 8abc 0fb8 20bf 970b 0dbf 458c 8b3e
00000210: 57d0 0140 ead4 1dbe 4e43 993f e395 fa3e
00000220: a26a ea3e 48d1 1cbe 789a fc3e 27aa 5a3e
00000230: c41f 273e 64d8 d23e 9834 d23f f0ac c13f
00000240: 1917 ac3f ee28 d33e c544 4a3f 66da 163f
00000250: 3b51 e73e bbec c83e 7b66 4d3f 58be 353f
00000260: 6d38 593f 7f40 2a3f 66f5 493f 995e 3d3f
00000270: 66e8 5f3f 99a8 2c3f 737e de3e 1d37 b23e
00000280: f8e7 fa3e 10f7 263e 3405 4d3e 703a c33e
00000290: 6358 dc3e a110 4f3e bbe1 313f 90a4 ca3e
000002a0: 8a8e 033f 4b02 0d3f 6b6a 973e b804 a73e
000002b0: 6ba9 f93e 08aa b63e e516 3e3e 95c0 1dbd
000002c0: 16c1 0a3d b321 473e 0fe8 9d3e ba4c 703d
000002d0: 4d58 9a3e ca9e 793d 80f3 53bb 2692 c0bc
000002e0: 2291 ce3d bcc1 9e3e daec ecbd 00de 00ba
000002f0: d2b0 ad3d b356 4b3e 5e5f af3f 9115 1fbe
00000300: e7a2 88bf 6c45 2cbf 4ba0 7ebe 899e 4ebf
00000310: b896 58bf a4f1 4dbe 2410 1abf e7b2 8d3c
00000320: c507 4c3e e315 f43e 88b3 20bd ab0b 0a3f
00000330: 2287 fc3d 8f30 653e 3632 20be 6b00 413f
00000340: 235b 3c3f e0a4 3f3f 4d00 743f 226b 813f
00000350: 7242 3c3f 2f31 443f 90e4 883f 524f df3e
00000360: 3ea2 0d3f 7a03 fd3e 644a 1a3f f143 163f
00000370: 4204 be3e 55e6 563f 7194 f93e 3eaf 9c3e
00000380: 94c4 fa3e 3d16 6f3e 9153 133f fa9f 523e
00000390: 0a63 a43e 027c 1b3d a515 153e cb30 5c3d
000003a0: 4393 7ebd 8359 a13d 2705 35bd fbc3 fcbe
000003b0: fcfa b4be 03f7 d7be 59be 0ebf 43b2 5c3f
000003c0: 3a59 1c3f 70fa 343f 423e 023f b59c 213f
000003d0: 0833 ab3e 4ea5 163f 1ad5 183f a359 4e3e
000003e0: bc7e c43e 15ec 843e cf60 e83e 11aa 303f
000003f0: 85c8 423f 99f4 1c3f 0e81 1a3f dc1a 0abe

lstm.weight_hh_l0 f4 [100, 25]
0.18579693 0.16975842 0.1489789 0.17650439 0.11990811 0.13510515 0.041728526 0.10088314
0.044609904 0.013863832 -0.11830602 0.048730463 -0.1257847 -0.06431098 0.18136384 0.057494804
0.01931326 0.049684882 0.13549839 -0.15071702 -0.010918856 0.07004975 -0.04038067 -0.10849192
-0.041779354 0.011469051 0.0073569566 -0.020514458 0.17521577 -0.019422129 0.10737814 -0.11955648
0.15848617 -0.07065971 -0.032494426 0.072971836 -0.094168544 0.13212253 0.070960954 0.10738899
0.0011784732 0.074105516 -0.1997956 0.059561655 0.09610559 -0.15574348 0.105430916 -0.07486506
-0.08756655 0.15983357 0.15806688 0.0028509647 0.12698914 0.0847799 0.11434527 0.00835669
0.17247961 -0.03799987 0.17766444 -0.06574294 0.12641515 0.07525872 -0.050849766 0.11138232
-0.016801432 0.06867565 0.079447016 -0.09584432 0.14633144 -0.04661736 -0.032028764 0.006871611
0.058218822 0.092471376 0.11922388 -0.19349039 -0.061331347 0.041668817 -0.17700751 0.012804419
-0.06447558 -0.06447789 0.019141883 0.062018648 -0.12806544 -0.12316611 -0.0073756725 0.08086248
0.057469025 -0.053633213 0.19995283 0.019200921 -0.06377928 0.14466651 -0.0771775 -0.11080432
0.047475576 -0.11419504 -0.07690716 0.062091395 0.09367864 -0.12824261 0.09583409 -0.15492299
0.075509325 -0.074604586 0.032052398 -0.13353878 0.15423901 0.17196287 -0.1777616 -0.12758012
0.0030705035 -0.05469732 0.18876685 -0.06343126 -0.048329443 -0.1483397 0.08229698 0.041955024
0.051782593 -0.03790772 0.17493062 0.034290314 0.03266056 -0.016272023 0.11127813 -0.10947523
-0.084163 -0.13910249 -0.057252765 0.19799604 0.039756864 -0.088407755 0.17526557 0.05032046
0.113116905 -0.06332186 0.06380372 0.17768352 -0.06080687 -0.0554789 0.049607754 -0.16056299
-0.13263476 -0.08371375 0.19429983 -0.16597223 0.0047293156 0.083021834 -0.09079843 0.0131325275
0.13151722 0.16741593 0.05751379 0.14908461 -0.039265558 -0.027182698 0.112055615 -0.10455253
-0.06567955 -0.067904875 -0.09907899 -0.0013653934 0.06551881 -0.15855436 -0.06183967 -0.15867111
-0.18332677 0.14543118 0.028950185 0.059153274 0.005541995 -0.05366297 -0.12719376 -0.007059574
-0.060083896 0.019051164 -0.17334448 0.033287644 0.041214436 -0.046078682 -0.09597182 0.14105208
-0.08568247 -0.014789149 -0.14680417 0.023642063 0.03335075 0.00832431 0.10095467 -0.08406844
0.13064842 0.0783792 -0.103226975 0.062718466 -0.17267437 0.1944548 -0.19269109 0.083044186
0.17773356 0.09497978 0.18082978 -0.14109847 -0.18216503 -0.118941545 -0.1011914 0.021911979
-0.17780851 0.012130663 0.09775497 0.17990343 0.029289916 0.095422044 -0.17155337 0.15028204
0.1510116 -0.06498858 0.003908545 -0.08328848 -0.1432782 0.14015652 -0.16798484 0.17014752
0.12111111 -0.1470116 0.06212084 -0.0013956279 -0.018172294 0.06746353 0.12940945 0.123029366
-0.1831096 0.19585712 -0.005086258 -0.06899074 -0.060953826 0.040772364 0.08799504 -0.14268574
0.1644863 0.0006990731 0.0087055415 0.011976913 0.044056773 -0.19727845 0.13659985 -0.13971221
-0.053026527 -0.12194576 -0.19581406 -0.17696932 0.16533671 0.0040504932 0.060900226 -0.048008084
00000000: 8d41 3e3e 27d5 2d3e ed8d 183e 91bd 343e
00000010: 6292 f53d 0159 0a3e 88eb 2a3d d29b ce3d
00000020: e0b8 363d 2025 633c 6d4a f2bd 9899 473d
00000030: b4cd 00be 7ab5 83bd 71b7 393e ac7f 6b3d
00000040: d836 9e3c 6082 4b3d 17c0 0a3e 9055 1abe
00000050: 00e5 32bc 3e76 8f3d 3466 25bd 0331 debd
00000060: d420 2bbd b0e8 3b3c a012 f13b f00d a8bc
00000070: c36b 333e 281b 9fbc 12e9 db3d 07da f4bd
00000080: 334a 223e 0ab6 90bd e018 05bd 4272 953d
00000090: 70db c0bd 214b 073e fa53 913d c2ee db3d
000000a0: 0077 9a3a a2c4 973d 3897 4cbe ecf6 733d
000000b0: 02d3 c43d 387b 1fbe 2aec d73d da52 99bd
000000c0: 1756 b3bd 69ab 233e 49dc 213e 40d7 3a3b
000000d0: 7109 023e 16a1 ad3d da2d ea3d 80ea 083c
000000e0: 7f9e 303e c0a5 1bbd abed 353e 3ca4 86bd
000000f0: f972 013e 3e21 9a3d d847 50bd 6a1c e43d
00000100: 28a3 89bc d2a5 8c3d 1eb5 a23d 074a c4bd
00000110: e9d7 153e d8f1 3ebd 9830 03bd 402b e13b
00000120: dc76 6e3d a261 bd3d a62b f43d 5822 46be
00000130: 9436 7bbd ecac 2a3d 7541 35be a0c9 513c
00000140: c60b 84bd fc0c 84bd 70cf 9c3c 4407 7e3d
00000150: 9623 03be 833e fcbd a0af f1bb 3a9b a53d
00000160: a464 6b3d 80ae 5bbd 6fc0 4c3e 404b 9d3c
00000170: b69e 82bd 7523 143e 3d0f 9ebd 60ed e2bd
00000180: c075 423d 17df e9bd 8081 9dbd 8c53 7e3d
00000190: 96da bf3d 0852 03be aa44 c43d 22a4 1ebe
000001a0: a2a4 9a3d 4aca 98bd 6049 033d 64be 08be
000001b0: d5f0 1d3e 0917 303e 2307 36be 5da4 02be
000001c0: 803a 493b 4c0a 60bd 194c 413e 40e8 81bd
000001d0: 18f5 45bd 5de6 17be 528b a83d 08d9 2b3d
000001e0: fc19 543d 2045 1bbd 0321 333e 0074 0c3d
000001f0: 14c7 053d e84c 85bc cae5 e33d 8d34 e0bd
00000200: a75d acbd e270 0ebe e081 6abd 79bf 4a3e
00000210: 18d8 223d 200f b5bd d178 333e d41c 4e3d
00000220: d6a9 e73d e4ae 81bd 86ab 823d abf2 353e
00000230: a010 79bd d83d 63bd 8031 4b3d a06a 24be
00000240: 68d1 07be 1d72 abbd 89f6 463e a0f4 29be
00000250: 60f8 9a3b 5a07 aa3d 87f4 b9bd d029 573c
00000260: 73ac 063e 156f 2b3e 9493 6b3d a3a9 183e
00000270: ecd4 20bd 40ae debc 6a7d e53d a31f d6bd
00000280: 0083 86bd b611 8bbd ede9 cabd 00f7 b2ba
00000290: ba2e 863d 135c 22be 984b 7dbd ae7a 22be
000002a0: 03ba 3bbe e9eb 143e f028 ed3c b44a 723d
000002b0: a099 b53b b4cd 5bbd 153f 02be 0054 e7bb
000002c0: 881a 76bd 3011 9c3c 3781 31be a058 083d
000002d0: 78d0 283d 00bd 3cbd e08c c4bd f56f 103e
000002e0: 4a7a afbd 304e 72bc d553 16be 00ad c13c
000002f0: cc9a 083d b062 083c 52c1 ce3d 132c acbd
00000300: b3c8 053e 4685 a03d aa68 d3bd 8a72 803d
00000310: 8dd1 30be 291f 473e d050 45be 1213 aa3d
00000320: c9ff 353e c284 c23d 712b 393e 1e7c 10be
00000330: 7889 3abe a097 f3bd 703d cfbd c080 b33c
00000340: 6f13 36be b0bf 463c c233 c83d 9b38 383e
00000350: 68f1 ef3c a26c c33d b0ab 2fbe 89e3 193e
00000360: c9a2 1a3e bc18 85bd 4013 803b 2793 aabd
00000370: 85b7 12be 3185 0f3e 3804 2cbe 273b 2e3e
00000380: 1a09 f83d 358a 16be 6c72 7e3d 80ed b6ba
00000390: 10de 94bc 522a 8a3d e983 043e d2f6 fb3d
000003a0: 1581 3bbe c58e 483e a0aa a6bb 044b 8dbd
000003b0: b8aa 79bd ec00 273d be36 b43d 361c 12be
000003c0: 196f 283e 0042 373a b0a1 0e3c d03a 443c
000003d0: e074 343d 5d03 4abe d5e0 0b3e b810 0fbe
000003e0: 5832 59bd b3be f9bd 7b83 48be 7237 35be
000003f0: 074e 293e 00ba 843b 8472 793d 20a4 44bd

lstm.bias_ih_l0 f4 [100]
0.11352017 0.90919656 0.33441526 0.31442574 0.12272578 1.7050947 0.20065215 0.13796383
0.51938695 1.0526363 1.0759883 0.44621724 -0.20723529 1.9855175 1.4230725 0.42547473
0.18039829 0.75116104 1.0309325 0.1774176 0.39060038 0.70326585 0.3826488 0.2316787
0.5085722 0.08800186 -0.15667374 -0.19227819 -0.0077418387 0.032731846 -0.10960195 0.0032667667
-0.15318617 0.09357731 0.039410263 0.053100005 -0.07267122 -0.15117994 -0.054378957 0.17202558
-0.0855686 -0.049943656 -0.16641554 -0.058690995 0.17243828 0.05128865 0.043298796 -0.14896636
-0.081622265 0.10683979 0.20924059 0.5248135 0.82682747 -0.23955637 0.6894926 0.052748818
0.17101344 0.6412484 -0.15097173 -0.16126119 0.07386421 0.85154325 0.24647503 0.7240952
-0.0154431835 -0.6906798 0.41328675 -0.7841853 0.022646364 0.700303 0.2537749 -0.47826794
-0.4500881 -0.4240435 0.40439013 -0.1322593 1.5150352 0.44942904 -0.072645456 0.24227455
1.166567 0.23451026 -0.061703652 0.6857325 1.2761335 1.2496114 0.13784693 -0.09303035
1.2556211 2.247381 0.67434126 0.050899792 1.3994216 0.8162243 -0.06624481 0.80124724
0.42256683 0.3494106 0.5661323 0.5393809
00000000: 437d e83d 1bc1 683f 7a38 ab3e 69fc a03e
00000010: a757 fb3d 8b40 da3f c277 4d3e 6446 0d3e
00000020: 8bf6 043f c9bc 863f fcb9 893f 9676 e43e
00000030: 7d35 54be 7025 fe3f 3d27 b63f d3d7 d93e
00000040: 54ba 383e 174c 403f 99f5 833f f6ac 353e
00000050: c6fc c73e 3b09 343f 8bea c33e 2e3d 6d3e
00000060: ca31 023f 523a b43d 156f 20be 93e4 44be
00000070: 40af fdbb d411 063d fd76 e0bd 4017 563b
00000080: d6dc 1cbe 76a5 bf3d a86c 213d 647f 593d
00000090: a6d4 94bd eace 1abe 78bc 5ebd 7927 303e
000000a0: 973e afbd b891 4cbd d668 2abe f865 70bd
000000b0: a993 303e 0c14 523d 145a 313d a38a 18be
000000c0: 9329 a7bd d2ce da3d 2a43 563e 2d5a 063f
000000d0: f7aa 533f 444e 75be 9682 303f 250f 583d
000000e0: 261e 2f3e db28 243f 5598 1abe a721 25be
000000f0: 1e46 973d bdfe 593f f363 7c3e 4e5e 393f
00000100: 6805 7dbc 64d0 30bf 529a d33e 5ec0 48bf
00000110: de84 b93c 0f47 333f c9ee 813e 89df f4be
00000120: f371 e6be 3b1c d9be 390c cf3e fb6e 07be
00000130: acec c13f 901b e63e 24c7 94bd d216 783e
00000140: 1152 953f 7523 703e f8bc 7cbd 2a8c 2f3f
00000150: 5858 a33f 44f3 9f3f bf27 0d3e b286 bebd
00000160: 31b8 a03f 17d5 0f40 a1a1 2c3f 4d7c 503d
00000170: 3f20 b33f 13f4 503f 5cab 87bd 8a1e 4d3f
00000180: ae5a d83e f2e5 b23e 0cee 103f de14 0a3f

lstm.bias_hh_l0 f4 [100]
-0.026182596 0.94492334 0.341991 0.27771476 0.18381017 1.8730088 0.26955387 0.028834779
0.6834001 0.9408854 1.1370099 0.5849411 -0.4042957 1.8912143 1.5381323 0.18831779
0.062316652 0.7399183 1.1152791 -0.0966246 0.49182206 0.56763 0.111099996 0.37220293
0.5075024 0.103956476 0.13234963 -0.11221774 -0.15842628 -0.048441008 -0.09112203 -0.02514951
-0.0038710088 -0.12874706 -0.07542982 0.15922476 0.15256076 -0.05870466 0.19490312 -0.07946694
0.04289715 0.059762016 0.0027158558 0.12817226 -0.15513098 0.1482756 -0.07993283 -0.14647567
-0.123159364 -0.18830064 0.14837855 0.144231 0.61113614 -0.3380838 0.4759337 0.045669325
0.24879475 0.5921429 -0.34240362 0.14651527 0.34582132 0.878797 0.33156013 0.78682613
0.17120358 -0.5123957 0.6555346 -0.7177651 0.14066806 0.7106512 0.29523197 -0.45513985
-0.4241434 -0.28005937 0.34384117 -0.054121375 1.651264 0.5221883 -0.048077 0.15396458
1.1788765 0.19464065 0.119164474 0.6538389 1.3595245 1.217454 0.07780507 -0.31001174
0.9757866 1.932803 0.70949775 0.17894265 1.3108584 0.8520792 0.13223565 0.8254068
0.3395906 0.27242225 0.5603721 0.3903018
00000000: e27c d6bc 7fe6 713f 7219 af3e a130 8e3e
00000010: bc38 3c3e c1be ef3f f702 8a3e ea36 ec3c
00000020: 4ff3 2e3f dedd 703f 8a89 913f b3be 153f
00000030: d9ff cebe 4f13 f23f 85e1 c43f 61d6 403e
00000040: bf3f 7f3d 496b 3d3f 77c1 8e3f 1ee3 c5bd
00000050: 1ad0 fb3e 3350 113f 6588 e33d 6291 be3e
00000060: adeb 013f 22e7 d43d a986 073e 6ad2 e5bd
00000070: 803a 22be 146a 46bd 309e babd 5806 cebc
00000080: c0b0 7dbb 45d6 03be f37a 9abd d10b 233e
00000090: e338 1c3e 4c74 70bd af94 473e 90bf a2bd
000000a0: ecb4 2f3d 04c9 743d 80fc 313b 973f 033e
000000b0: a8da 1ebe 8fd5 173e d3b3 a3bd b8fd 15be
000000c0: fa3a fcbd e2d1 40be 8cf0 173e 4bb1 133e
000000d0: 6b73 1c3f 5219 adbe 95ad f33e c20f 3b3d
000000e0: 0dc4 7e3e ad96 173f 874f afbe 1908 163e
000000f0: 7e0f b13e d7f8 603f 40c2 a93e 706d 493f
00000100: fe4f 2f3e 5d2c 03bf 1ed1 273f 74bf 37bf
00000110: 4a0b 103e 3ded 353f a528 973e 1708 e9be
00000120: 5329 d9be f163 8fbe f30b b03e 60ae 5dbd
00000130: 9e5c d33f 22ae 053f 63ec 44bd e4a8 1d3e
00000140: 6de5 963f e14f 473e 810c f43d fc61 273f
00000150: e604 ae3f 88d5 9b3f 4458 9f3d dcb9 9ebe
00000160: 27cd 793f 1766 f73f a5a1 353f be3c 373e
00000170: 35ca a73f dd21 5a3f c868 073e dc4d 533f
00000180: d2de ad3e ee7a 8b3e 8c74 0f3f a3d5 c73e

lstm.weight_ih_l1 f4 [100, 25]
-0.28978175 -2.071543 0.27891657 -0.022360431 -0.30006117 -0.23110607 -0.7186026 -0.4428876
-1.3106624 -2.6102717 -2.1417956 0.052581184 -0.6385808 0.49926248 -0.30682254 -0.055424597
-0.67174304 -0.2743788 -0.13371257 0.45661816 1.2204826 1.7176594 0.5259821 -0.95087856
-0.52959806 -1.2002807 -0.13191612 -1.0575922 1.4336462 -1.032444 -0.50630486 0.76421994
-1.005252 1.1458958 -0.119204454 -0.3866469 -0.27212077 -1.1821153 -0.38901687 -0.23645727
0.9163662 -0.8166478 -0.74316 -0.8711719 0.42977038 0.5109502 0.9123217 0.7864017
-0.65870506 -0.460934 -0.3986675 -1.3738121 0.2753975 1.0317787 0.04269323 -0.3563644
0.9562955 0.25559205 0.63798636 -1.3832529 -1.5194932 -0.07298643 -0.2468531 0.3668106
0.034129065 0.100083604 0.22204588 -0.65265834 -0.42773983 1.7816026 1.3084865 0.5756107
0.115650386 -1.4715493 -0.22440352 -3.3239508 -1.1078577 -0.38191292 -0.26732078 -3.425758
-1.1955265 1.1752553 -0.43255246 -2.385057 0.08916862 -0.70552397 -0.073635265 -0.325215
0.40924942 -0.121018745 -0.5677659 -1.428177 -0.3697158 -0.7417988 -0.17712337 -0.7803205
2.5582378 0.52784437 2.21141 -0.61781716 -0.38501227 -0.9519486 0.5523321 1.1329819
0.10849344 -0.58685064 0.29401907 0.22376963 -0.8198553 -1.205706 -0.5292357 0.27586
-0.23411351 0.8869478 0.24774274 -0.18062176 0.023988487 -0.39134812 -0.495496 1.1977785
0.57715076 0.72528106 -0.1768218 -1.9964349 -0.24662326 -0.489221 -0.60516006 -0.24200027
1.410308 -0.03384112 -0.6963527 0.07561574 -0.38205168 0.32175496 -0.2714 0.36716044
0.22022393 -0.31134024 0.08403274 -0.27629453 -0.062246725 -0.31279856 -0.9219821 -0.52697843
2.0069613 0.24145147 0.7945087 0.45881706 -2.2318773 -0.39322215 -0.4096863 -0.3810596
-0.07505172 0.57636786 -0.36622244 -0.40286988 0.70474297 -0.3160136 -0.14762698 -0.2725065
-0.94743645 -0.11423393 -0.6111616 0.2396468 -0.15664081 0.33218366 -0.2710824 -0.13795236
-0.4655605 0.16555749 1.2118993 1.5291953 -0.90727603 -1.2096334 -0.77189934 -1.6412294
-0.50544846 -0.51706225 2.0033798 -0.82822484 -0.71057993 1.476695 -0.77967894 2.3126788
-0.10321563 -0.7539051 -0.18111414 -0.3244525 0.21019989 -0.42888623 1.1958447 -0.6499673
-0.8069259 -0.81093955 0.35672453 1.5403965 1.7605839 0.083557315 -1.2073424 -1.419591
-0.3005157 -1.0011747 0.6293037 0.832143 0.3359852 -0.19841538 -0.074269995 0.43268096
1.0874841 -0.98364013 -1.0636289 0.3852432 -0.5092041 1.1543137 0.07893747 0.033964068
0.8115089 -0.5485147 -0.29637754 0.85126686 1.9011413 1.1073838 -0.7182217 -0.943381
-0.2105719 -0.03932319 -1.763522 0.49916545 0.67588246 -0.09445846 -1.8996564 -0.373372
-0.48817822 -0.81492025 -2.8262858 -1.210002 0.2946144 0.1696236 0.7893319 -1.9844377
-0.23867482 -0.19762623 -0.6214712 -1.5942291 0.009413077 0.21353118 1.4498793 -0.30941564
0.94434154 0.3457371 -2.7020595 0.088836595 -1.2650144 2.0614853 -2.4879954 -0.96522
00000000: 465e 94be 2994 04c0 27ce 8e3e 392d b7bc
00000010: 9ea1 99be 12a7 6cbe 57f6 37bf 2ac2 e2be
00000020: c9c3 a7bf b10e 27c0 2e13 09c0 5e5f 573d
00000030: 087a 23bf 559f ff3e d817 9dbe e704 63bd
00000040: 5af7 2bbf 617b 8cbe f3eb 08be dbc9 e93e
00000050: c638 9c3f 43dc db3f c3a6 063f c76c 73bf
00000060: bd93 07bf cca2 99bf 0515 07be 2e5f 87bf
00000070: b881 b73f 2027 84bf 329d 01bf eba3 433f
00000080: 19ac 80bf b7ac 923f 7721 f4bd 95f6 c5be
00000090: 6a53 8bbe 8e4f 97bf 382d c7be db21 72be
000000a0: fa96 6a3f d50f 51bf bc3f 3ebf 1f05 5fbf
000000b0: dd0a dc3e a2cd 023f ea8d 693f 9f51 493f
000000c0: e5a0 28bf 8bff ebbe 261e ccbe 13d9 afbf
000000d0: e700 8d3e 5311 843f 19df 2e3d 6575 b6be
000000e0: c8cf 743f f6dc 823e 1353 233f 6e0e b1bf
000000f0: c17e c2bf e979 95bd 0fc7 7cbe 99ce bb3e
00000100: ebca 0b3d a2f8 cc3d ff5f 633e 9e14 27bf
00000110: b700 dbbe 8e0b e43f 7c7c a73f 395b 133f
00000120: 1cda ec3d ba5b bcbf 09ca 65be 9cbb 54c0
00000130: 48ce 8dbf 178a c3be 45de 88be 9e3f 5bc0
00000140: 0307 99bf c46e 963f 8477 ddbe c6a4 18c0
00000150: 0a9e b63d 389d 34bf 16ce 96bd 9582 a6be
00000160: 2489 d13e add8 f7bd 1b59 11bf 81ce b6bf
00000170: 644b bdbe 87e6 3dbf d45f 35be 16c3 47bf
00000180: 2bba 2340 cf20 073f be87 0d40 4429 1ebf
00000190: 5420 c5be e7b2 73bf a365 0d3f 8d05 913f
000001a0: cf31 de3d d83b 16bf ab89 963e de23 653e
000001b0: 09e2 51bf 9354 9abf fe7b 07bf 863d 8d3e
000001c0: 74bb 6fbe 030f 633f 46b0 7d3e e9f4 38be
000001d0: 8183 c43c c85e c8be a7b1 fdbe ce50 993f
000001e0: 27c0 133f 05ac 393f c610 35be 2e8b ffbf
000001f0: cf8a 7cbe 2d7b fabe c5eb 1abf ebce 77be
00000200: f984 b43f fc9c 0abd 2c44 32bf 6ddc 9a3d
00000210: 479c c3be 11bd a43e f1f4 8abe 74fc bb3e
00000220: 6282 613e fd67 9fbe 5b19 ac3d 7a76 8dbe
00000230: 6cf6 7ebd 2227 a0be 0507 6cbf 0fe8 06bf
00000240: 0e72 0040 0e3f 773e ec64 4b3f 12ea ea3e
00000250: 14d7 0ec0 6a54 c9be 67c2 d1be 3e1a c3be
00000260: b7b4 99bd d88c 133f 8281 bbbe f644 cebe
00000270: 096a 343f 89cc a1be 872b 17be f985 8bbe
00000280: 328b 72bf 7bf3 e9bd 1675 1cbf f965 753e
00000290: 7366 20be fa13 aa3e 50cb 8abe 6243 0dbe
000002a0: f25d eebe e787 293e 841f 9b3f acbc c33f
000002b0: 3e43 68bf 44d5 9abf 329b 45bf ce13 d2bf
000002c0: 1265 01bf 315e 04bf 6037 0040 8b06 54bf
000002d0: 91e8 35bf 5704 bd3f 0a99 47bf ee02 1440
000002e0: b762 d3bd edff 40bf fc75 39be a31e a6be
000002f0: a43e 573e fa96 dbbe 7011 993f 4264 26bf
00000300: b292 4ebf bc99 4fbf 99a4 b63e b62b c53f
00000310: d05a e13f 1920 ab3d 328a 9abf 28b5 b5bf
00000320: 32dd 99be 7e26 80bf 0c1a 213f 5307 553f
00000330: 4106 ac3e 672d 4bbe de1a 98bd 5c88 dd3e
00000340: ae32 8b3f d7cf 7bbf fe24 88bf 993e c53e
00000350: 335b 02bf 8dc0 933f f8a9 a13d e81d 0b3d
00000360: 0cbf 4f3f 766b 0cbf ccbe 97be a0ec 593f
00000370: 9958 f33f c1be 8d3f 61dd 37bf 6b81 71bf
00000380: 29a0 57be 5a11 21bd 17bb e1bf 9d92 ff3e
00000390: a206 2d3f 7073 c1bd f127 f3bf 9d2a bfbe
000003a0: 7ff2 f9be 9d9e 50bf dee1 34c0 58e1 9abf
000003b0: b3d7 963e cfb1 2d3e a811 4a3f 0e02 febf
000003c0: 2c67 74be 885e 4abe bd18 1fbf b30f ccbf
000003d0: 4e39 1a3c eba7 5a3e a595 b93f ba6b 9ebe
000003e0: 5ec0 713f 7404 b13e 8bee 2cc0 f6ef b53d
000003f0: feeb a1bf 60ef 0340 513b 1fc0 a818 77bf

lstm.weight_hh_l1 f4 [100, 25]
-0.13199146 -0.04424095 -0.09801226 -0.13936532 0.18929516 0.045572728 0.11301802 0.13870437
0.114956215 0.15305783 0.14474683 0.038394958 -0.0076936483 -0.19810896 0.009705782 0.15208204
-0.19650622 -0.11195209 -0.18077658 -0.059196025 0.085700765 0.10259618 0.10203989 0.06622733
0.10496308 0.1156794 -0.039459586 -0.10867641 -0.105151415 -0.026790649 0.031749457 -0.010241464
0.027641177 -0.07659691 0.032402962 0.11652605 0.0030566454 -0.08651584 0.18636368 0.12516786
0.08167346 -0.03858283 0.16772638 0.102898344 -0.05026336 -0.08891549 -0.1731267 -0.16065724
-0.12965474 0.17954855 -0.08214841 0.07020427 0.12158929 0.023124337 0.12133451 -0.021548241
0.10701446 -0.12245593 -0.08876636 0.19623949 -0.17737427 0.1975614 -0.11588643 0.16403101
-0.16683996 -0.13167143 0.020602584 -0.17807357 0.02894321 -0.10286915 -0.14635615 -0.18050121
0.1659353 0.09716155 0.13260086 -0.19128859 -0.114533976 0.12508981 0.03692293 -0.14423732
0.11530869 -0.08371122 -0.10113499 -0.12371721 0.01085186 -0.08725045 -0.19279268 0.05927722
-0.087535575 -0.02297166 -0.17412949 -0.023260638 -0.12254276 0.044457585 -0.028738022 0.035083443
0.14978455 -0.08585973 0.15573253 0.010057777 -0.17336488 -0.13561907 -0.062011912 -0.07770806
-0.058762386 0.1292782 -0.090392254 0.009321839 0.19301577 -0.18220794 0.048004985 -0.18405776
0.19381012 0.17713721 0.10664095 0.060764328 0.11687054 0.1446384 0.08866422 -0.16114108
0.17097868 0.15101273 0.19764318 0.14495338 0.08841358 0.18122233 0.08602141 0.12502553
-0.19628815 -0.045178384 0.13120447 0.07436977 -0.022762328 0.12505324 0.03655228 -0.1673893
-0.19867556 -0.16902807 0.08775826 -0.0426462 -0.13527668 0.13120933 0.08106117 -0.09635132
-0.14271209 0.017457455 -0.092158794 0.0850084 -0.15123601 -0.113113284 0.19134904 0.09048565
0.045912072 -0.09957912 -0.13122681 -0.034661055 -0.105940126 -0.03960952 0.08934222 0.12477817
-0.13771276 0.17623247 -0.107390955 0.012826204 0.110656634 -0.18937245 -0.036124557 0.05025281
-0.14244895 -0.084908485 0.055333212 -0.047729447 -0.04656358 -0.016034245 -0.013045549 0.10140388
-0.06730521 -0.0688611 0.17832388 0.1622762 0.017679378 0.060681507 0.031582147 -0.12047815
0.08887254 -0.18120651 -0.017706797 -0.09187522 0.0450861 -0.14471805 -0.18563381 -0.0007741004
0.038102865 0.102605 0.17291345 0.18405576 0.17689647 -0.1892441 0.11216153 -0.027987197
0.13818152 0.13278122 0.16285805 -0.19589742 -0.18040147 0.027544454 -0.0145435035 0.09958999
0.04115419 0.043892533 -0.0690206 -0.061070174 -0.042642877 0.19793947 0.09746756 0.07342546
0.11016856 -0.078102924 0.018104047 0.08399926 -0.038771823 0.12923859 -0.06936495 -0.13014534
-0.1123158 -0.18853055 0.18357311 0.19505425 0.08523522 0.18803729 -0.05777052 0.019915149
0.05908771 0.10234292 -0.00907889 0.19123153 0.112506524 -0.040607736 0.1757492 0.09520145
0.03251283 -0.044520542 0.15780948 -0.1550866 0.15730394 0.12479524 0.13167147 -0.020844027
0.05128421 -0.037056208 -0.12409063 0.0992478 -0.08490989 0.19513191 -0.13200064 0.100039735
00000000: c528 07be 0036 35bd a7ba c8bd c8b5 0ebe
00000010: 97d6 413e 78aa 3a3d fe75 e73d 8508 0e3e
00000020: 2a6e eb3d 31bb 1c3e 8338 143e 0844 1d3d
00000030: 001b fcbb 13dd 4abe 0005 1f3c 65bb 1b3e
00000040: ed38 49be 2347 e5bd 7f1d 39be 8877 72bd
00000050: e283 af3d f21d d23d 4afa d03d 32a2 873d
00000060: e2f6 d63d 52e9 ec3d 60a0 21bd bd91 debd
00000070: a059 d7bd 1078 dbbc b80b 023d d0cb 27bc
00000080: c06f e23c d7de 9cbd f8b8 043d 36a5 ee3d
00000090: 0052 483b 372f b1bd 1fd6 3e3e 012c 003e
000000a0: 6a44 a73d 0809 1ebd 77c0 2b3e 5ebc d23d
000000b0: f4e0 4dbd 5319 b6bd 2048 31be 5583 24be
000000c0: 36c4 04be 93db 373e 6d3d a8bd 42c7 8f3d
000000d0: ce03 f93d 406f bd3c 3a7e f83d f085 b0bc
000000e0: 662a db3d 2dca fabd 23cb b5bd 01f3 483e
000000f0: 9aa1 35be 894d 4a3e dd55 edbd bff7 273e
00000100: 18d8 2abe e0d4 06be c0c6 a83c eb58 36be
00000110: 501a ed3c 10ad d2bd 63de 15be 4fd5 38be
00000120: f1ea 293e a2fc c63d 85c8 073e 28e1 43be
00000130: ca90 eabd 8b17 003e 803c 173d f3b2 13be
00000140: f626 ec3d ca70 abbd dd1f cfbd 735f fdbd
00000150: 00cc 313c 5db0 b2bd 726b 45be accc 723d
00000160: da45 b3bd 102f bcbc 004f 32be 188d bebc
00000170: b3f7 fabd 2819 363d 006c ebbc a8b3 0f3d
00000180: 1f61 193e 3ad7 afbd 5978 1f3e 60c9 243c
00000190: 9086 31be badf 0abe 3400 7ebd 6725 9fbd
000001a0: d4b0 70bd 8161 043e 931f b9bd a0ba 183c
000001b0: eda5 453e b894 3abe e0a0 443d a379 3cbe
000001c0: 2976 463e 7563 353e 9266 da3d 04e4 783d
000001d0: d259 ef3d 171c 143e 9695 b53d 2b02 25be
000001e0: 0915 2f3e 15a3 1a3e f962 4a3e a96e 143e
000001f0: 2e12 b53d 5992 393e fe2b b03d b106 003e
00000200: c3ff 48be f80c 39bd 775a 063e 2e4f 983d
00000210: 1078 babc f50d 003e d8b7 153d 1a68 2bbe
00000220: 9b71 4bbe b215 2dbe 9aba b33d c8ad 2ebd
00000230: f885 0abe bd5b 063e 6603 a63d d753 c5bd
00000240: 1e23 12be f002 8f3c c0bd bcbd e218 ae3d
00000250: 9ddd 1abe f0a7 e7bd 01f1 433e 8a50 b93d
00000260: 4c0e 3c3d 23f0 cbbd 5260 06be c0f8 0dbd
00000270: 23f7 d8bd 983d 22bd 0ef9 b63d b28b ff3d
00000280: 9304 0dbe 4976 343e caef dbbd 0025 523c
00000290: f29f e23d daea 41be 58f7 13bd e4d5 4d3d
000002a0: 23de 11be 80e4 adbd 14a5 623d f47f 43bd
000002b0: 74b9 3ebd 405a 83bc 00bd 55bc d6ac cf3d
000002c0: 50d7 89bd 0c07 8dbd 899a 363e bb2b 263e
000002d0: 58d4 903c 2c8d 783d 485c 013d 40bd f6bd
000002e0: ce02 b63d 338e 39be d80d 91bc 1329 bcbd
000002f0: 34ac 383d f830 14be ca16 3ebe 00ed 4aba
00000300: c011 1c3d 9222 d23d 3910 313e 1d79 3c3e
00000310: 5924 353e 35c9 41be f2b4 e53d 6845 e5bc
00000320: 757f 0d3e cdf7 073e 43c4 263e 5599 48be
00000330: 2abb 38be e8a4 e13c e047 6ebc d6f5 cb3d
00000340: 4c91 283d a8c8 333d ac5a 8dbd b824 7abd
00000350: 4caa 2ebd a5b0 4a3e 129d c73d 1660 963d
00000360: 0ea0 e13d 6df4 9fbd f04e 943c ce07 ac3d
00000370: 34cf 1ebd 1f57 043e 360f 8ebd d244 05be
00000380: d305 e6bd 270e 41be 97fa 3b3e 4dbc 473e
00000390: ce8f ae3d d98c 403e c8a0 6cbd 1825 a33c
000003a0: f405 723d 2a99 d13d a0bf 14bc 33d2 433e
000003b0: d269 e63d 4c54 26bd 99f7 333e faf8 c23d
000003c0: 2c2c 053d 2c5b 36bd cf98 213e 06cf 1ebe
000003d0: 4914 213e a694 ff3d e3d4 063e 18c1 aabc
000003e0: 640f 523d 40c8 17bd 3a23 febd 6e42 cb3d
000003f0: 3de5 adbd a9d0 473e 2d2b 07be a2e1 cc3d

lstm.bias_ih_l1 f4 [100]
0.2276169 0.6433512 0.34145007 0.456917 0.35705698 1.2420012 0.507955 0.89749146
0.428525 0.21208292 0.9238447 -0.110410035 0.74725956 -0.14210184 0.37764642 0.72976804
1.5994744 0.8817611 1.0168645 0.83677816 0.83850896 0.17697455 0.28278798 0.3173959
-0.0013370059 0.10500394 0.11358003 -0.1190929 -0.043761402 -0.1430542 0.14464603 -0.1014349
-0.14095943 0.0639943 0.026853874 0.14314018 -0.16797295 -0.054421097 -0.14792284 -0.032046914
0.18005244 -0.14129217 -0.07560565 0.045862466 0.08112423 -0.06331316 0.08451523 -0.071826786
-0.014156371 0.16207053 0.21180531 -0.7516787 -0.077873565 0.19703135 -0.17109457 -0.37710202
-0.27613756 -0.2679953 0.3178996 0.12738733 0.48368964 0.28843176 -0.123583436 0.5794696
0.22279988 -0.4043785 0.4708698 0.11708534 0.14354238 -0.22098312 0.43495733 0.04562916
0.29390007 -0.14773303 -0.73289025 0.49482328 0.7629306 0.17858309 0.2461012 0.57449764
0.9411729 0.09749234 1.0316643 0.43199304 0.25594425 0.06774581 -0.028606743 0.5893586
0.2810235 0.9275587 0.83333176 1.6060784 0.93899924 2.0570228 0.70242774 0.86904705
-0.34385952 0.36947086 0.4571247 -0.19804788
00000000: 6814 693e aab2 243f 8bd2 ae3e 06f1 e93e
00000010: 2cd0 b63e e5f9 9e3f 5709 023f 00c2 653f
00000020: a167 db3e 442c 593e 1681 6c3f a81e e2bd
00000030: 674c 3f3f 2583 11be df5a c13e 14d2 3a3f
00000040: 94bb cc3f 18bb 613f 9e28 823f 1837 563f
00000050: 86a8 563f d138 353e 96c9 903e b781 a23e
00000060: 793e afba 4e0c d73d a69c e83d fae6 f3bd
00000070: 283f 33bd cd7c 12be 171e 143e 1abd cfbd
00000080: ab57 10be 720f 833d a8fc db3c 5793 123e
00000090: 1a01 2cbe a8e8 5ebd 1679 17be a043 03bd
000000a0: ab5f 383e e5ae 10be 23d7 9abd 48da 3b3d
000000b0: 7624 a63d 54aa 81bd 5216 ad3d ec19 93bd
000000c0: 20f0 67bc d1f5 253e 7ee3 583e 046e 40bf
000000d0: 2d7c 9fbd 96c2 493e 6a33 2fbe 8413 c1be
000000e0: e761 8dbe ae36 89be bdc3 a23e d371 023e
000000f0: 2ba6 f73e 54ad 933e 5019 fdbd 1f58 143f
00000100: a725 643e b30a cfbe d915 f13e 70ca ef3d
00000110: c6fc 123e 6649 62be bab2 de3e a4e5 3a3d
00000120: 127a 963e 5447 17be b29e 3bbf 7a59 fd3e
00000130: 6b4f 433f 7cde 363e f401 7c3e 4712 133f
00000140: b5f0 703f 10aa c73d 930d 843f 312e dd3e
00000150: 200b 833e 51be 8a3d b058 eabc 35e0 163f
00000160: 50e2 8f3e 7d74 6d3f 3b55 553f fa93 cd3f
00000170: 4162 703f 43a6 0340 4ed2 333f de79 5e3f
00000180: 5b0e b0be 492b bd3e 400c ea3e 10cd 4abe

lstm.bias_hh_l1 f4 [100]
0.28085753 0.7245059 0.5501441 0.19995247 0.18812242 0.8793834 0.26569134 0.7856252
0.3564587 0.0076820115 0.9728537 -0.2599726 0.8176059 -0.08613608 0.5191401 1.0126425
1.7089727 0.7865099 0.96758705 0.7609285 0.93973684 0.26046026 -0.03919521 0.2525092
0.11518025 0.15253739 -0.13414526 -0.18793626 -0.13671356 0.14761724 0.060439304 0.058857307
0.08100675 -0.0028882772 0.12685837 -0.05623433 -0.19831286 0.13203014 0.19686525 0.098894075
0.05136834 0.15793623 -0.09477871 -0.19215094 0.17506792 0.06295447 0.1831827 -0.080537654
-0.1602486 0.12579356 -0.09210686 -0.904307 -0.23794104 0.16838494 -0.13080275 -0.40254784
-0.3027118 -0.52958536 0.26319852 0.08968958 0.45543227 0.27032167 -0.070337094 0.46618047
0.003541635 -0.7163196 0.6639426 0.2875477 0.16254869 -0.1686795 0.44008106 0.17036226
0.22287981 -0.45524403 -0.67087936 0.17413467 0.7349395 0.36397356 0.27886036 0.47272816
1.1327089 0.29367626 0.8050626 0.49015427 0.02857383 0.12000772 0.14884327 0.7237
0.3111021 0.744754 0.6852475 1.5659027 0.8293404 2.4134057 0.57795084 0.8011433
-0.12066816 0.378495 0.47450495 0.11048883
00000000: 8fcc 8f3e 3879 393f 3ed6 0c3f 57c0 4c3e
00000010: 2aa3 403e 451f 613f b208 883e bc1e 493f
00000020: c181 b63e 62b9 fb3b f10c 793f 211b 85be
00000030: 9f4e 513f 1d68 b0bd 5ee6 043f 459e 813f
00000040: 9ebf da3f b658 493f c9b3 773f 36cc 423f
00000050: 9892 703f 0c5b 853e 288b 20bd e348 813e
00000060: 9fe3 eb3d c332 1c3e 605d 09be 5d72 40be
00000070: a4fe 0bbe f928 173e 348f 773d 5c14 713d
00000080: dee6 a53d 4049 3dbb 29e7 013e f855 66bd
00000090: 8712 4bbe e932 073e 0b97 493e fa88 ca3d
000000a0: 9c67 523d 09ba 213e 571b c2bd 37c3 44be
000000b0: 0145 333e 46ee 803d 3f94 3b3e edf0 a4bd
000000c0: 3618 24be 07d0 003e 85a2 bcbd aa80 67bf
000000d0: d1a6 73be 1a6d 2c3e 28f1 05be c01a cebe
000000e0: 0bfd 9abe e892 07bf f5c1 863e 2caf b73d
000000f0: 6b2e e93e 9a67 8a3e e50c 90bd 35af ee3e
00000100: c61a 683b b960 37bf 24f8 293f 7439 933e
00000110: 2a73 263e 52ba 2cbe 4e52 e13e 7273 2e3e
00000120: 9b3a 643e bf15 e9be c0be 2bbf 5c50 323e
00000130: ff24 3c3f be5a ba3e c9c6 8e3e 6d09 f23e
00000140: 9bfc 903f bc5c 963e 9518 4e3f 80f5 fa3e
00000150: aa13 ea3c 9cc6 f53d 5f6a 183e 6744 393f
00000160: c648 9f3e 33a8 3e3f 616c 2f3f 806f c83f
00000170: a74f 543f 3d75 1a40 96f4 133f ba17 4d3f
00000180: de20 f7bd 19ca c13e 50f2 f23e f847 e23d

fc.weight f4 [52, 25]
0.019317023 4.66201 -0.81024855 0.6661157 -0.39343047 1.0457097 0.20739906 -3.348443
0.68964773 0.12923361 -0.9117017 0.38127115 -0.5799589 0.42574722 -0.05658729 0.0720674
0.70205915 -0.564297 0.11744595 -0.55140173 0.82721776 -1.226945 -0.28012246 0.16256016
-0.49038002 -0.7309887 -0.52710646 0.18076411 -0.93668014 -0.42386216 0.165434 -3.6942317
-0.35010782 -0.1288926 -0.12135216 0.69714123 0.6029538 -0.21661809 0.019456547 -2.223048
-0.22952653 0.49309707 -0.34143424 -0.09910527 -0.51434714 0.27589306 -0.9474076 -5.3741484
-3.380813 0.060119674 0.66162926 0.48465222 0.83760667 -0.740996 0.3165685 -0.8207332
2.414587 -0.13320161 -4.228302 4.829448 -1.2900816 -0.69058573 1.0354553 3.4958892
3.3906388 -0.8354221 -1.4023396 0.09796205 -0.6274147 0.47535107 0.04579903 0.332847
1.0713611 1.6653144 1.3520489 -0.49714038 0.6688074 -1.6537676 1.603487 -0.43261856
0.52734005 0.9016872 1.9952205 0.5794438 0.7863676 -1.4697013 0.8390692 -0.30789348
0.88314134 0.6301666 0.4902171 0.8390338 -0.9961871 0.72437596 -0.56259114 0.83419687
0.0015647274 -0.456692 1.1459062 2.5761793 -4.902033 -0.35642725 -0.072481684 -0.5012357
-0.2809094 0.053361274 -3.3652806 -0.25134936 -0.051445626 0.075687006 0.3631485 0.76674604
0.36208752 0.098259434 -2.4591212 -0.65943456 0.234937 -0.24995518 -0.21621162 -0.079431884
-0.44305065 -0.7524367 4.4505672 -1.2053285 0.36175805 -0.40847713 -2.9396713 1.1671925
0.06189749 -0.8710679 -0.17884065 0.09215629 -0.68724877 0.074289404 0.50583 -0.02458788
0.27381057 -0.21383487 0.27884728 0.88935745 0.027529415 0.3006082 -0.2757708 -0.066992775
-0.65458256 1.140588 -0.82718974 -0.4811065 1.7828813 -2.1977339 -0.5222182 -3.4845746
1.7311293 2.5136535 -0.44547617 -0.24117996 1.0411215 -0.34603694 -0.03067018 0.1217508
-3.0650918 0.45816022 -0.031875044 0.023598013 0.3645558 -0.40138605 0.34202003 -0.12045436
-0.45349336 -0.665128 0.8925345 -1.4187632 -0.25731677 -0.45201626 -3.213784 0.5420816
0.38511273 -0.21158169 -1.6154778 1.4966319 0.20990954 0.13042137 0.27619767 0.044167276
-2.3601003 0.5054065 -1.4279876 -6.088964 -0.052733626 -0.33243686 0.2799935 -1.1501591
0.29251856 0.008594151 2.9548078 -1.6891845 0.27527452 0.59446 1.3452147 1.2659917
-0.06303885 -1.6597446 0.9562676 -0.2871921 -0.82557446 0.27866164 -0.56535196 -0.6056048
0.17365593 0.13903105 2.588693 0.43872008 -0.25783297 0.18334548 1.2367119 -0.18391272
0.57786256 -0.23329125 0.028588288 -0.49056005 1.1412576 -0.6824471 -0.5454218 2.8117158
-2.1532445 0.3670171 0.13734104 -0.25079855 -0.841145 0.5644611 0.6181971 0.6640301
0.057128012 3.1806679 -1.7621089 0.35366917 -3.3548439 0.46200064 -0.6074533 -0.07209424
0.92852813 -1.0975342 1.2227904 0.051348526 3.6141937 -1.2793288 0.5894308 1.1160989
3.0631537 1.8716815 1.7207266 0.43415868 0.47739607 -1.2990462 -0.23224473 -0.1740646
00000000: bc3e 9e3c 302f 9540 736c 4fbf 8f86 2a3f
00000010: b86f c9be d1d9 853f 6b60 543e e44c 56c0
00000020: c18c 303f d155 043e 4865 69bf f935 c33e
00000030: 3078 14bf 8afb d93e 13c8 67bd 1398 933d
00000040: 26ba 333f c575 10bf 8187 f03d aa28 0dbf
00000050: 8bc4 533f 890c 9dbf 366c 8fbe 2c76 263e
00000060: 1713 fbbe 1322 3bbf 73f0 06bf 3a1a 393e
00000070: 45ca 6fbf 7604 d9be 8867 293e 4b6e 6cc0
00000080: 5541 b3be 6cfc 03be 7b87 f8bd d977 323f
00000090: 2e5b 1a3f 22d1 5dbe 5663 9f3c 6b46 0ec0
000000a0: 0109 6bbe 3877 fc3e 78d0 aebe b4f7 cabd
000000b0: 41ac 03bf db41 8d3e 4e89 72bf 06f9 abc0
000000c0: 3d5f 58c0 0c40 763d 8960 293f 5624 f83e
000000d0: 646d 563f eab1 3dbf 4415 a23e 921b 52bf
000000e0: 9888 1a40 0166 08be 404e 87c0 d78a 9a40
000000f0: 6521 a5bf 3aca 30bf cd89 843f a6bc 5f40
00000100: 3a00 5940 39de 55bf dd7f b3bf 54a0 c83d
00000110: 409e 20bf 3761 f33e c497 3b3d ec6a aa3e
00000120: 5c22 893f 0629 d53f f00f ad3f 2f89 febe
00000130: f636 2b3f a8ae d3bf 103f cd3f 2e80 ddbe
00000140: c2ff 063f f9d4 663f 6363 ff3f 6e56 143f
00000150: 634f 493f 2c1f bcbf 3dcd 563f 37a4 9dbe
00000160: 8d15 623f 9952 213f bcfd fa3e ebca 563f
00000170: 1e06 7fbf b470 393f f905 10bf ed8d 553f
00000180: 8a17 cd3a 89d3 e9be 0ead 923f 1fe0 2440
00000190: 74dd 9cc0 a27d b6be 4771 94bd fc50 00bf
000001a0: 5bd3 8fbe 5a91 5a3d c260 57c0 ddb0 80be
000001b0: a6b8 52bd ca01 9b3d 9aee b93e 7849 443f
000001c0: 8963 b93e 3e3c c93d 3e62 1dc0 b4d0 28bf
000001d0: 5393 703e 40f4 7fbe 9466 5dbe 2fad a2bd
000001e0: 89d7 e2be b19f 40bf 0c6b 8e40 3448 9abf
000001f0: 5a38 b93e ea23 d1be 9323 3cc0 9066 953f
00000200: 3988 7d3d 4efe 5ebf 0122 37be 70bc bc3d
00000210: 89ef 2fbf 0b25 983d 137e 013f 866c c9bc
00000220: e630 8c3e 87f7 5abe 12c5 8e3e eeac 633f
00000230: 5e85 e13c 51e9 993e d531 8dbe 8233 89bd
00000240: b992 27bf cafe 913f b5c2 53bf 9753 f6be
00000250: 7435 e43f aca7 0cc0 18b0 05bf 4503 5fc0
00000260: a595 dd3f b3df 2040 7415 e4be e1f7 76be
00000270: 7843 853f c12b b1be 0840 fbbc 7c58 f93d
00000280: 772a 44c0 fa93 ea3e 688f 02bd 9f50 c13c
00000290: 0fa7 ba3e 7982 cdbe 401d af3e c7b0 f6bd
000002a0: 4830 e8be d445 2abf 247d 643f 089a b5bf
000002b0: 06bf 83be ad6e e7be a3ae 4dc0 dcc5 0a3f
000002c0: 7f2d c53e dfa8 58be fac7 cebf a291 bf3f
000002d0: 87f2 563e 2e8d 053e c869 8d3e bfe8 343d
000002e0: e20b 17c0 5262 013f 4cc8 b6bf cbd8 c2c0
000002f0: 37ff 57bd 2a35 aabe 4f5b 8f3e 6a38 93bf
00000300: fec4 953e 7bce 0c3c 921b 3d40 3337 d8bf
00000310: c8f0 8c3e 882e 183f ff2f ac3f 040c a23f
00000320: 831a 81bd 8372 d4bf f4cd 743f d80a 93be
00000330: d958 53bf bdac 8e3e e8ba 10bf eb08 1bbf
00000340: dcd2 313e 285e 0e3e 25ad 2540 eb9f e03e
00000350: af02 84be ebbe 3b3e 934c 9e3f 9e53 3cbe
00000360: cdee 133f e7e3 6ebe fc31 ea3c b02a fbbe
00000370: bb14 923f dab4 2ebf c3a0 0bbf 27f3 3340
00000380: c2ce 09c0 aae9 bb3e 21a3 0c3e ab68 80be
00000390: 4755 57bf 8680 103f 2a42 1e3f e0fd 293f
000003a0: 10ff 693d 1090 4b40 c98c e1bf 2014 b53e
000003b0: c3b5 56c0 598b ec3e 0f82 1bbf 25a6 93bd
000003c0: 05b4 6d3f 007c 8cbf 6584 9c3f d552 523d
000003d0: f34e 6740 0cc1 a3bf f0e4 163f 54dc 8e3f
000003e0: b60a 4440 4293 ef3f c540 dc3f 0c4a de3e
000003f0: 426d f43e 2547 a6bf 90d1 6dbe fe3d 32be

fc.bias f4 [52]
0.48194742 0.035130393 0.04423626 0.68249094 0.10712528 0.0032988838 -0.1469679 -0.7817995
0.1694552 -0.5881063 -0.80674106 -0.6411098 0.083716415 0.7505593 -0.09311734 0.6681395
-0.645323 -0.17444244 -0.06848206 -0.04148415 -0.6179829 -0.23266433 0.7850944 0.08398031
0.7382907 -0.26688585 0.84525 0.3088745 -0.3975616 -0.03211799 0.7189345 -0.90034586
-0.035290822 0.11816268 -0.43676504 -0.2888661 0.3223304 0.3069918 -5.4851937 0.112238154
0.1623966 -0.4940457 0.48526743 0.3526928 -0.37414265 0.48948717 0.52838755 -0.31800184
-0.0776597 -0.4784065 -0.4039939 -0.5477684
00000000: d0c1 f63e e3e4 0f3d 1531 353d bab7 2e3f
00000010: 8064 db3d 1632 583b c17e 16be 0324 48bf
00000020: aa85 2d3e 228e 16bf 9586 4ebf c61f 24bf
00000030: 8373 ab3d a724 403f 4eb4 bebd 310b 2b3f
00000040: e333 25bf 0aa1 32be 5340 8cbd 49eb 29bd
00000050: 2134 1ebf 8f3f 6ebe f2fb 483f defd ab3d
00000060: 9f00 3d3f 43a5 88be 4e62 583f cc24 9e3e
00000070: 328d cbbe 278e 03bd 170c 383f 117d 66bf
00000080: 1c8d 10bd 46ff f13d ab9f dfbe 42e6 93be
00000090: 7d08 a53e 072e 9d3e b586 afc0 1edd e53d
000000a0: 4b4b 263e 8ff3 fcbe f974 f83e 2794 b43e
000000b0: a08f bfbe 109e fa3e 6844 073f 23d1 a2be
000000c0: 0c0c 9fbd b2f1 f4be 4ad8 cebe 8d3a 0cbf
