lstm_model_player_one.pth (torch, 66684 bytes, 10 tensors)

lstm.weight_ih_l0 f4 [100, 65]
0.44073448 0.20294072 0.15583263 0.14316845 -0.07688004 0.017783297 -0.049871504 0.28179312
-0.27905375 -0.24961193 0.22563669 0.7096994 -0.09164486 -0.04998807 0.043213252 0.03703972
0.0051173493 -0.05032896 0.051772058 0.04370431 -0.06881083 -0.04357361 -0.122146636 0.20109282
-0.029799407 0.03348624 0.12561396 0.054936886 -0.10916081 -0.020688886 0.19427796 0.20525269
-0.006760599 -0.104361415 0.010396224 -0.027041301 0.031503063 -0.22844258 -0.2828426 -0.054017063
0.19303884 0.08242734 -0.017470015 -0.09624088 2.9172218 2.865431 2.9189663 3.1020284
0.03785655 0.074271694 -0.17617269 0.052281365 3.3798645 -6.2381907 9.291901 5.210598
-1.0537021 -3.8787332 -5.5921326 -0.26339105 1.0161532 0.14799066 0.08760395 -1.0287973
0.062320158 1.1135192 0.44996938 0.8802777 0.6353466 -0.12842624 -0.17455131 -0.13735485
-0.5219414 -0.8740799 -0.418164 0.08039474 -0.4067517 -0.6507949 -0.21632473 0.21055025
0.54626155 0.28773293 0.3369735 0.3000737 0.4642876 0.47187418 0.657393 0.6123982
0.7481985 -0.9525101 -0.7647963 -0.83173054 -0.7063878 2.6731372 2.317034 2.2928104
2.2678938 1.3793998 1.2386208 1.0895339 1.1308322 0.93634963 1.0863738 1.1600835
0.9866066 2.1858876 2.2627184 1.8666828 1.9732366 0.6077556 0.40653285 0.7116987
0.4365872 0.02498117 -0.1705622 -0.058921456 -0.016270235 1.1824303 0.5209172 0.26371434
-0.18136247 -0.74552304 -0.112691134 -0.6559988 -0.53262264 -0.14362194 0.19470444 -0.22064802
-0.36022088 0.063124165 0.8051965 0.74129266 0.46499333 0.697012 -0.30458012 -0.0075111836
0.6031917 0.005504927 -0.10681996 0.004714698 0.07903068 0.5966476 -0.10799089 -0.031914134
0.19831243 0.23252983 0.05276382 -0.017459525 0.15945864 -0.077674456 0.087246895 0.018142642
0.07488388 -0.07795655 0.24291635 0.12844151 -0.059956156 -0.08502423 -0.070222765 0.02696446
-0.24378692 -0.11253422 0.22448903 0.078455605 0.21664813 -0.021361165 0.045405008 -0.06936883
-0.23212962 -0.16794503 2.859616 2.849617 2.5748198 2.579367 0.12694104 0.4428785
0.4186754 0.11732655 0.19278319 -0.10217593 -0.008844495 -0.01816389 1.5831405 -2.0500774
-1.8697687 -0.5527371 -0.4474556 -1.3484757 -0.75041217 -0.69689494 -1.530593 0.2990974
2.3032503 0.44198072 0.03368227 0.7269816 0.3142104 0.38054034 0.59027416 0.107431695
0.1933439 0.16449475 0.011434826 0.49287847 -0.30408657 -0.24254414 0.085992716 1.0319505
0.14945391 -0.16462557 -0.046192475 0.39263493 0.23263973 0.3641281 0.18745655 1.101716
1.2244893 1.0694169 1.0999088 0.16778502 0.102148 0.031574357 0.03826516 0.4959247
0.45538822 0.26719323 0.57187843 -0.7575188 -0.65089095 -0.6861945 -0.9682891 -0.65955037
-0.9262947 -0.77579665 -0.98618954 2.5739849 2.7321508 2.7524145 2.694646 1.8384446
1.7000998 1.8515204 1.7252202 -0.022819847 -0.08729885 -0.1416286 -0.089900546 -0.61758995
2.4585724 1.6657039 -0.14388712 0.28374383 1.4222568 -0.3558411 -0.99674517 -1.0757233
00000000: f3a7 e13e b1cf 4f3e 9792 1f3e c09a 123e
00000010: 4873 9dbd 47ae 913c 1046 4cbd 3047 903e
00000020: 22e0 8ebe 459a 7fbe 4e0d 673e dcae 353f
00000030: 4db0 bbbd 4ac0 4cbd 6100 313d f6b6 173d
00000040: 70af a73b bd25 4ebd f00e 543d 4a03 333d
00000050: b1ec 8cbd 3e7a 32bd 0428 fabd 47eb 4d3e
00000060: e31d f4bc de28 093d f2a0 003e 8005 613d
00000070: b48f dfbd bd7b a9bc cdf0 463e c32d 523e
00000080: 0488 ddbb 70bb d5bd ed54 2a3c b885 ddbc
00000090: 5b09 013d daec 69be bfd0 90be ff40 5dbd
000000a0: f9ab 453e aacf a83d 471d 8fbc f019 c5bd
000000b0: c3b3 3a40 3963 3740 58d0 3a40 a287 4640
000000c0: 780f 1b3d c21b 983d 9d66 34be fc24 563d
000000d0: b34f 5840 429f c7c0 a0ab 1441 38bd a640
000000e0: b6df 86bf 2a3d 78c0 c0f2 b2c0 31db 86be
000000f0: 4f11 823f dd8a 173e b369 b33d a1af 83bf
00000100: 6c43 7f3d cc87 8e3f 6362 e63e e159 613f
00000110: 13a6 223f 2b82 03be 94bd 32be c0a6 0cbe
00000120: f49d 05bf b3c3 5fbf 9819 d6be ffa5 a43d
00000130: c241 d0be 7f9a 26bf 3b84 5dbe 7c9a 573e
00000140: ccd7 0b3f bb51 933e ca87 ac3e 43a3 993e
00000150: 1bb7 ed3e 7e99 f13e e84a 283f 21c6 1c3f
00000160: f089 3f3f b4d7 73bf b1c9 43bf 4bec 54bf
00000170: d5d5 34bf ae14 2b40 494a 1440 68bd 1240
00000180: 2c25 1140 2c90 b03f 208b 9e3f d975 8b3f
00000190: 1cbf 903f 9cb4 6f3f 4c0e 8b3f 9e7d 943f
000001a0: 4092 7c3f 95e5 0b40 61d0 1040 76ef ee3f
000001b0: 0493 fc3f df95 1b3f 1325 d03e e331 363f
000001c0: 5c88 df3e 50a5 cc3c dba7 2ebe a057 71bd
000001d0: 2849 85bc e059 973f d45a 053f 9105 873e
000001e0: 15b7 39be 99da 3ebf 9cca e6bd 8aef 27bf
000001f0: f559 08bf a111 13be 9a60 473e 8ef1 61be
00000200: df6e b8be 3e47 813d 5c21 4e3f 5bc5 3d3f
00000210: 9b13 ee3e 616f 323f edf1 9bbe 6020 f6bb
00000220: c56a 1a3f ad62 b43b 6cc4 dabd c17d 9a3b
00000230: d6da a13d e6bd 183f 542a ddbd 65b8 02bd
00000240: 6a12 4b3e 4d1c 6e3e e01e 583d 4707 8fbc
00000250: 2049 233e c913 9fbd 80ae b23d e19f 943c
00000260: b85c 993d afa7 9fbd 10bf 783e 2c86 033e
00000270: 9694 75bd 2f21 aebd f4d0 8fbd 92e4 dc3c
00000280: 47a3 79be 5778 e6bd 74e0 653e 55ad a03d
00000290: 02d9 5d3e 9cfd aebc 9afa 393d 3f11 8ebd
000002a0: 63b3 6dbe c8f9 2bbe f303 3740 2060 3640
000002b0: d9c9 2440 5914 2540 d5fc 013e f9c0 e23e
000002c0: 9f5c d63e e748 f03d f568 453e 9d41 d1bd
000002d0: 80e8 10bc 70cc 94bc 59a4 ca3f 7834 03c0
000002e0: 9554 efbf 2e80 0dbf e718 e5be da9a acbf
000002f0: 031b 40bf b567 32bf 79ea c3bf 4b23 993e
00000300: 7468 1340 4c4b e23e 6cf6 093d 771b 3a3f
00000310: 30e0 a03e 2fd6 c23e 351c 173f 2605 dc3d
00000320: f1fb 453e 5071 283e 2359 3b3c 915a fc3e
00000330: 3cb1 9bbe 7e5d 78be f31c b03d f416 843f
00000340: 720a 193e 9b93 28be 5234 3dbd 7207 c93e
00000350: 1c39 6e3e 006f ba3e 9cf4 3f3e 0805 8d3f
00000360: 11bc 9c3f a7e2 883f d0c9 8c3f d6cf 2b3e
00000370: f832 d13d 1d54 013d eebb 1c3d d8e9 fd3e
00000380: a528 e93e 8dcd 883e a066 123f c1ec 41bf
00000390: caa0 26bf 71aa 2fbf cbe1 77bf 4bd8 28bf
000003a0: a621 6dbf 9c9a 46bf eb76 7cbf 2bbc 2440
000003b0: 8fdb 2e40 8f27 3040 1475 2c40 2752 eb3f
000003c0: df9c d93f 9ffe ec3f 04d4 dc3f b0f0 babc
000003d0: bdc9 b2bd 1607 11be c71d b8bd 601a 1ebf
000003e0: 4059 1d40 c935 d53f 2557 13be df46 913e
000003f0: 830c b63f ce30 b6be b12a 7fbf 4db1 89bf

lstm.weight_hh_l0 f4 [100, 25]
-0.13787842 -0.12727404 -0.19345485 0.119714275 -0.14688125 0.089153334 0.14482309 -0.09207187
0.07140817 -0.15808961 0.114128634 -0.1647276 -0.16939048 -0.19818488 0.06344585 0.053024426
-0.082244374 0.09836115 -0.13914339 -0.13856928 0.0115149915 0.13269939 0.11188172 -0.16665296
-0.1393357 -0.061730698 0.061522022 -0.1932334 0.13048871 0.016067669 0.15826978 -0.19711967
0.030669048 -0.053308755 0.1819004 -0.09930582 0.09795727 0.066842005 -0.15513511 0.18259327
-0.18110542 0.15099104 0.068373576 0.123100534 0.18920185 -0.14751986 -0.19820082 -0.09038158
0.08107807 0.14440168 0.11477043 0.050829545 0.083697185 0.060354605 0.08478828 -0.08566461
0.031564385 0.09139244 0.048211545 -0.18594292 -0.110968016 0.058239475 0.14663221 -0.036731765
-0.11277955 -0.16860485 -0.05600445 -0.053733543 0.050624922 0.13491781 -0.037632063 -0.17623687
0.019848868 0.059077814 0.049384043 0.06879212 -0.19859388 0.013538122 -0.14002433 -0.041557223
0.1600938 -0.0652117 -0.14222562 -0.13593073 0.019344404 -0.066714555 -0.16269211 -0.19888993
-0.1263091 -0.021010444 0.12793608 -0.09004116 0.014845371 -0.14396167 -0.116031006 -0.15443933
0.13464405 -0.08641269 0.17048265 0.15789644 0.16132937 -0.05642204 -0.08940949 0.023779035
0.1497568 -0.15846245 -0.03320113 0.15135522 -0.13711329 -0.038070515 -0.002286762 -0.060367346
-0.1521602 0.16257264 0.06305458 0.14682095 -0.13131297 -0.16645122 0.096665576 -0.07099958
0.1359971 -0.0073651373 -0.07910454 0.13559438 0.19737963 0.18077995 0.118805185 -0.020751208
-0.024239257 0.1831579 -0.024271443 -0.19048265 0.1320002 0.18797608 0.08732547 0.15952744
0.12450598 -0.12677243 -0.00773409 0.06822874 -0.18953107 0.17282145 -0.15732937 0.19834496
-0.18399063 -0.17379566 -0.10417636 0.107915625 0.1352352 0.19057421 -0.0106449425 0.14303477
0.18663989 -0.026056409 0.045099422 0.18856443 -0.039458007 0.082860515 0.096756116 0.13116498
-0.09646251 0.02408795 0.1866333 0.0440882 -0.031326056 0.048461795 -0.0415034 -0.02275452
0.0020742416 0.16873844 0.19474371 -0.19807796 0.14479072 -0.02910152 0.09553839 0.09819682
0.17604615 0.103941515 0.05957587 0.18418534 -0.1713784 -0.17115603 -0.13413617 -0.18759242
0.18430452 0.13767533 -0.037098005 0.10420798 0.10330786 0.012333512 -0.04338725 0.1426314
-0.15769872 -0.081230834 0.08914827 0.10217874 0.08062185 0.036520407 0.03424041 -0.08525922
0.13294263 0.19976248 -0.18584915 0.06714989 0.112574294 0.16777398 0.1335987 0.11637597
0.039837003 0.0354214 -0.16449746 -0.1441683 0.10211374 0.031927705 -0.18036082 0.106915966
0.048802778 0.11854009 -0.08274157 -0.18177377 0.028015897 -0.16012463 -0.053534195 0.017970756
-0.011446208 0.03912708 -0.19318624 0.18797691 -0.1360715 0.04242392 0.18427096 0.038206547
-0.13663729 -0.17533334 0.098583385 0.17106919 0.029000208 -0.05036387 0.053278133 0.14053084
-0.19415526 0.05549608 0.096493974 0.15867607 0.02186358 0.051138714 0.073135 0.1393391
-0.16683784 -0.118741155 -0.03174734 0.18324901 -0.18486285 -0.1418113 0.012045696 0.050651148
00000000: 0030 0dbe 2054 02be 0719 46be c22c f53d
00000010: 0a68 16be 0696 b63d 814c 143e 2d90 bcbd
00000020: 723e 923d 3ee2 21be 46bc e93d 5aae 28be
00000030: b374 2dbe faf0 4abe e6ef 813d 2430 593d
00000040: bd6f a8bd 9271 c93d 9b7b 0ebe 1be5 0dbe
00000050: 60a9 3c3c 59e2 073e 3e22 e53d 13a7 2abe
00000060: 05ae 0ebe 54d9 7cbd 84fe 7b3d fade 45be
00000070: d59e 053e 58a0 833c 7911 223e bdd9 49be
00000080: a83d fb3c 485a 5abd 1944 3a3e da60 cbbd
00000090: d29d c83d 76e4 883d bddb 1ebe bbf9 3a3e
000000a0: b373 39be 659d 1a3e 7207 8c3d 221c fc3d
000000b0: 21be 413e 720f 17be 28f5 4abe fa19 b9bd
000000c0: 420c a63d 09de 133e c20c eb3d a432 503d
000000d0: 6e69 ab3d 6436 773d 7aa5 ad3d ed70 afbd
000000e0: a849 013d f62b bb3d 7879 453d d267 3ebe
000000f0: 3343 e3bd 848c 6e3d c126 163e 0c74 16bd
00000100: f7f8 e6bd c0a6 2cbe ec64 65bd b417 5cbd
00000110: 145c 4f3d e527 0a3e 1424 1abd 7077 34be
00000120: 189a a23c 94fb 713d ec46 4a3d e2e2 8c3d
00000130: 325c 4bbe 00cf 5d3c 8a62 0fbe e837 2abd
00000140: a1ef 233e b68d 85bd 98a3 11be 6d31 0bbe
00000150: 2878 9e3c a4a1 88bd c398 26be cda9 4bbe
00000160: 2c57 01be 181e acbc ad01 033e 8067 b8bd
00000170: 003a 733c b06a 13be aaa1 edbd 5825 1ebe
00000180: 21e0 093e 23f9 b0bd 0193 2e3e 9baf 213e
00000190: 8733 253e cc1a 67bd 531c b7bd 40cc c23c
000001a0: d959 193e fb43 22be e8fd 07bd ddfc 1a3e
000001b0: 6d67 0cbe d4ef 1bbd 80dd 15bb c043 77bd
000001c0: e2cf 1bbe 7179 263e c222 813d 3b58 163e
000001d0: e876 06be 3072 2abe 9af8 c53d 3a68 91bd
000001e0: d342 0b3e 4057 f1bb 9001 a2bd 41d9 0a3e
000001f0: e31d 4a3e 611e 393e 2250 f33d 70fe a9bc
00000200: 6891 c6bc bf8d 3b3e e8d4 c6bc e20d 43be
00000210: 0f2b 073e cd7c 403e b2d7 b23d 295b 233e
00000220: fefc fe3d a2d0 01be 406e fdbb 82bb 8b3d
00000230: 6f14 42be 1bf8 303e f31a 21be f11a 4b3e
00000240: 0a68 3cbe 7df7 31be 6a5a d5bd de02 dd3d
00000250: 197b 0a3e e325 433e 2068 2ebc b577 123e
00000260: 871e 3f3e 4074 d5bc 2cba 383d 0917 413e
00000270: b89e 21bd c6b2 a93d 1228 c63d 1d50 063e
00000280: 238e c5bd 1854 c53c cd1c 3f3e d495 343d
00000290: c04f 00bd e07f 463d 78ff 29bd b067 babc
000002a0: 00f0 073b c5c9 2c3e e56a 473e f3d4 4abe
000002b0: 0544 143e 5066 eebc a2a9 c33d 6a1b c93d
000002c0: 7145 343e 4adf d43d d405 743d 159b 3c3e
000002d0: d27d 2fbe 8743 2fbe fe5a 09be 3a18 40be
000002e0: 53ba 3c3e c3fa 0c3e 14f4 17bd fe6a d53d
000002f0: 1293 d33d 8012 4a3c d4b6 31bd f70d 123e
00000300: c67b 21be 5a5c a6bd 5e93 b63d 1643 d13d
00000310: 121d a53d 6c96 153d ac3f 0c3d 639c aebd
00000320: 1d22 083e 898e 4c3e 3d4f 3ebe e285 893d
00000330: 5a8d e63d f1cc 2b3e 19ce 083e 8656 ee3d
00000340: 202c 233d 0816 113d 0672 28be dba0 13be
00000350: 0221 d13d a0c6 023d 82b0 38be c2f6 da3d
00000360: 6ce5 473d 26c5 f23d 6a74 a9bd e722 3abe
00000370: 9881 e53c b6f7 23be ac46 5bbd 6837 933c
00000380: e088 3bbc b843 203d 9dd2 45be 057d 403e
00000390: 5456 0bbe b4c4 2d3d 87b1 3c3e 787e 1c3d
000003a0: a5ea 0bbe 958a 33be 16e6 c93d c32c 2f3e
000003b0: d891 ed3c 584a 4ebd 2c3a 5a3d 51e7 0f3e
000003c0: a3d0 46be dc4f 633d a29e c53d fb7b 223e
000003d0: 401b b33c d476 513d cec7 953d e9ae 0e3e
000003e0: 8ad7 2abe 902e f3bd 8009 02bd a1a5 3b3e
000003f0: b04c 3dbe fb36 11be 505b 453c 9477 4f3d

lstm.bias_ih_l0 f4 [100]
1.2588733 1.1844954 0.952312 -0.35324866 -1.4318354 2.2068255 -0.100318775 0.9828262
0.39378953 1.2665831 0.30451038 -1.2643106 1.8985845 2.4480243 0.7855368 -0.24286732
-0.4859871 1.2446146 0.9455732 0.2690285 0.44053465 0.67492765 1.7462513 -0.7720307
-1.5080293 -0.028193861 0.09257473 -0.12472885 0.18002658 -0.19058159 -0.18148597 0.1797571
0.14798231 -0.10305319 -0.03889744 0.07050739 -0.07982991 0.17660324 0.051257387 -0.007846683
0.13911207 0.1839246 0.03512971 -0.051248506 -0.18940511 0.048951834 -0.12195013 0.011766836
0.16608293 0.17448933 -1.9746486 -0.9965052 1.7662506 0.93414086 -1.0279638 -0.9804847
0.62552774 1.1100762 0.53835577 0.23014984 0.64753205 -0.022942645 -0.31480837 -1.7907012
1.0679841 -1.5306133 0.28148445 0.6349052 0.49662983 -0.9280683 0.77948165 -0.6473752
1.6447294 1.0690336 -0.3444031 1.954125 0.68494993 0.50989306 -1.0577182 -1.4485013
3.3386755 -0.88547534 -0.0037880384 0.90310305 0.74685335 0.47358963 0.8526287 0.23763305
2.1748881 0.7959413 0.54380375 0.23639485 1.4550486 0.17759548 0.49686587 -0.48504916
1.0344604 2.213007 0.23373497 -1.3970824
00000000: c322 a13f 8c9d 973f b8ca 733f 02dd b4be
00000010: 6246 b7bf a13c 0d40 ee73 cdbd 7f9a 7b3f
00000020: c89e c93e 651f a23f c9e8 9b3e eed4 a1bf
00000030: d104 f33f 6eac 1c40 f118 493f 36b2 78be
00000040: 4dd3 f8be 884f 9f3f 1611 723f 1bbe 893e
00000050: c28d e13e 0fc8 2c3f 2a85 df3f cea3 45bf
00000060: 1b07 c1bf d0f6 e6bc d297 bd3d d771 ffbd
00000070: e358 383e d227 43be 75d7 39be 3f12 383e
00000080: ad88 173e 8d0d d3bd ec52 1fbd 2e66 903d
00000090: dd7d a3bd 7bd7 343e 44f3 513d 608f 00bc
000000a0: 6573 0e3e bb56 3c3e 2ce4 0f3d f4e9 51bd
000000b0: 6af3 41be b881 483d fdc0 f9bd b0c9 403c
000000c0: a511 2a3e 55ad 323e 49c1 fcbf f71a 7fbf
000000d0: 8014 e23f db23 6f3f 5194 83bf 0c01 7bbf
000000e0: 9622 203f fa16 8e3f afd1 093f 66ac 6b3e
000000f0: a9c4 253f 37f2 bbbc 902e a1be b235 e5bf
00000100: b4b3 883f 23eb c3bf bb1e 903e 2689 223f
00000110: 4446 fe3e e295 6dbf 1c8c 473f 62ba 25bf
00000120: 7e86 d23f 18d6 883f 9a55 b0be c520 fa3f
00000130: e158 2f3f 5a88 023f 4f63 87bf 7e68 b9bf
00000140: dcac 5540 83ae 62bf bd40 78bb c331 673f
00000150: c831 3f3f 577a f23e e045 5a3f 1456 733e
00000160: 5e31 0b40 cfc2 4b3f b936 0b3f 7e11 723e
00000170: 083f ba3f 97db 353e 3465 fe3e 5d58 f8be
00000180: 3369 843f e8a1 0d40 3858 6f3e 99d3 b2bf

lstm.bias_hh_l0 f4 [100]
1.0537554 1.1860628 1.2249999 -0.43128216 -1.231875 1.9476595 -0.3350222 0.8047399
0.4616478 1.4575943 0.360298 -1.0135508 1.6850132 2.756413 1.003333 -0.31246802
-0.48192307 1.4041564 0.99751884 0.20463502 0.6074073 0.66475123 1.9081602 -0.8167473
-1.6703354 -0.0015197545 -0.05215457 0.13903676 0.009403676 0.14746223 0.12882881 0.13667475
0.12551714 -0.19654389 0.1980008 0.1143219 0.16416846 0.15784226 -0.1263785 0.103736594
-0.116990305 -0.097981386 0.117873326 -0.19322251 0.048678875 -0.07383606 -0.13531515 -0.14957523
-0.18556245 0.11878495 -2.0885723 -0.663699 1.6189747 0.7942639 -1.1605443 -1.0118389
0.34492782 1.2335789 0.8378809 0.12701541 0.4382084 -0.15534806 -0.37783277 -1.4297557
0.96916837 -1.6274627 0.1552512 0.74237216 0.5420514 -1.0311183 0.73542285 -0.58365667
1.657484 0.99567544 -0.36020464 1.8216697 0.4168785 0.53275096 -0.71620566 -1.4629326
3.3432202 -0.9228044 0.16345066 0.97593385 0.6064422 0.6495088 1.0048546 0.47084203
2.1686778 1.0502619 0.66761917 0.28290397 1.434289 0.5192237 0.5923863 -0.6736194
0.75111836 2.1412673 0.05366907 -1.3447207
00000000: 75e1 863f e8d0 973f cccc 9c3f 04d1 dcbe
00000010: 14ae 9dbf e84c f93f 0888 abbe 6f03 4e3f
00000020: 1a5d ec3e 7392 ba3f fb78 b83e 08bc 81bf
00000030: 83ae d73f 1269 3040 376d 803f cffb 9fbe
00000040: 9fbe f6be 66bb b33f 655d 7f3f d88b 513e
00000050: 0b7f 1b3f 232d 2a3f 983e f43f 5a16 51bf
00000060: 8dcd d5bf 8032 c7ba 08a0 55bd a75f 0e3e
00000070: e011 1a3c 5700 173e b3eb 033e 77f4 0b3e
00000080: 9187 003e cd42 49be b9c0 4a3e 9a21 ea3d
00000090: c71b 283e 67a1 213e 5e69 01be da73 d43d
000000a0: 9d98 efbd 77aa c8bd 9267 f13d 1fdc 45be
000000b0: 8063 473d 5c37 97bd 0e90 0abe 402a 19be
000000c0: 1504 3ebe 8645 f33d 2bab 05c0 2de8 29bf
000000d0: 903a cf3f e154 4b3f b78c 94bf f083 81bf
000000e0: 619a b03e eae5 9d3f 5d7f 563f 5410 023e
000000f0: da5c e03e 9013 1fbe 4c73 c1be 3c02 b7bf
00000100: 6b1b 783f b350 d0bf 2cfa 1e3e 1a0c 3e3f
00000110: e1c3 0a3f affb 83bf ac44 3c3f 866a 15bf
00000120: 7028 d43f 96e4 7e3f be6c b8be 792c e93f
00000130: 1971 d53e 5e62 083f 4159 37bf 6041 bbbf
00000140: 52f7 5540 e93c 6cbf 9c5f 273e cdd6 793f
00000150: cc3f 1b3f 3546 263f 139f 803f 3512 f13e
00000160: 9ecb 0a40 fb6e 863f 17e9 2a3f cad8 903e
00000170: c896 b73f d8eb 043f a1a6 173f 5272 2cbf
00000180: 4b49 403f 860a 0940 19d4 5b3d cf1f acbf

lstm.weight_ih_l1 f4 [100, 25]
0.5724081 2.0005748 0.1663135 -3.094547 0.6034099 1.1701982 -5.4118514 0.011776047
-2.2590687 -4.5613866 -3.9274428 9.83467 -2.692182 -0.15941016 0.86002934 0.16877429
0.03587196 -1.1935686 -0.065434694 5.207315 -5.6798906 -2.6882427 0.9348378 -0.87718767
-0.8268888 -0.3332416 7.0563784 1.1653703 -2.88969 3.0388498 0.38702524 0.5200961
0.91283756 0.52772075 3.8579917 -2.8421059 -2.5257857 0.39569747 -11.343708 2.4533346
6.82322 5.7922635 0.16970661 0.58667004 -3.7940187 -8.270304 -3.0938187 -0.6166717
-0.081966214 -0.34252238 0.464964 0.5310709 0.37694094 -0.5358547 2.3945808 0.86414903
-3.7904453 0.37463364 -2.248663 -1.8150554 -3.4638731 2.6890643 -0.46296698 2.2347498
1.5082169 2.5322373 0.83336586 -0.76918465 -0.9744522 2.638346 -3.8036275 -1.7646451
0.27711657 -0.46080312 1.2329631 0.31239417 0.015126486 0.0065111057 -0.6438671 -0.15066233
1.3407868 -0.6808792 -1.1620954 -0.2070966 -2.2399526 -1.7298976 -1.022218 -0.70425
0.8836247 0.65983367 -0.12996905 0.4264724 -0.46933883 0.061015118 1.213952 -1.9997483
-0.36552835 0.7884447 -0.37279165 0.9675304 -5.9108124 -0.03648757 -0.36174867 -0.42298523
-3.0488758 0.6970642 0.49014366 -0.62130034 0.52188593 -1.0249271 -1.6014725 0.25919032
1.7949867 -6.076131 -0.4988911 -3.6761687 -3.7584429 -0.40964994 7.682908 3.0690455
-0.88598484 -6.5494523 0.46318457 -0.27084765 0.79450893 -7.421719 -2.4305184 -0.9687356
1.4285893 0.18747431 2.0972877 0.5824658 2.3607006 1.081423 0.75816363 -1.5660298
2.32467 0.333966 -1.1455827 0.25158393 4.319881 2.995906 -3.5958757 0.38811594
-0.9746834 -3.444116 0.2909985 1.1983256 3.5589228 2.27487 1.3585092 -4.0216923
0.08506209 1.5998615 -2.8775046 5.0470715 -0.9721176 1.9172654 -0.47497886 -1.6375725
1.4282179 0.39766213 -8.376126 0.63381267 -3.0999613 0.025983945 -1.4530799 -9.943574
0.36890486 -1.9115684 0.62482494 -0.48561144 -2.3728385 8.179852 4.3225474 -0.8330455
3.887571 -1.2751018 -2.1457024 3.7986305 2.0460584 -7.706793 -2.2651772 -1.3857695
-3.8680918 -11.164963 2.2211735 0.78233 0.6659778 1.4039197 2.1888154 -0.01767896
-2.6224754 -0.4279997 8.892452 -5.6882467 -1.2821808 -2.9391897 -1.2704802 0.26752177
-0.2088618 4.7941885 -2.0653367 -5.4343224 0.72207457 0.78820425 -3.8691971 -2.6228654
-1.2924175 -0.90261424 -4.589946 2.2387414 -0.16514172 0.09824992 0.0073703984 2.180001
-2.0698795 0.863052 0.1873753 7.0245204 -4.8733273 -0.45382628 -0.93941706 -2.9325013
0.2402881 -0.3866559 2.8345098 -1.2416185 -4.769703 1.5852842 0.46608287 -6.532421
-1.1007452 -2.8790271 -4.2742853 -6.267952 7.138069 -1.3877939 0.05496925 1.0859029
0.11762156 0.21622953 -1.0834858 -0.43540365 6.8153553 -4.772445 -2.5553622 -0.036916163
-1.325829 -0.04301585 -0.34109607 1.3554366 0.5457557 -1.5649308 -0.45880565 2.4831722
00000000: 5689 123f 6b09 0040 164e 2a3e 0f0d 46c0
00000010: 1279 1a3f 0ec9 953f e32d adc0 52f0 403c
00000020: 9594 10c0 e1f6 91c0 395b 7bc0 cf5a 1d41
00000030: b64c 2cc0 6b3c 23be e22a 5c3f 2bd3 2c3e
00000040: 7aee 123d dbc6 98bf a002 86bd 53a2 a640
00000050: aac1 b5c0 2b0c 2cc0 8851 6f3f 5f8f 60bf
00000060: fcae 53bf a59e aabe dacd e140 db2a 953f
00000070: aef0 38c0 847c 4240 2c28 c63e 0525 053f
00000080: b9af 693f b518 073f 56e9 7640 10e5 35c0
00000090: 79a6 21c0 dc98 ca3e d47f 35c1 6f03 1d40
000000a0: d157 da40 395a b940 92c7 2d3e 0230 163f
000000b0: 34d1 72c0 2a53 04c1 2001 46c0 32de 1dbf
000000c0: e7dd a7bd 185f afbe c30f ee3e 43f4 073f
000000d0: 67fe c03e c62d 09bf d040 1940 df38 5d3f
000000e0: a896 72c0 fbcf bf3e 18ea 0fc0 bc53 e8bf
000000f0: 19b0 5dc0 a119 2c40 020a edbe 2406 0f40
00000100: 400d c13f 2d10 2240 7757 553f 49e9 44bf
00000110: b375 79bf a9da 2840 a26e 73c0 e4df e1bf
00000120: 39e2 8d3e 63ee ebbe bcd1 9d3f 21f2 9f3e
00000130: 15d5 773c 1d5b d53b 79d4 24bf 3a47 1abe
00000140: e79e ab3f 194e 2ebf 8bbf 94bf 2211 54be
00000150: 625b 0fc0 496d ddbf 0ad8 82bf ba49 34bf
00000160: 3a35 623f dcea 283f 9b16 05be 975a da3e
00000170: 2e4d f0be fdea 793d c762 9b3f c1f7 ffbf
00000180: 8826 bbbe 83d7 493f 8cde bebe 13b0 773f
00000190: 6025 bdc0 fd73 15bd 1f37 b9be 8591 d8be
000001a0: c820 43c0 cd72 323f 1cf4 fa3e 8a0d 1fbf
000001b0: 519a 053f d030 83bf 0dfd ccbf 98b4 843e
000001c0: 20c2 e53f aa6f c2c0 a76e ffbe 5946 6bc0
000001d0: 548a 70c0 a3bd d1be 62da f540 3e6b 4440
000001e0: e7cf 62bf 1d95 d1c0 8726 ed3e 8bac 8abe
000001f0: f064 4b3f b97e edc0 9d8d 1bc0 0eff 77bf
00000200: 04dc b63f 44f9 3f3e f639 0640 7b1c 153f
00000210: b815 1740 126c 8a3f 0317 423f aa73 c8bf
00000220: 65c7 1440 97fd aa3e 74a2 92bf 9ccf 803e
00000230: 773c 8a40 edbc 3f40 d422 66c0 22b7 c63e
00000240: da84 79bf 666c 5cc0 c1fd 943e bc62 993f
00000250: 64c5 6340 7897 1140 a1e3 ad3f b4b1 80c0
00000260: 0835 ae3d 43c8 cc3f 0929 38c0 9c81 a140
00000270: b3dc 78bf f468 f53f 6e30 f3be fa9b d1bf
00000280: d8cf b63f 5f9a cb3e 9d04 06c1 8c41 223f
00000290: c465 46c0 48dc d43c 86fe b9bf e118 1fc1
000002a0: 19e1 bc3e 46ae f4bf 87f4 1f3f 10a2 f8be
000002b0: 96dc 17c0 ace0 0241 4f52 8a40 7842 55bf
000002c0: f7cd 7840 8936 a3bf 3053 09c0 c31c 7340
000002d0: 9ff2 0240 0c9e f6c0 aaf8 10c0 e560 b1bf
000002e0: d18e 77c0 b0a3 32c1 b527 0e40 c746 483f
000002f0: 857d 2a3f a4b3 b33f 8d15 0c40 77d3 90bc
00000300: a3d6 27c0 c722 dbbe 7c47 0e41 1e06 b6c0
00000310: 801e a4bf af1b 3cc0 189f a2bf 9df8 883e
00000320: dedf 55be fe69 9940 7a2e 04c0 f8e5 adc0
00000330: e1d9 383f c1c7 493f eda0 77c0 07dd 27c0
00000340: f06d a5bf ba11 67bf d6e0 92c0 8a47 0f40
00000350: e91a 29be 4137 c93d 6283 f13b 2385 0b40
00000360: e878 04c0 faf0 5c3f 50df 3f3e dfc8 e040
00000370: 4cf2 9bc0 eb5b e8be a37d 70bf 1aae 3bc0
00000380: 150e 763e c3f7 c5be 9c68 3540 5bed 9ebf
00000390: 68a1 98c0 98ea ca3f 6aa2 ee3e 9809 d1c0
000003a0: 38e5 8cbf fb41 38c0 f2c6 88c0 1093 c8c0
000003b0: 106b e440 3ba3 b1bf 7027 613d defe 8a3f
000003c0: 93e3 f03d 466b 5d3e aaaf 8abf 3aed debe
000003d0: 6417 da40 dfb7 98c0 0e8b 23c0 6735 17bd
000003e0: c4b4 a9bf 6331 30bd 25a4 aebe f27e ad3f
000003f0: a5b6 0b3f a74f c8bf 93e8 eabe 4bec 1e40

lstm.weight_hh_l1 f4 [100, 25]
0.05299352 -0.11027463 0.14951123 -0.047238737 0.01811111 0.14077093 0.1895911 -0.17557435
-0.19148062 -0.1899766 0.02368243 -0.16157167 -0.09919937 0.16387202 -0.14381821 0.18415834
-0.1409711 0.18060158 -0.14056015 0.06440081 0.028893083 -0.015424371 0.010642931 0.084653154
0.16190018 0.050576344 -0.113011055 -0.17278214 -0.18409434 -0.02776745 0.086804286 0.0125629455
0.009855032 0.11322941 0.08115022 -0.07585452 0.008237168 -0.09573982 -0.03494604 -0.012613222
0.05646552 0.17322455 0.1463782 0.08530857 0.11165212 0.19193782 -0.061856344 0.17732202
0.010398746 -0.05710864 0.058843598 0.05114512 -0.0424736 -0.055325553 0.12340881 0.13263892
0.19006528 0.034501985 -0.115965344 0.021867871 0.15782453 -0.1725842 -0.17533062 0.19296803
-0.16652605 0.12740068 -0.038789153 0.13782693 -0.18875666 0.19470479 0.12281279 -0.17440124
0.074178115 0.068595484 0.119794324 0.13781236 -0.13376784 -0.119647436 -0.118555926 0.13372098
0.18878748 -0.010129422 -0.019310877 0.088865295 0.15405841 -0.16536844 0.1228288 0.18164782
0.1894777 0.15023585 0.121919736 0.11659874 0.135927 0.0473115 0.040308118 -0.17398512
0.14369716 -0.10602217 0.10398899 0.1491933 -0.10162427 -0.073108315 -0.14764313 -0.1120194
0.11733039 0.070467606 0.19573762 0.071963355 0.1878029 0.06485255 0.007823423 0.043733433
-0.07783747 -0.11910198 0.027592927 0.13249026 0.12558381 0.06178604 -0.17231761 0.022631139
-0.023689896 -0.036303043 0.019557744 -0.053306982 0.03512299 -0.09256094 0.06411977 0.09010835
-0.03650567 -0.016272038 -0.15992653 0.05925943 -0.17781973 -0.112150125 0.13122283 0.048715755
-0.1722759 0.19463392 -0.07522418 0.00048041344 0.114139184 -0.0962127 0.010692045 -0.17315714
-0.105032064 -0.06940766 -0.15524423 -0.16277003 -0.081656195 -0.17068759 -0.13685128 0.15399273
0.042733356 -0.011847928 0.19726391 -0.10336435 -0.05220607 0.027221039 0.05070795 -0.049446344
-0.15100405 -0.077858046 0.066989884 0.047886327 -0.09831224 -0.08342975 -0.07444021 -0.005631879
0.10488416 0.02878502 -0.17925708 0.007935956 -0.033841684 0.026412517 -0.034235507 0.16229583
-0.054088324 0.08554973 -0.19004226 -0.14521892 0.07959105 0.07349725 -0.166936 -0.18827252
-0.06866634 -0.13307865 0.17225014 0.09884091 0.18856491 0.15888126 0.0022122115 -0.0067497194
-0.1794021 -0.106316306 -0.14090414 -0.024440601 0.1764114 0.19391884 -0.069673344 0.13614811
-0.02523227 0.09345628 -0.11510501 0.16082762 -0.08033774 -0.054956704 0.112447575 -0.15387726
-0.053728312 -0.0864315 -0.13020837 0.019207 0.08722626 0.056199178 0.17702915 -0.047445253
-0.04228604 0.19790365 -0.16156948 -0.141763 -0.12657675 0.19540615 0.020145059 0.19132082
-0.090655975 0.15354551 0.18599524 0.16473474 0.009671658 -0.04934144 -0.1627601 -0.17473547
-0.03899017 0.19210722 0.057267174 -0.13986476 -0.061649114 -0.076224566 -0.13814345 0.104110524
-0.12183578 -0.14369336 -0.04078293 0.056050435 0.14260556 -0.1294376 0.164302 -0.15295401
-0.123147346 0.1161672 0.08209251 0.17592447 0.031799644 0.18912198 0.19786976 -0.05055511
00000000: bc0f 593d aad7 e1bd 7919 193e 687d 41bd
00000010: c05d 943c 4126 103e 2b24 423e c3c9 33be
00000020: 7f13 44be 3a89 42be a801 c23c 0b73 25be
00000030: 0a29 cbbd 11ce 273e 1545 13be 0194 3c3e
00000040: ba5a 10be 9fef 383e 00ef 0fbe 92e4 833d
00000050: 30b1 ec3c 80b6 7cbc b05f 2e3c a25e ad3d
00000060: 29c9 253e 2429 4f3d 5772 e7bd cded 30be
00000070: 3a83 3cbe 9078 e3bc 72c6 b13d d0d4 4d3c
00000080: 0077 213c d2e4 e73d 1632 a63d 9d59 9bbd
00000090: 30f5 063c 3d13 c4bd 9423 0fbd b0a7 4ebc
000000a0: 6448 673d c761 313e 2be4 153e 42b6 ae3d
000000b0: dea9 e43d 598b 443e 145d 7dbd e793 353e
000000c0: 805f 2a3c c0ea 69bd fc05 713d 8c7d 513d
000000d0: ccf8 2dbd 0c9d 62bd c2bd fc3d 7fd2 073e
000000e0: 79a0 423e f451 0d3d 3d7f edbd 4024 b33c
000000f0: c19c 213e eab9 30be df89 33be 6999 453e
00000100: ce85 2abe 5375 023e 60e1 1ebd 8122 0d3e
00000110: 6d49 41be b160 473e 4685 fb3d 3d96 32be
00000120: b2ea 973d ca7b 8c3d ba56 f53d af1e 0d3e
00000130: 70fa 08be b709 f5bd 73cd f2bd 27ee 083e
00000140: 8151 413e e0f5 25bc d831 9ebc 02ff b53d
00000150: 7dc1 1d3e 5856 29be aa8d fb3d e301 3a3e
00000160: 7106 423e 6dd7 193e 0eb1 f93d 52cb ee3d
00000170: 7330 0b3e b4c9 413d 201a 253d 2829 32be
00000180: 5925 133e 2722 d9bd 2ef8 d43d 21c6 183e
00000190: 6320 d0bd d0b9 95bd c32f 17be 6d6a e5bd
000001a0: ea4a f03d 5251 903d 716f 483e 8661 933d
000001b0: 674f 403e 6ad1 843d d02d 003c d421 333d
000001c0: 4069 9fbd bdeb f3bd 900a e23c 87ab 073e
000001d0: 0b99 003e 5c13 7d3d 0774 30be f064 b93c
000001e0: 5011 c2bc 80b2 14bd 9037 a03c 6c58 5abd
000001f0: 20dd 0f3d 9790 bdbd 3a51 833d ba8a b83d
00000200: f886 15bd f04c 85bc c8c3 23be 04ba 723d
00000210: 6016 36be f7ae e5bd 475f 063e 2c8a 473d
00000220: 1869 30be 1d4e 473e 230f 9abd 00e0 fb39
00000230: cec1 e93d 2a0b c5bd b02d 2f3c 1b50 31be
00000240: 0d1b d7bd 9a25 8ebd 58f8 1ebe 30ad 26be
00000250: 5d3b a7bd bac8 2ebe be22 0cbe 45b0 1d3e
00000260: 2c09 2f3d d01d 42bc 8dff 493e b0b0 d3bd
00000270: 08d6 55bd a8fe de3c 24b3 4f3d 4088 4abd
00000280: cea0 1abe 0a74 9fbd fe31 893d 7424 443d
00000290: ed57 c9bd 37dd aabd 1c74 98bd a08b b8bb
000002a0: 82cd d63d 90ce eb3c 2b8f 37be d005 023c
000002b0: 949d 0abd 105f d83c 883a 0cbd e130 263e
000002c0: b88b 5dbd b234 af3d 709a 42be 45b4 14be
000002d0: a200 a33d ba85 963d 45f1 2abe 83ca 40be
000002e0: f0a0 8cbd c545 08be 5762 303e 1a6d ca3d
000002f0: 2917 413e c5b1 223e c0fa 103b c02c ddbb
00000300: 2fb5 37be 5dbc d9bd 2d49 10be a837 c8bc
00000310: 31a5 343e a992 463e e6b0 8ebd 696a 0b3e
00000320: e8b3 cebc 0266 bf3d 2dbc ebbd ffaf 243e
00000330: 1d88 a4bd 481a 61bd ea4a e63d 0092 1dbe
00000340: 3812 5cbd 0003 b1bd 5855 05be 0058 9d3c
00000350: aea3 b23d 1c31 663d 2147 353e f455 42bd
00000360: 2034 2dbd 41a7 4a3e 7872 25be 522a 11be
00000370: 569d 01be 8d18 483e 4007 a53c 9be9 433e
00000380: d7a9 b9bd 093b 1d3e 8975 3e3e 39b0 283e
00000390: e075 1e3c 401a 4abd 95aa 26be dbed 32be
000003a0: 28b4 1fbd c1b7 443e fc90 6a3d b538 0fbe
000003b0: c883 7cbd a01b 9cbd 7a75 0dbe e637 d53d
000003c0: 0a85 f9bd 5a24 13be 000c 27bd 2495 653d
000003d0: 3107 123e 4a8b 04be c93e 283e fa9f 1cbe
000003e0: ad34 fcbd 12e9 ed3d 1e20 a83d 8b25 343e
000003f0: 5840 023d 31a9 413e 5f9e 4a3e e012 4fbd

lstm.bias_ih_l1 f4 [100]
0.7953375 2.9068396 1.3584884 0.29759386 0.0649779 3.2559097 0.24031839 2.3423336
0.508275 0.75924146 0.9608135 1.3697113 2.2813418 1.0888599 0.34582508 0.6049496
0.811413 0.54092515 0.25543192 0.8672965 1.233115 1.0829797 0.78806186 2.1916714
1.2423086 -0.1439431 -0.081188016 0.13507499 0.11415614 -0.037831634 -0.16403861 0.12574472
0.0960903 0.17576589 0.10627757 0.19955935 -0.08391342 0.1684206 -0.024125665 -0.036167055
0.18401147 0.120490655 -0.13399532 0.012808353 -0.09023364 0.11590047 0.17103629 0.11214055
0.094156876 -0.10416036 0.07824912 -0.28709623 0.4747155 -0.109506086 1.0772198 1.0321156
0.30279657 -0.22452667 -0.5069944 -0.08504263 -0.10828729 -0.27203396 1.3985595 -0.74969286
-1.0192871 -0.39970434 -0.5448216 -0.029202236 0.79780734 1.3984677 -0.1990351 0.21618325
-0.0038058292 0.067660265 0.75522697 0.73910207 2.4329393 0.20248955 0.9612676 2.7821364
1.5786563 -0.23878148 0.99690974 0.045103867 0.7066795 1.2332338 -0.007777128 1.0155807
0.3665736 1.3406302 0.07611046 1.4965922 0.53912264 -0.045444675 0.8977434 2.2955973
1.9321293 -0.0038637263 2.0061371 2.3624172
00000000: 3d9b 4b3f a909 3a40 f3e2 ad3f 395e 983e
00000010: 2213 853d d360 5040 0616 763e cbe8 1540
00000020: 4f1e 023f a65d 423f e0f7 753f b352 af3f
00000030: 8101 1240 c35f 8b3f fc0f b13e fadd 1a3f
00000040: c3b8 4f3f 127a 0a3f f9c7 823e 2507 5e3f
00000050: b6d6 9d3f 149f 8a3f 6cbe 493f 5844 0c40
00000060: f803 9f3f d265 13be e745 a6bd 1951 0a3e
00000070: b2ca e93d 58f5 1abd bdf9 27be 39c3 003e
00000080: feca c43d f9fb 333e 0ea8 d93d 4959 4c3e
00000090: cdda abbd 7376 2c3e 30a3 c5bc e823 14bd
000000a0: 816d 3c3e cec3 f63d 1236 09be 20da 513c
000000b0: 6acc b8bd 3a5d ed3d 2324 2f3e f2a9 e53d
000000c0: 52d5 c03d 0752 d5bd 1341 a03d 47fe 92be
000000d0: e90d f33e ba44 e0bd 57e2 893f 5d1c 843f
000000e0: 2708 9b3e 52ea 65be 63ca 01bf d52a aebd
000000f0: bac5 ddbd 0948 8bbe ff03 b33f dfeb 3fbf
00000100: 0078 82bf 0ca6 ccbe 6e79 0bbf 8739 efbc
00000110: 1a3d 4c3f fd00 b33f dbcf 4bbe 245f 5d3e
00000120: 386b 79bb 7791 8a3d 8e56 413f cb35 3d3f
00000130: 47b5 1b40 6c59 4f3e a215 763f 860e 3240
00000140: 6911 ca3f 2283 74be 7a35 7f3f d5be 383d
00000150: f3e8 343f 9bda 9d3f 47d7 febb 8cfe 813f
00000160: 89af bb3e c599 ab3f cddf 9b3d 5590 bf3f
00000170: f103 0a3f 3224 3abd 83d2 653f 11eb 1240
00000180: 0350 f73f 9236 7dbb 8d64 0040 d831 1740

lstm.bias_hh_l1 f4 [100]
0.6816786 2.8956993 1.405847 0.25018305 0.4260549 3.3207881 0.16028467 2.2534916
0.39160916 0.86221886 0.80389416 1.4680468 2.4115622 0.99454105 0.18208395 0.32694528
0.8198678 0.4108575 0.0633516 0.6975917 1.1872582 1.0202365 0.5497652 2.3696208
1.5306516 -0.032933623 -0.14093892 -0.034552008 -0.18983112 0.085022196 -0.108759575 0.14534487
-0.13744374 0.1391076 -0.082324125 0.119753346 0.09960641 -0.09895434 0.16764103 -0.13388202
-0.19810553 -0.04604724 -0.19268289 -0.03667374 -0.19250743 -0.19597991 -0.16258991 0.06517057
0.109705225 0.060884014 0.07957517 -0.00796355 0.14051259 -0.09341505 1.0130222 0.88138723
0.51775974 -0.50013804 -0.39728117 0.03167535 -0.03765357 -0.28243986 1.5781227 -0.5140077
-0.9757217 -0.3655787 -0.47522599 0.19836833 0.77718043 1.3697647 0.12321202 0.23061594
-0.143736 0.012528239 0.5862633 0.6295106 2.4316657 0.37482375 1.2059686 2.9768348
1.297676 -0.32273033 0.921801 0.0010355382 0.6342618 1.0582007 -0.03326879 0.8661209
0.4340702 1.0957414 0.23324886 1.453358 0.5562617 0.055971302 1.0146763 2.1248286
1.8418232 0.013786404 2.154531 2.5152764
00000000: 7d82 2e3f 2353 3940 cbf2 b33f fe17 803e
00000010: de23 da3e cb87 5440 aa21 243e 3539 1040
00000020: ff80 c83e 60ba 5c3f 02cc 4d3f f5e8 bb3f
00000030: 0957 1a40 3e9a 7e3f 3774 3a3e 5f65 a73e
00000040: dbe2 513f ea5b d23e 7cbe 813d 5f95 323f
00000050: 14f8 973f 1c97 823f 6abd 0c3f dea7 1740
00000060: 64ec c33f 68e5 06bd 4b52 10be 6886 0dbd
00000070: 1763 42be 1e20 ae3d 57bd debd 49d5 143e
00000080: 0dbe 0cbe 3972 0e3e 8d99 a8bd 3e41 f53d
00000090: 72fe cb3d 93a8 cabd 17aa 2b3e 5e18 09be
000000a0: 2ddc 4abe 089c 3cbd aa4e 45be 3437 16bd
000000b0: ab20 45be f5ae 48be f87d 26be 2678 853d
000000c0: 22ad e03d 8461 793d 4ff8 a23d 8d79 02bc
000000d0: 88e2 0f3e 6450 bfbd b6aa 813f 98a2 613f
000000e0: e78b 043f 0c09 00bf 7068 cbbe 03be 013d
000000f0: a13a 1abd f59b 90be edff c93f 0296 03bf
00000100: e6c8 79bf 222d bbbe d250 f3be 1121 4b3e
00000110: 4cf5 463f 7354 af3f 9556 fc3d 9626 6c3e
00000120: 882f 13be 3e43 4d3c 5a15 163f 9b27 213f
00000130: 69a0 1b40 e6e8 bf3e 2e5d 9a3f 7684 3e40
00000140: 3f1a a63f e93c a5be 26fb 6b3f e5ba 873a
00000150: fb5e 223f 1f73 873f db44 08bd 19ba 5d3f
00000160: 733e de3e 4141 8c3f cad8 6e3e a307 ba3f
00000170: 2b67 0e3f 2a42 653d eae0 813f 31fd 0740
00000180: ddc0 eb3f 5fe0 613c d6e3 0940 4afa 2040

fc.weight f4 [52, 25]
-8.818634 7.1878176 4.65605 -0.6646326 3.6111317 2.687596 4.39768 2.4343057
4.6805234 4.8946815 0.3705317 -0.9848123 2.9526951 0.84604555 4.0855002 -3.9941413
-2.0698066 -1.5478663 5.764262 -5.729909 7.2146993 0.9038867 2.1267614 8.957249
0.9620999 0.87452507 -1.9609499 -0.4166467 -1.4519445 2.8761988 -0.21830435 0.7117807
12.269924 -19.074978 -0.9795357 -1.082536 -1.4641166 1.2720337 1.6023866 5.2398877
0.5752257 3.372128 -3.2374556 -0.21230146 0.73333454 -1.1611946 1.551835 0.2574279
-3.6848493 0.6168054 5.6641765 1.9202541 2.8778934 -0.88718826 1.9369031 1.2953929
-1.7158196 3.7636042 2.2744384 3.180617 2.0785744 3.741014 5.3799562 2.6608117
3.0345187 -1.663201 -1.4426838 -6.2990246 -0.76616496 3.2477596 -2.7489557 1.2563645
1.1173615 -0.16889997 1.3304201 -0.42690948 -0.8519649 -0.92231125 7.9304957 -6.7980905
-1.8447852 0.49589348 -0.7843322 15.423385 -1.6671848 1.1042117 2.1549194 6.083454
25.367233 1.0743442 -1.1161907 -10.661878 3.8239083 -0.8028851 -1.7610549 1.0258379
-2.3083565 -0.8107792 0.24842852 -1.2351713 0.355601 -1.4073458 -1.4112139 -0.3058905
-3.1935608 2.2916424 0.5489415 3.224333 8.493984 -2.0719697 1.125193 11.627983
4.583268 -6.7625494 1.8281176 2.2412887 -5.8164444 3.4024017 -0.2528852 -3.670822
1.1188202 0.06571091 0.3884345 0.492814 2.3174992 -16.778894 1.1730427 2.9783435
0.09267578 -0.101836234 1.5484257 -5.309968 -4.9300365 1.8716347 -23.786936 25.284836
2.9017148 -3.3908484 -13.632354 -2.2098694 4.817943 4.083592 -1.7203072 -11.433335
-0.7020387 0.5985361 0.35956457 22.310682 -0.36253884 -3.9150972 0.6015902 -3.3965535
0.43162027 0.86912197 -2.4144864 -2.9597845 0.42770436 -0.5470048 0.82654953 -2.4448059
-0.022984367 -13.861536 1.2696093 -2.2590344 9.681458 -1.2013527 -2.0594707 10.32786
-0.37703532 -2.857754 1.8590262 1.4267163 0.45538884 1.2881597 3.4475474 -10.728363
-0.6702408 2.389966 0.061150704 -0.426151 -6.0694585 -5.4223623 -5.729859 -5.422415
-24.420206 63.18549 4.0446987 -0.6171794 -2.9790027 -0.7849714 0.6028746 -0.4984051
-1.2776376 1.6165062 -3.6678565 -1.3439648 1.7742968 -10.982292 0.5131689 -2.3760736
0.9637901 -3.8198814 -0.4585755 6.7302694 -3.8096156 -0.7233285 0.15895532 -1.0648382
0.60541934 -4.4996386 -0.81012625 -7.537266 2.614312 -2.4526682 -3.242976 1.2213106
-1.6734638 -2.3431318 -0.1570549 -0.118961714 -0.09193335 1.595205 0.19134922 0.7546005
3.0636625 2.3771985 -3.7562792 -2.0319915 8.22159 -4.1801343 0.52673775 -0.45347193
-3.0455248 0.0996574 -5.7458854 0.070360295 -0.9107184 1.7924274 -1.2425356 -7.865597
3.1487577 -0.6136484 -9.2171545 -0.00060727115 0.93862385 -2.2226408 1.2444564 -0.1273978
-0.026829422 3.289057 -0.40994123 -0.6424702 -0.9535087 -11.570245 -0.6558079 -2.354586
00000000: 2019 0dc1 9a02 e640 5dfe 9440 5d25 2abf
00000010: c81c 6740 9301 2c40 cbb9 8c40 aacb 1b40
00000020: d9c6 9540 3ba1 9c40 55b6 bd3e a91c 7cbf
00000030: f5f8 3c40 7196 583f 6bbc 8240 03a0 7fc0
00000040: b677 04c0 7c20 c6bf d674 b840 6a5b b7c0
00000050: d1de e640 1e65 673f dc1c 0840 e450 0f41
00000060: 2e4c 763f e0e0 5f3f 6800 fbbf b752 d5be
00000070: 51d9 b9bf a413 3840 2d8b 5fbe 4337 363f
00000080: 9c51 4441 8e99 98c1 dac2 7abf 8a90 8abf
00000090: 2c68 bbbf 00d2 a23f 011b cd3f 29ad a740
000000a0: fe41 133f f2d0 5740 7932 4fc0 8e65 59be
000000b0: d0bb 3b3f 06a2 94bf 87a2 c63f 97cd 833e
000000c0: 92d4 6bc0 f5e6 1d3f ef40 b540 e3ca f53f
000000d0: 682f 3840 c51e 63bf 71ec f73f 6fcf a53f
000000e0: fa9f dbbf e4de 7040 6690 1140 3b8f 4b40
000000f0: 5d07 0540 c66c 6f40 9a28 ac40 bd4a 2a40
00000100: 8e35 4240 c5e3 d4bf dda9 b8bf 9c91 c9c0
00000110: 6323 44bf 4bdb 4f40 e4ee 2fc0 8dd0 a03f
00000120: b405 8f3f 1df4 2cbe 354b aa3f e193 dabe
00000130: 5f1a 5abf 971c 6cbf 9fc6 fd40 f589 d9c0
00000140: ec21 ecbf c0e5 fd3e ffc9 48bf 2fc6 7641
00000150: 5066 d5bf cf56 8d3f 33ea 0940 a8ab c240
00000160: 18f0 ca41 1c84 893f 56df 8ebf 0d97 2ac1
00000170: eaba 7440 e189 4dbf 3f6a e1bf a84e 833f
00000180: 1dbc 13c0 3a8f 4fbf 0c64 7e3e 181a 9ebf
00000190: 5611 b63e e823 b4bf a8a2 b4bf ae9d 9cbe
000001a0: 4d63 4cc0 45aa 1240 6e87 0c3f 795b 4e40
000001b0: 5ce7 0741 279b 04c0 5306 903f 380c 3a41
000001c0: 22aa 9240 ce66 d8c0 c2ff e93f 4671 0f40
000001d0: 5020 bac0 f3c0 5940 2b7a 81be bfee 6ac0
000001e0: 8035 8f3f 7193 863d e3e0 c63e 1e52 fc3e
000001f0: e851 1440 2d3b 86c1 4326 963f 2e9d 3e40
00000200: cdcc bd3d 848f d0bd d032 c63f 42eb a9c0
00000210: dcc2 9dc0 ba91 ef3f a54b bec1 5847 ca41
00000220: b2b5 3940 a903 59c0 1f1e 5ac1 806e 0dc0
00000230: 972c 9a40 c9ac 8240 0733 dcbf f1ee 36c1
00000240: cfb8 33bf a939 193f d918 b83e 477c b241
00000250: b19e b9be f490 7ac0 d101 1a3f 2261 59c0
00000260: 55fd dc3e c77e 5e3f f286 1ac0 1c6d 3dc0
00000270: 11fc da3e 8208 0cbf c098 533f b377 1cc0
00000280: b649 bcbc dac8 5dc1 8f82 a23f 0594 10c0
00000290: 41e7 1a41 edc5 99bf 5ece 03c0 ea3e 2541
000002a0: c60a c1be 71e5 36c0 92f4 ed3f a49e b63f
000002b0: ba28 e93e 6be2 a43f 9ea4 5c40 60a7 2bc1
000002c0: e794 2bbf 34f5 1840 2979 7a3d 7730 dabe
000002d0: 0139 c2c0 fe83 adc0 015b b7c0 6c84 adc0
000002e0: 955c c3c1 f1bd 7c42 2c6e 8140 78ff 1dbf
000002f0: fba7 3ec0 e3f3 48bf fd55 1a3f f42e ffbe
00000300: a189 a3bf ade9 ce3f 29be 6ac0 0a07 acbf
00000310: 281c e33f 78b7 2fc1 095f 033f 9711 18c0
00000320: f3ba 763f f078 74c0 68ca eabe 5e5e d740
00000330: bed0 73c0 0e2c 39bf 2fc5 223e 9e4c 88bf
00000340: c3fc 1a3f 0afd 8fc0 6f64 4fbf 4831 f1c0
00000350: e350 2740 84f8 1cc0 eb8c 4fc0 e853 9c3f
00000360: 1034 d6bf dff5 15c0 00d3 20be 33a2 f3bd
00000370: 8d47 bcbd ad2f cc3f 0df1 433e 802d 413f
00000380: 0c13 4440 0524 1840 e166 70c0 260c 02c0
00000390: a28b 0341 a9c3 85c0 49d8 063f 792d e8be
000003a0: e1e9 42c0 2e19 cc3d 4bde b7c0 0f19 903d
000003b0: d724 69bf 436e e53f 680b 9fbf f8b2 fbc0
000003c0: 3f85 4940 1018 1dbf 7779 13c1 4731 1fba
000003d0: a749 703f bf3f 0ec0 594a 9f3f 9274 02be
000003e0: 60c9 dbbc e97f 5240 d1e3 d1be ed78 24bf
000003f0: 2519 74bf b91f 39c1 07e3 27bf 89b1 16c0

fc.bias f4 [52]
3.380771 -1.9755405 -0.35509393 1.9934357 3.7917018 2.1566834 0.45476764 -1.3888758
1.3765976 1.1894578 -0.1486776 -1.7947048 -2.4331958 3.6528583 -1.9033405 -2.3986557
0.50013304 1.6475551 1.9324104 -0.45532784 -0.85554004 -1.9956048 0.5232909 2.6175196
0.7603205 -0.45826033 2.1529953 0.7809703 -1.5955898 -1.5309261 0.33383065 1.5069486
-0.9859553 -1.531253 1.400477 -1.9603434 -1.2743732 0.18928173 -2.1513042 -3.0381181
-1.7147492 2.1623726 2.5913181 -1.030343 -0.6453373 -1.536 -19.271791 -1.0826877
-1.7939903 1.6626493 0.55846137 -2.2858505
00000000: 8d5e 5840 83de fcbf dfce b5be e728 ff3f
00000010: 3eab 7240 1a07 0a40 4ed7 e83e afc6 b1bf
00000020: 5a34 b03f 2740 983f f13e 18be e3b8 e5bf
00000030: 7bb9 1bc0 6ec8 6940 a9a0 f3bf 9383 19c0
00000040: b808 003f 16e3 d23f 3959 f73f bb20 e9be
00000050: ac04 5bbf fa6f ffbf 64f6 053f 7185 2740
00000060: 5da4 423f 19a1 eabe adca 0940 abed 473f
00000070: 493c ccbf 63f5 c3bf daeb aa3e b1e3 c03f
00000080: 9167 7cbf 1900 c4bf d542 b33f 88ec fabf
00000090: a91e a3bf 12d3 413e f8ae 09c0 8770 42c0
000000a0: e77c dbbf 5064 0a40 28d8 2540 48e2 83bf
000000b0: d334 25bf a69b c4bf a12c 9ac1 8395 8abf
000000c0: 79a1 e5bf b1d1 d43f 53f7 0e3f 604b 12c0
