lstm_model_player_two.pth (torch, 66684 bytes, 10 tensors)

lstm.weight_ih_l0 f4 [100, 65]
00000000: ec81 913f 83a0 a43f 11ce a33f c7fa a73f
00000010: 963e ae3d 03a1 743e 4851 4dbd ba68 cfbd
00000020: 0a96 9c3e a315 553e b90e 943e 7839 8d3e
00000030: c568 4c3e 6a16 503d 7849 e53d a697 303d
00000040: 5e42 25be e9d5 42bd c841 0bbd 3061 46be
00000050: 91e9 2fbe a44a 653d 20f2 13bd 2450 9d3b
00000060: c7e1 28bc 631f 9cbc 08e6 e8bc 4d2f 4dbe
00000070: d4ef a73d 631f 963d 675b 8bbd 6466 d4be
00000080: c661 debe 3839 e3be d59d 0dbf 3feb f1be
00000090: c28c 2bbf 2570 1fbf 5987 3ebf 38ca adbe
000000a0: bae3 a3bf b666 aebf f288 9ebf a4a4 babf
000000b0: 4ffa c03f 55a4 dd3f 2410 ca3f 659c c13f
000000c0: ddac d5bd e8b6 cd3c 7a9b ef3d 5e74 05be
000000d0: 6bc9 0dbf 3c12 9740 fad2 833f 02ab 6f3f
000000e0: e24e a13e 6f85 43bf db67 95bf 374c d8bf
000000f0: 7326 bdbf c940 04c0 5722 3ec0 20b2 8abf
00000100: 0f25 37be bf41 923b baa5 9b3e 21bd 423e
00000110: fa3a 553d 2902 bbbe d87d c03d 52cc 233f
00000120: 680c e93e f346 50be bd5e 853e c64d 063f
00000130: 3cdd 043e da1d 86be 918c 313e 0963 123f
00000140: 539c 85be 0db7 0dbe 85f4 12be 917d 48bd
00000150: a44a e3bb d1d0 03be 2fa8 efbd a17a 30be
00000160: 6eee f73d 02a3 933e cb66 d63e c089 443f
00000170: 5706 453f af25 fb3f 74bf fb3f 32d9 0e40
00000180: 1155 0440 ef1c be3f 51e9 bb3f d6d3 a33f
00000190: 60f8 b63f 7375 fe3e 26c1 2e3f 3433 b73e
000001a0: ad93 293f 2432 653e c316 3fbd 4ad6 513e
000001b0: 6b0b ab3e 98ff 063f 0c6b 843e 66fa de3e
000001c0: a8e1 1e3f 23d0 bdbd fae2 22be 5431 233d
000001d0: 64c5 6c3d 3d59 97bd 9dfe 863d 6747 4e40
000001e0: 7812 b23d 8fdb 24bf 9bc1 10c0 cb1c 96c0
000001f0: a353 b63e 9025 623e 02a7 1e3f bac3 243f
00000200: 8dba 2b40 82ec d63d 7459 00bf 7c6e ab3e
00000210: 488b 233f 4df8 3b3f eac7 883e 04f1 423e
00000220: 058a eabe 1e25 1cbf 7720 b140 2d91 a640
00000230: 52f6 b040 3107 a440 18fc 1040 c104 2340
00000240: 1d18 3140 dec7 2940 00ac b43f 5d15 c43f
00000250: eca7 ca3f 1295 cc3f a346 583f 314d 1b3f
00000260: e86d 2f3f d322 153f c153 903e 8c49 0c3f
00000270: 9f21 bd3e 01f1 e63e d369 133e f5d6 ef3e
00000280: 2fc3 653e 325d 053f 1e03 c83e ceba 043e
00000290: 747f ce3e 4d10 963d 8199 9c3e d928 0a3e
000002a0: 55ca 8e3e 816a 9f3e b16c 0e3d 7d9b 613e
000002b0: 6abf 1d3e d6af 633e b9ab 7e3e b907 213d
000002c0: c075 943d ef1b e63d 267d a23d ca26 f13d
000002d0: 3072 9ebd 7a28 da3d 3a9c 903f a039 563e
000002e0: 4c6e 0eba eeee 7e3d dc8f 16be 153a 9ebe
000002f0: d444 13be 13e9 ccbe 899b ecbe 885f 78be
00000300: 3bc4 3340 f49e 7940 168b 96bd 6ed7 c23f
00000310: 36fd be3f 7504 da3f c8ae c83f 6d4a b0be
00000320: 01ea ca3e d516 0c3f c837 163f 67ab 533f
00000330: 88c0 2b3f 4036 3b3f 44a9 123f ba55 edbe
00000340: 4410 10bf 977a 59bf 64ce 63bf 01ca 0d3d
00000350: da6e 2d3c 479e 34be 223d 53be 0f56 17be
00000360: 1f73 3ebd 1c0f 18be 04cf 9abd 6806 383f
00000370: 4af8 253f 26c5 0a3f 2e10 9a3e 9310 d83c
00000380: a041 5d3d 7fb6 d0bd 454b 07be d716 2ebf
00000390: 1976 b2be 3496 23bf a3af 14bf 8e46 f53d
000003a0: c623 513e 5c54 c13e 8486 9d3d aec3 4c3e
000003b0: f394 5c3e 8dbb 193e d034 923e 87e9 2f40
000003c0: 6303 2340 e14a 2340 2348 2640 cdfa 9ebd
000003d0: 0418 05be 02fb 943d 07d5 053e b9a3 7240
000003e0: 519d f73e daa1 30c0 237f 8cbf ec03 9ebd
000003f0: ad19 e83e b5f5 cebe 47b6 9e3d d619 87bf
1.1367774 1.2861484 1.2797261 1.3123406 0.08508031 0.23889546 -0.050126344 -0.10127397
0.3058322 0.20809035 0.28917482 0.27582908 0.19961841 0.050802626 0.11195654 0.043113373
-0.16138598 -0.047567282 -0.03399828 -0.19373012 -0.17178942 0.055979386 -0.03611958 0.0048008133
-0.010307736 -0.019057935 -0.02843 -0.20037575 0.082000405 0.07330205 -0.06804543 -0.41484368
-0.4343397 -0.44379592 -0.5531896 -0.4724979 -0.67011654 -0.62280494 -0.74425274 -0.33943343
-1.2803872 -1.3625095 -1.2385542 -1.4581494 1.5076388 1.7315775 1.5786176 1.5125853
-0.10433362 0.02511163 0.11699577 -0.13032672 -0.55385464 4.720976 1.029876 0.9362031
0.31505495 -0.7637548 -1.1672319 -1.6898259 -1.4777359 -2.0664542 -2.970846 -1.083561
-0.1788523 0.004463404 0.30399877 0.1901746 0.052058198 -0.36525086 0.09399003 0.63983643
0.45517278 -0.20339565 0.26048842 0.5246242 0.12975019 -0.2619465 0.17338778 0.57182366
-0.26095828 -0.1383936 -0.1435109 -0.048947874 -0.006936388 -0.12872626 -0.11702 -0.17234279
0.12106024 0.28835303 0.418753 0.7677269 0.769628 1.9620875 1.9667802 2.2320065
2.067692 1.485258 1.4680578 1.2799022 1.4294548 0.49698982 0.6826347 0.35781252
0.6624096 0.22382408 -0.046652567 0.20491901 0.3340715 0.52733755 0.2586292 0.43550414
0.62063074 -0.092682146 -0.15906897 0.039841965 0.057805434 -0.07390068 0.065915324 3.223108
0.08694929 -0.6439752 -2.2618167 -4.691015 0.35610685 0.22084641 0.61973584 0.64361155
2.6832612 0.10494329 -0.50136495 0.3348273 0.638844 0.7342575 0.26715022 0.19037253
-0.45808426 -0.60994136 5.535213 5.2052217 5.5300684 5.125878 2.2653866 2.5471652
2.7670968 2.652824 1.411499 1.531902 1.5832496 1.5982993 0.84482783 0.6066466
0.6852708 0.5825626 0.281889 0.54799724 0.36939713 0.45105746 0.14395837 0.46843687
0.22437738 0.5209533 0.39064878 0.12961885 0.40331614 0.07327328 0.30585864 0.13492145
0.27888742 0.31135944 0.034771625 0.2203197 0.1540505 0.22235045 0.24870194 0.039314006
0.072490215 0.11235797 0.079340264 0.117749766 -0.07736623 0.106522515 1.1297677 0.2092042
-0.00054333056 0.06223958 -0.14703315 -0.30903688 -0.14381725 -0.40021572 -0.46212414 -0.24255192
2.808852 3.9003267 -0.07350747 1.5221994 1.4921024 1.703261 1.5678339 -0.34431782
0.39631656 0.5472234 0.58678865 0.82683414 0.67090654 0.73129654 0.5728953 -0.46354467
-0.5627482 -0.8495268 -0.889868 0.034616474 0.010585511 -0.17638503 -0.20628789 -0.14778922
-0.046496507 -0.14849514 -0.07559016 0.71884775 0.64831984 0.54207075 0.3009047 0.02637509
0.054017663 -0.10191058 -0.13212307 -0.680036 -0.34855726 -0.63901067 -0.580805 0.11976348
0.20423803 0.37759674 0.076916724 0.19996521 0.21541195 0.15012951 0.28555918 2.7486284
2.5470817 2.5514452 2.5981529 -0.0776268 -0.12997442 0.072744384 0.13069545 3.7912428
0.4836221 -2.7598786 -1.0976299 -0.07715592 0.4533209 -0.40421835 0.077496104 -1.055476

lstm.weight_hh_l0 f4 [100, 25]
00000000: 0574 17be cb53 1b3e 92ca 3abe 4fb3 37be
00000010: 6c8b 93bd e010 f2bd 3a87 c33d 3df7 adbd
00000020: 1e93 d93d 9ba1 203e a8f6 ac3c 40f0 eebb
00000030: 1497 4abd aa9b b9bd b700 44be 3379 d1bd
00000040: eceb 533d ae5f eb3d 5808 8e3c d8f6 b13c
00000050: cedc c33d 5a73 18be a84a 193d 7e36 0dbe
00000060: 1ebb cd3d 5b84 443e 638b 35be ea49 8abd
00000070: 62e7 3ebe f7f9 4a3e 94f3 1a3d 54a9 2f3d
00000080: 3644 833d e8cd a23c 4094 34bd eceb 52bd
00000090: 92da b03d c279 3fbe e278 af3d 749b 87bd
000000a0: 950c 43be 3448 67bd 01f2 033e 8f02 3bbe
000000b0: cf20 483e b75a 2a3e 87c5 383e 85f7 333e
000000c0: 9712 1d3e 00d1 30bd 4eb2 df3d b388 423e
000000d0: 2857 933c 0093 abba 3e78 c33d 0aba dcbd
000000e0: bb2f 253e 9184 3f3e a2a2 13be e07a 013c
000000f0: 7dab 34be 430e 363e a882 39be 9862 99bc
00000100: 36e4 86bd a025 babb a87a 46bd a862 e1bc
00000110: c4c0 703d 83c4 9dbd d0fb 89bd f954 453e
00000120: 88b2 0fbd 731c 483e 90c9 b0bc 54e3 01be
00000130: f440 33bd d810 f73c 4456 81bd f3b3 febd
00000140: 8030 963c cbcb 2b3e 9bd3 143e e2b1 d33d
00000150: de3a 963d bdd8 0abe e03a cfbd d357 38be
00000160: 3814 0d3d d09e 273c 6d43 44be 7f59 0b3e
00000170: 26e8 bc3d 586c e7bc 26cb 88bd e79d f7bd
00000180: a016 c43b a858 e13c d04b ecbc b42f 34bd
00000190: c11b 303e e788 c9bd 2212 ee3d e31a cfbd
000001a0: 41c5 0a3e 624f 8a3d be97 f93d bf4d 383e
000001b0: 9137 423e 4856 05be 95b0 153e 2fad 333e
000001c0: 14d2 34bd 3f04 043e 60c9 f3bd 0039 15be
000001d0: 17cc d7bd cd31 123e d1a5 463e 9265 903d
000001e0: f9f2 163e 2abf 86bd 9988 183e 5252 a03d
000001f0: c0d3 21bd a021 53bc 28b7 28bd b0c8 453c
00000200: 3cd5 633d fd12 abbd c8a5 253d 0bb2 3d3e
00000210: 37c9 c3bd d6dc 823d f371 c4bd 3ae1 d73d
00000220: 2008 7dbc 797f 493e e739 403e c8cf 2fbe
00000230: 4142 0d3e 8ad7 fa3d 5ab8 e93d 0001 cfba
00000240: 004b 02bd 327a 943d 932a debd be23 983d
00000250: 8815 75bd bdb0 d7bd 60be 23bc 81e4 0a3e
00000260: 9847 70bd a075 35bc 7218 07be 2a9e 923d
00000270: c907 333e 20d7 46bd edb2 453e 4d0d 393e
00000280: 58c3 7cbd f806 05be ac63 68bd c2cb ff3d
00000290: 0e16 20be 03c2 ffbd 9749 083e 4044 0a3d
000002a0: fe99 1cbe ad33 a7bd f719 c5bd d57b 16be
000002b0: b426 2f3d fa99 02be e8d4 e3bc e59d 443e
000002c0: 6021 b5bb aefc a13d 6062 29be 580d c1bc
000002d0: d0c7 083c 7810 493d 1019 a33c ba42 9abd
000002e0: 7752 3ebe a733 e1bd ac94 5a3d 0262 cd3d
000002f0: 1784 c4bd 7393 463e d77a ccbd 00d4 29bd
00000300: a3c5 aebd cd75 263e 41ee 1b3e 2155 273e
00000310: e849 b13c 42c5 14be 489a 403d 020c 39be
00000320: d400 1cbd 9870 81bc 715c 0d3e 7213 fa3d
00000330: 47c3 173e 76c6 913d d589 343e 6096 753c
00000340: 8c80 95bd e6c6 91bd d082 07bc a1a2 083e
00000350: 7423 97bd 23da 393e 9c59 673d 65e8 253e
00000360: c0a0 563b 788d 47bd e05b 3c3c 11cb 1c3e
00000370: 2bbb 1abe 60ad 41be cecd 8f3d 7e5a 04be
00000380: a26f d53d 18d9 71bd 0012 52ba e840 aabc
00000390: faa9 0dbe c3e6 2c3e 776d 3bbe 4e9b 8b3d
000003a0: dd4b 443e dd84 28be d000 66bc 828c 30be
000003b0: f322 a1bd 6a17 b83d 5113 153e 8cd9 0abd
000003c0: eefb f13d d29e ee3d 12a7 983d 9ec0 d33d
000003d0: e2db 11be 5332 17be aac1 af3d 6821 2a3d
000003e0: 9435 24bd 0091 b8bb 90c5 be3c b25c b73d
000003f0: 226b de3d 4b8e 143e abfe 39be e054 2abd
-0.14790352 0.15168683 -0.18241337 -0.17939495 -0.07204327 -0.11819625 0.09547277 -0.084944226
0.106237635 0.15686648 0.021113709 -0.0072918236 -0.049460486 -0.09062894 -0.19140898 -0.10228195
0.051738665 0.11492859 0.017337963 0.02172415 0.095635995 -0.14887753 0.037424713 -0.13790318
0.100454554 0.19191115 -0.17728953 -0.06752379 -0.18642953 0.19821917 0.03782995 0.042886093
0.064094946 0.019873574 -0.044086695 -0.051494524 0.08635439 -0.1869879 0.085679784 -0.06621447
-0.19047768 -0.056465343 0.12885286 -0.18262695 0.19543765 0.16636167 0.180441 0.1757489
0.15339123 -0.043168068 0.10922681 0.18997459 0.017985895 -0.0013090074 0.09544419 -0.10777672
0.16131489 0.18702914 -0.14417508 0.007902831 -0.17643543 0.17778878 -0.18116248 -0.018723771
-0.065864965 -0.005680755 -0.048456818 -0.027512863 0.058777586 -0.07703497 -0.067374825 0.19270696
-0.03508237 0.19542103 -0.021580487 -0.12684375 -0.043763116 0.030159399 -0.06315282 -0.12436666
0.018333673 0.1677696 0.14533846 0.10336663 0.07335447 -0.13559242 -0.101186514 -0.18002252
0.03444311 0.010230735 -0.19166346 0.13608359 0.09223966 -0.028249905 -0.066793725 -0.12090664
0.0059841424 0.027508095 -0.028844744 -0.043990806 0.17198087 -0.09840565 0.11624552 -0.1011255
0.13551809 0.06753422 0.12187146 0.17998408 0.1896651 -0.13021195 0.14618142 0.17546533
-0.04414566 0.12892245 -0.119036436 -0.14572525 -0.10536974 0.1427681 0.19399191 0.07050623
0.14741124 -0.065794304 0.14895858 0.07828201 -0.03950858 -0.012886435 -0.041190296 0.012071773
0.055623278 -0.08353231 0.040441304 0.18524949 -0.09559863 0.06389777 -0.095920466 0.105410054
-0.015443832 0.19677533 0.18772088 -0.17169106 0.13794805 0.12248142 0.114121154 -0.0015793145
-0.031809807 0.072498694 -0.10847964 0.07428692 -0.059834987 -0.10531757 -0.009994119 0.1356373
-0.058662027 -0.011075407 -0.13192919 0.07159074 0.17483439 -0.048545003 0.19306536 0.1807148
-0.06170973 -0.1299094 -0.05673568 0.124900356 -0.15633413 -0.12488177 0.13309322 0.033756495
-0.15293118 -0.08164153 -0.09624093 -0.14695676 0.04276152 -0.1275405 -0.027811483 0.19200857
-0.0055276603 0.07909523 -0.16541433 -0.023565933 0.00834842 0.04908797 0.019909412 -0.07532258
-0.18586145 -0.1099618 0.05336444 0.10028459 -0.09595507 0.19392185 -0.09984367 -0.041461945
-0.0853379 0.16255875 0.15227605 0.16341068 0.021641687 -0.14528373 0.047022134 -0.18070987
-0.038086727 -0.01580076 0.13804795 0.1221074 0.14820586 0.071179315 0.17630704 0.0149894655
-0.07299909 -0.07118015 -0.008270934 0.13343288 -0.07379809 0.18149619 0.056481943 0.16201933
0.0032749623 -0.0487189 0.011496514 0.15311839 -0.15110461 -0.18913794 0.07021676 -0.12925145
0.10421683 -0.059044927 -0.00080135465 -0.020782903 -0.13834372 0.16884904 -0.18303476 0.068167314
0.19169565 -0.16456933 -0.01403828 -0.172411 -0.07867994 0.08988841 0.1455815 -0.033898875
0.1181563 0.11651386 0.07453741 0.10339473 -0.14244035 -0.14765291 0.0858186 0.041535765
-0.04009016 -0.0056325197 0.023287565 0.08953227 0.10860278 0.14507405 -0.18163554 -0.04158485

lstm.bias_ih_l0 f4 [100]
00000000: 994e 99be f196 aa3f 7cb5 85be 670b 80be
00000010: 228d 923e 736f e6bd 5384 bc3f 2ed3 1540
00000020: 235a 4e40 4f55 4e3f dea3 773f f2fd 0040
00000030: a991 703e c6a5 14bd 5977 7d3f a45c dc3f
00000040: d149 2640 37ba 0cbf 94e6 c03f 958c 2040
00000050: ac91 dc3e 5fac bd3f 464a 993f c06b e93f
00000060: d898 dc3f 000e 17be c941 0d3e c89a 2b3d
00000070: 30eb bcbd 000a 9239 a534 253e 7de7 093e
00000080: 8012 853a 6ebc da3d 5c99 08be 3131 223e
00000090: 8cee 3b3d b6a8 0ebe c04c 23be e68d 8d3d
000000a0: 2346 483e fd9a 45be b6dc fe3d f633 b43d
000000b0: d5b8 08be fb4c 4a3e 7cf7 88bd 3365 373e
000000c0: 8cc1 90bd 1017 e5bd 6ac1 4d3e d6b3 923f
000000d0: 0809 953f bf39 99bf 867f 86bf 6d06 6abf
000000e0: 80ab e23e 600c b03f 6461 b93f b9aa 5c3f
000000f0: 5493 92bf 5f22 eebf e087 513f 4e62 27bf
00000100: f27e 363f 2a42 e9bf 5273 573f 28ca 483f
00000110: 98d6 353f 928e abbf 1614 a5bf ac00 983f
00000120: 67a5 babf 3254 8c3c d6e3 c33e e45f 993f
00000130: 7d35 20bf cb8a 0bbe 44e7 e8bd 19ca bb3e
00000140: 5e60 0a3f 812f d43f 2f1b 3740 3ffd 653f
00000150: ee59 ac3f 37dc aa3f 626b fa3e a06f 9b3f
00000160: 02bc 5d3e 2e2a 593f 4c4e e13f 9f56 983f
00000170: 6c0b 98be d712 69be 3d17 e73f c83c 003f
00000180: c7e8 653f 435c f13f b80e 953f 4db1 bc3e
-0.29942778 1.3327314 -0.26115024 -0.250087 0.286233 -0.11251726 1.4727882 2.3410144
3.2242515 0.8059892 0.96734416 2.0154996 0.23493065 -0.036290906 0.99010235 1.7215772
2.5982554 -0.5497164 1.5070367 2.5085804 0.4307989 1.4818228 1.1975791 1.8236008
1.7234144 -0.14751434 0.13794626 0.041895658 -0.09224546 0.0002785474 0.16133364 0.13467212
0.0010152608 0.10680471 -0.13339752 0.15839078 0.045881793 -0.13931546 -0.15947247 0.069118306
0.19558005 -0.19297405 0.12444441 0.08798973 -0.13351758 0.19755928 -0.06687829 0.17909698
-0.07068166 -0.111860394 0.20093313 1.1461132 1.1643381 -1.1970748 -1.0507667 -0.91416055
0.4427147 1.3753777 1.4482846 0.86198 -1.1451211 -1.8604239 0.81847954 -0.65384376
0.71287453 -1.8223317 0.8416034 0.78433466 0.7103057 -1.3402884 -1.2896755 1.1875205
-1.4581727 0.017129991 0.38259763 1.1982388 -0.62581617 -0.13627164 -0.113722354 0.36677626
0.54053295 1.6576997 2.8610342 0.8983955 1.3464944 1.3348454 0.48910052 1.214344
0.2165375 0.84829986 1.7602019 1.1901435 -0.29696214 -0.22761093 1.8053967 0.50092745
0.89808315 1.8856281 1.1645117 0.3685402

lstm.bias_hh_l0 f4 [100]
00000000: 7d81 2ebd 7fd3 a63f 726c 15be d550 10bd
00000010: 55a0 003f cdf4 1d3e 5778 b53f 7223 2740
00000020: 9bd2 5140 3136 0c3f 04e9 5a3f dfc2 ee3f
00000030: b382 473e b3dc 953e c544 7e3f d077 ee3f
00000040: 4bbf 3740 1dcf c1be 3e56 9d3f 33af 2c40
00000050: c260 a53e 6d45 b83f 52ca ae3f c8ff 0140
00000060: 4264 dc3f 7002 a53c 4845 3dbd 9016 dcbc
00000070: e48d 6a3d dc54 0bbe 87e9 123e d562 31be
00000080: d927 4c3e e033 a1bd 90e7 d6bc 2077 3c3d
00000090: a400 5c3d e737 1b3e a8c5 3f3d a48e 91bd
000000a0: 1b83 2cbe ae95 a83d e280 8b3d 3f80 373e
000000b0: 1bab 48be 2df8 303e b033 b0bc 7cb9 94bd
000000c0: d871 76bd 9841 efbc 6f7f 853e 5669 a43f
000000d0: d8cf 913f a5a5 6fbf e0a3 8abf 7c61 8cbf
000000e0: 7873 dc3e 9095 cb3f d8e7 c23f 054a 413f
000000f0: 6804 bbbf 8d73 e1bf 7c53 5e3f b052 27bf
00000100: dedb 273f 44ca e8bf 4809 813f 309f 543f
00000110: 0a18 423f 4031 cbbf 2258 c7bf 34a8 c03f
00000120: b131 a0bf cd5f 393d ea06 bf3e 58a2 b33f
00000130: c72f 37bf 8b06 3abe 79e2 aabe fbac b53e
00000140: 2e09 1e3f 0fcc bd3f 2534 3840 164d 933f
00000150: 6045 973f e5a1 943f 408f 763e 293f 7e3f
00000160: dd83 023e 8e9c 483f 18bd bc3f 6bfc 953f
00000170: 8c34 d7be 0809 8dbe f5a9 e63f 3b91 e23e
00000180: 0dd6 6b3f 231f fc3f 1c88 bb3f 5c3c 013f
-0.04260396 1.3033293 -0.1459215 -0.035233337 0.5024465 0.15425415 1.417735 2.6115384
3.2784793 0.5477019 0.85511804 1.865322 0.19483452 0.29269943 0.99323684 1.8630314
2.8710506 -0.37853327 1.2291944 2.6981933 0.32300383 1.4396187 1.3655493 2.0312366
1.7218096 0.020142764 -0.04620865 -0.026866227 0.057264224 -0.1360659 0.14346896 -0.17322858
0.19937076 -0.078712225 -0.026233464 0.046012044 0.05371155 0.15158044 0.04681936 -0.07107285
-0.16846888 0.08231674 0.06811692 0.17920016 -0.19596522 0.17282172 -0.021509022 -0.07261941
-0.060167164 -0.029206082 0.26073787 1.2844646 1.1391554 -0.9361213 -1.0831261 -1.096725
0.43056846 1.5905018 1.5227003 0.7550357 -1.461072 -1.7613388 0.8684614 -0.65360546
0.65569866 -1.8186727 1.0080957 0.830554 0.7581793 -1.5874405 -1.5573771 1.5051332
-1.2515165 0.04525738 0.37309963 1.4033918 -0.7155728 -0.18166558 -0.3337591 0.35483536
0.6173276 1.4827899 2.8781826 1.15079 1.1818047 1.1611906 0.24078083 0.99315125
0.12745614 0.78363883 1.4745207 1.1717657 -0.42032278 -0.27545953 1.8020617 0.44251427
0.9212349 1.9697002 1.4650912 0.50482726

lstm.weight_ih_l1 f4 [100, 25]
00000000: 3c3b 04be 4b6e a93f c049 1940 1582 0b40
00000010: 8cc7 8241 5e09 0e3f b4e4 e2be 46e2 93c1
00000020: 27d6 25c1 3c4c 0d3f 7291 d2bf f6be 1140
00000030: 1650 9e3f 97c4 f73f 5d65 4abf 2d59 e03f
00000040: 0840 6bbf 5fa0 2a3f fcc6 abbf 4aa0 8941
00000050: fb18 1540 5a64 6640 95a7 8d40 bbb0 0d3f
00000060: 9889 76bf f921 ffbf cdee 9041 6f2f e3be
00000070: cb9c b23f ab8c 0bc0 b33c 2d3f 80ef 38c0
00000080: cba7 4b3f 67e0 26bf 9b8e 823f 76ac dcbf
00000090: 4e6d 4dc1 b12d 69bd d336 2cc0 452f 81bf
000000a0: 2938 b3c0 714e ff3f 40e7 76bf 8729 08bf
000000b0: 0617 91c0 c96f b2be 4615 3f40 be31 27c0
000000c0: 2f07 1dc0 a68f b9bf d0ab d63b 9a22 40bf
000000d0: ea6a 833f d423 f83d a474 14bd 21c7 a0be
000000e0: fb14 5ebe 7bfd a23f c20f 4f3f 6370 c73f
000000f0: 8f4d e23e 7672 a2bf 9d3b e73f 4e48 59bf
00000100: c925 acbe 4b0f 1bc0 0b76 753f 3af1 e83f
00000110: c945 51bf db57 66bd 400c eabf afff e0bf
00000120: 8df8 49bf efdf a43f d1ed a3bd d587 5040
00000130: 5473 a73f f7e7 0f40 291f cd3f a434 853f
00000140: 4dd8 8a40 8d9a 50c0 584d cf3f 3f1d 2ebf
00000150: 216f a93f f4a4 84bf d29e 36bf 23d0 dabf
00000160: 3f91 9bbf cde3 cdbf 2989 5ac0 5e1b c2bf
00000170: 82dd 30c0 2899 49bf 4d48 81c0 b609 1940
00000180: e251 7b40 a35a 2cbf 3984 6540 61ac 1940
00000190: 3d70 03be c6a0 4e3f bb24 ccbf 1a86 c53f
000001a0: db35 753f 5306 f53f 6da1 dcbe 5e5b 293f
000001b0: efff a6bf 3c7d 62bf e4e5 dabe 30bc d2be
000001c0: 7fe8 c4be b69e 01c0 75b2 81c0 f121 193f
000001d0: 4d2c 84bf 298b c5bf efdc b63d 4b50 65be
000001e0: 7391 1c3f d47e 7e3f 8eec 8b3f 5a95 5b3e
000001f0: b97a 013f fd00 77be 7c48 cc3e 4e35 98bf
00000200: 49da a43f 9af9 953f 63db ce3f 675e d3bf
00000210: 5dfb 1b3f b5a5 90bf 091f abbf 1133 edbe
00000220: f8cc 833e de8b 30bf 9904 e8be 5d2d bdbf
00000230: e2d9 4dbf da93 b0bf c83c dfbf 3359 53be
00000240: 0b6d ac3f 8bde 2c3f 6af4 4c3f 8cad 873f
00000250: 60c4 a93f 0094 a2be 7dfe 09c0 7d2f 893f
00000260: 9bb9 343e f5bf 0540 db78 7b3f 1779 4140
00000270: 9a2d 07c0 bcee 913f 7517 d3bf 5183 0340
00000280: 9f7b 5d3e 2d5f 98c0 050a 31c0 ef38 80bf
00000290: 154f 67c0 7e7b 86c0 729d 3cc0 0bb9 143f
000002a0: 7acb 10be 2f8a 57c0 4d4f 77c0 e336 6540
000002b0: f7ef 383f b217 1241 305e 4540 73fb e3bd
000002c0: be2f 3242 5b67 9a3f 8770 bb40 33d5 84c0
000002d0: fb97 11bf 221c aec0 0069 3840 a78b 813e
000002e0: dc37 7a3f 5d80 10c0 183f 57c1 65f3 4f3f
000002f0: 3b55 d73f 7b0c b33e b2fa bcc0 b1ae 4240
00000300: fd3b 00c0 20c5 9fc0 7bb8 4fc0 a2d9 0fc0
00000310: c767 af40 6043 3dc1 3513 4f3f 9d41 77bf
00000320: 6853 a43e f6e2 5a3f d8d7 20bf 6e67 323f
00000330: f7c7 623f 6d69 2c3f f2e3 bbbf 9635 5cbf
00000340: 7c86 29bf 2345 6abf 5eff 68be 3e0e 883f
00000350: 760b 87bf e72f 80be 94a9 17c0 aa95 67bf
00000360: f4ef 93bf 175c 9cbe e5ef e6be b201 903f
00000370: a6d0 b13d 3d09 d33e a762 3a3f f857 9e3f
00000380: c2f7 a2bd 8118 febe b349 2040 a3bc b93f
00000390: 166b a53f 6dbf 6dbf 3e44 e8bf 6c19 60bf
000003a0: 5c84 913f a880 95bc f1e7 833f 9b6d 87c1
000003b0: 2bab b7be 6625 1940 c4b7 773f dacb cabe
000003c0: d591 02c2 e495 46bf ad9c 91bf 0f94 26bf
000003d0: 7733 a0bf 3516 65c0 4344 6c40 f209 cbc0
000003e0: df16 403f 91cf 0440 bbbb 1b3e 083d 84bf
000003f0: adff de3f 601c 0a40 4181 5040 9ed0 09c0
-0.12913221 1.3236784 2.3951263 2.1798146 16.347435 0.55483043 -0.44315112 -18.485485
-10.364783 0.5519445 -1.6450636 2.2772803 1.236819 1.935687 -0.7906092 1.7527214
-0.9189458 0.66650957 -1.34201 17.203266 2.3296497 3.599875 4.426707 0.55347794
-0.963037 -1.9932243 18.116602 -0.44372126 1.39541 -2.1804607 0.67670745 -2.889618
0.79552907 -0.6518616 1.019977 -1.7240131 -12.839186 -0.05692834 -2.6908462 -1.009255
-5.6006055 1.9945813 -0.9644661 -0.53188366 -4.5340605 -0.3485091 2.9856734 -2.612411
-2.4535635 -1.4496963 0.0065512434 -0.750528 1.0267003 0.12116209 -0.03624405 -0.31401923
-0.21687691 1.2733606 0.8088342 1.5581173 0.44199798 -1.2691181 1.8065068 -0.84875953
-0.33622578 -2.4228084 0.95883244 1.8198617 -0.8174711 -0.05623613 -1.8284988 -1.7578028
-0.78894883 1.2880839 -0.08004344 3.2582905 1.308207 2.248533 1.6025134 1.040669
4.338904 -3.259433 1.6195478 -0.68013376 1.3237039 -1.036284 -0.7133609 -1.7094768
-1.21537 -1.6085144 -3.4146216 -1.5164602 -2.7635198 -0.7874932 -4.040076 2.3912177
3.9268727 -0.673258 3.5861952 2.4011462 -0.12835784 0.8071407 -1.5948709 1.543155
0.957853 1.9142555 -0.43091908 0.6615504 -1.3046855 -0.8847234 -0.42753518 -0.411592
-0.3845863 -2.025312 -4.0530343 0.59817415 -1.032602 -1.5433093 0.089288585 -0.2239391
0.6115944 0.99412274 1.0931566 0.21443692 0.50577885 -0.24121471 0.3989905 -1.1891267
1.2879115 1.1716797 1.6160702 -1.6513184 0.60930425 -1.130057 -1.3368846 -0.46328023
0.25742316 -0.6896342 -0.45316008 -1.4779469 -0.8041059 -1.3795121 -1.7440424 -0.20639496
1.3470777 0.67527074 0.80060446 1.0599837 1.3263054 -0.3175354 -2.1561577 1.0717617
0.17648928 2.0898411 0.98231286 3.0230157 -2.1121583 1.1400981 -1.6491534 2.05489
0.21629189 -4.761618 -2.7662365 -1.0017375 -3.6142018 -4.2025747 -2.9471097 0.58094853
-0.1414012 -3.367809 -3.8642151 3.581475 0.7224116 9.130785 3.0838737 -0.111319445
44.546623 1.2062792 5.8574862 -4.1510253 -0.5687253 -5.440934 2.8814087 0.2530186
0.97741485 -2.2578347 -13.452904 0.81230766 1.6822885 0.3497046 -5.9056025 3.0419123
-2.0036614 -4.992813 -3.2456348 -2.2476583 5.481418 -11.828949 0.8088868 -0.9658449
0.32094884 0.85502565 -0.6282935 0.6968907 0.8858637 0.67348367 -1.4678938 -0.86019266
-0.6622083 -0.91511744 -0.22753665 1.0629346 -1.0550373 -0.25036547 -2.3697252 -0.90462744
-1.1557603 -0.3053901 -0.451049 1.1250517 0.08682375 0.41217986 0.7280678 1.2370596
-0.07957412 -0.4962807 2.5044982 1.4510692 1.2923305 -0.9287022 -1.8145826 -0.8753879
1.1368518 -0.018249825 1.0305158 -16.928518 -0.35872778 2.3929076 0.9676478 -0.3960865
-32.642414 -0.77572465 -1.1375939 -0.6506967 -1.2515706 -3.5794804 3.6916664 -6.344964
0.750349 2.0751688 0.15208332 -1.0331125 1.7421776 2.1579819 3.257889 -2.153358

lstm.weight_hh_l1 f4 [100, 25]
00000000: 2537 0f3e c4dc 513d 4728 233e 4822 0a3d
00000010: 9a99 07be 20ce 0abc caf4 09be 30cd 143c
00000020: f190 2b3e 6b9e 153e 1dae 2abe f59f 23be
00000030: 0092 98bc 3c3f 89bd dca7 6d3d 37d5 473e
00000040: e02c 03bd 0030 20bc 18d2 193d 617f 3a3e
00000050: d3af 2ebe 7048 9cbc c0f0 aabc 22d7 f03d
00000060: b2b0 33be 3840 003d 5028 10bc ac07 80bd
00000070: 3ab4 14be f309 f6bd d015 adbd 2601 bc3d
00000080: 8e35 a73d ca4a 9e3d fe52 01be 0719 233e
00000090: 23f2 12be c55f 2c3e 8c9f 153d a889 b7bc
000000a0: 63c2 a8bd e67d db3d 86eb c33d d63c a93d
000000b0: 02fb 36be b0c0 973c aa56 2bbe eec6 ff3d
000000c0: b135 453e 6c7e 6d3d fa6d 9abd 767d ff3d
000000d0: d0a8 f93c 8077 23bd 94dd 64bd 0e95 21be
000000e0: 8c7e 083d fef1 28be 404f 7ebd 6b8a 31be
000000f0: 479a 413e ac8f 643d 6a46 d3bd 371d a9bd
00000100: 5b76 453e 30c6 2dbc f002 bdbd 50ef bcbc
00000110: d15f 183e 1596 0cbe a065 8abb 546b 50bd
00000120: 2698 94bd b4dc 153d 3b38 2f3e 00a8 66bc
00000130: a676 8abd 16cc 88bd c8e3 013d ea0a 8c3d
00000140: 60e7 7c3c 914a 193e 004a 1a3c ddfc 34be
00000150: 20e1 3e3c 842c 673d f3d8 0ebe 207f 90bd
00000160: e9ae 073e 02bc 3cbe 032a 43be 361b fb3d
00000170: 5f5a 213e f2a5 df3d e323 f2bd ce81 843d
00000180: 2df7 2a3e 1469 0cbe f6c9 28be 570b 053e
00000190: 876d f6bd a014 10bd b480 313d ed1e 27be
000001a0: 40e5 29bb c006 d8bb 3031 eb3c d0e3 2bbc
000001b0: 1807 35bd 7a64 0cbe a83a e3bc 7454 31bd
000001c0: 3009 053c ff45 213e f43a 66bd d4e0 00be
000001d0: 004e 493a c2bf 15be 335e fabd 5ebe a13d
000001e0: 9d9f 19be 9809 54bd a008 6d3c 4628 82bd
000001f0: 40fc ce3c b3b8 16be 1f6e 143e 4088 873c
00000200: 7260 ff3d 19c4 4b3e 7655 933d 8a73 a93d
00000210: 0af0 f43d a66e 14be 1e54 b83d cd43 e8bd
00000220: 9963 3b3e 8120 423e 80a5 01bd 6514 17be
00000230: b21d 823d cf3f 243e e398 1abe 04ac 783d
00000240: c8f4 42bd 7e86 b53d a0a1 25be 2cee 07bd
00000250: dbb7 16be 1439 13bd f65f 953d e044 b7bd
00000260: 93ad 093e 6541 413e 90d6 bdbd 6ce4 573d
00000270: 8d2c eabd b325 d7bd e45d 93bd cade 44be
00000280: 6819 76bd 0041 70bc 2a2e 26be f75a 053e
00000290: 00f2 993c 0056 f6bd fae0 ee3d de65 f93d
000002a0: 585c 033d ace8 3ebd 29e0 223e 5201 853d
000002b0: 2018 783c c857 1bbe 58f6 4fbd b9c1 403e
000002c0: a0ec 9ebb cc64 213d f80f 37be 3055 743c
000002d0: 3f96 233e 6ce2 453d c669 bb3d c869 113d
000002e0: 21df 133e 5496 37bd a47e 4e3d 00af 0dbc
000002f0: a152 0c3e 4c2f 453d 406d d9bd 6c68 7b3d
00000300: 352e 1d3e b4dd 37bd 5181 353e e332 42be
00000310: 9eae f33d 252b 353e 0cb7 193d 46cb e43d
00000320: 0709 babd 8022 41be e828 89bc f0a6 953c
00000330: 1812 f63c e5b1 473e 1451 03bd aa9e 0bbe
00000340: 324d c13d 2065 5abc 0aee 89bd 199d 3d3e
00000350: 1c51 8cbd 90d9 f2bc 1a07 da3d 3011 51bc
00000360: 709d a0bd a60f d33d a8ca 60bd ed78 11be
00000370: 751d 4c3e 40cd 9dbb 2dd0 2cbe 6358 4abe
00000380: 4c5b 09bd 82db ed3d d471 59bd 7f89 1e3e
00000390: 0037 213c d84e 163d 94d2 11bd fa94 01be
000003a0: 70e8 a4bc baa9 0dbe d0bb aabd 12db 883d
000003b0: 53c1 b0bd 04fc 96bd 5870 843c 1acc e03d
000003c0: 0058 de3c 9c74 7e3d 40dc 2dbe 2415 6d3d
000003d0: 4bb5 22be cd7e 10be 0894 77bd d07c dabd
000003e0: dd10 ccbd 10f2 1bbe d2b0 07be c827 463d
000003f0: e913 003e 9a19 b9bd 43d9 d2bd 21e8 2d3e
0.1398588 0.05123593 0.15933333 0.0337241 -0.13242188 -0.008471996 -0.13472286 0.009082124
0.1675451 0.14611213 -0.16667981 -0.15978988 -0.018624306 -0.06701514 0.05802141 0.19514929
-0.032025218 -0.009777069 0.037553877 0.18212654 -0.17059259 -0.01907751 -0.020866752 0.11759783
-0.17547873 0.031311244 -0.008798674 -0.06251463 -0.14521876 -0.120136164 -0.08451426 0.091799065
0.081645116 0.07729109 -0.12629315 0.15927516 -0.1435018 0.16833408 0.03652911 -0.022404507
-0.08240201 0.107173726 0.09566407 0.08263557 -0.1786919 0.018524498 -0.16732278 0.12489115
0.19258763 0.057981893 -0.075405076 0.12475102 0.030476004 -0.039908886 -0.055875376 -0.15779516
0.03332381 -0.16498563 -0.062087297 -0.17337959 0.18906508 0.05580108 -0.10316165 -0.082575254
0.1928343 -0.010606334 -0.09229076 -0.023063332 0.14880301 -0.13729127 -0.0042235404 -0.050883606
-0.072555825 0.036587432 0.17111294 -0.01407814 -0.06760912 -0.06679551 0.03171137 0.06838019
0.0154360235 0.14969851 0.009417057 -0.17674585 0.011650354 0.056438938 -0.13949947 -0.07055497
0.13250317 -0.18431094 -0.19058995 0.122610494 0.1575713 0.109203234 -0.11823251 0.06470071
0.16695853 -0.13711959 -0.16483292 0.12992607 -0.120326094 -0.03517592 0.04333563 -0.16320391
-0.0025923997 -0.0065926015 0.028709978 -0.010491326 -0.04419622 -0.13710204 -0.02773793 -0.04329343
0.008119866 0.15749358 -0.056208566 -0.12585765 0.00076791644 -0.14623931 -0.12224998 0.07897638
-0.15002294 -0.05176696 0.014467388 -0.06355338 0.025266767 -0.14718895 0.14495133 0.016544461
0.12469567 0.19899024 0.07194035 0.082739905 0.11959846 -0.14495334 0.09000419 -0.11341057
0.18299712 0.18957712 -0.031651974 -0.14753874 0.0635332 0.16039966 -0.15097384 0.060710922
-0.047596723 0.08863543 -0.16174936 -0.033186123 -0.14718573 -0.035943106 0.07293694 -0.08948684
0.1344512 0.18872602 -0.0926944 0.052708074 -0.11434279 -0.105052374 -0.071956426 -0.19225612
-0.060082823 -0.014663935 -0.16228548 0.13022982 0.018792152 -0.12028122 0.116640046 0.12177633
0.032070488 -0.046608612 0.15905823 0.064943925 0.015142471 -0.15170205 -0.05077204 0.188239
-0.0048499852 0.039402768 -0.17877185 0.014912888 0.15975283 0.048311636 0.09151034 0.03550127
0.14440586 -0.0448211 0.050413743 -0.00864768 0.13703395 0.04814081 -0.10616541 0.06137888
0.15349658 -0.044889167 0.17725112 -0.18964724 0.1189854 0.1769224 0.037528083 0.11171584
-0.09083753 -0.18860817 -0.016743138 0.018268079 0.030037925 0.19501455 -0.032059744 -0.13634744
0.09438552 -0.013329774 -0.067348555 0.18516959 -0.06851408 -0.029644758 0.10645886 -0.0127604455
-0.07842529 0.10305719 -0.054880768 -0.14206286 0.19933112 -0.0048157275 -0.16876288 -0.1976028
-0.033534333 0.116141334 -0.05308707 0.15482138 0.009839773 0.036696285 -0.035601214 -0.12654486
-0.020130366 -0.13834277 -0.08336604 0.06682409 -0.08630624 -0.07372287 0.01616685 0.10976429
0.027141571 0.062122926 -0.1697855 0.05788149 -0.1588947 -0.1411087 -0.060443908 -0.10668337
-0.09964154 -0.15229058 -0.13251045 0.048377782 0.12507595 -0.09038086 -0.10295346 0.16983081

lstm.bias_ih_l1 f4 [100]
00000000: bed1 4840 c620 5b3f 9724 7f3f 0da3 5740
00000010: f964 213f 8871 743f 2266 ad3f fa2a dd3f
00000020: 6dd9 c53e d5f5 203f a80f 1140 b5f2 f23e
00000030: 147c 1f3f b0a7 9f3f 933a e73f 98ad 063e
00000040: e6c0 883f f1cb 073f 3ba1 e33f ac8e d43f
00000050: e75d 9b3f 0300 be3f 0a28 00bf 8a94 0640
00000060: 35cb 8d3f 2aff 3dbe ca52 88bd 2ae4 85bd
00000070: 132c 273e f037 aebc 7faa 0d3e cad6 9bbd
00000080: 609f 7ebd c76c dbbd 9613 ae3d b0e6 fabd
00000090: cd51 44be d98a 2c3e 6cb1 4bbd e8f3 383d
000000a0: 03ce 1abe d88f cd3c c388 ccbd d619 a23d
000000b0: a3ef 11be e077 59bd 688a 9c3c dbdb 1dbe
000000c0: 743f 77bd 0218 a93d 2e61 1cbe d14e 6dbf
000000d0: 1fc9 743f c52c 3ebe 64d2 4d3d 25ae 83bd
000000e0: 4e7f 48be 23c8 c33e 0cf2 013e ab11 3a3f
000000f0: 90b5 7d3f a1ed 11bf 8c42 d9be 2184 d8be
00000100: f31f 21bd 188f 7c3e 2f68 99be ff2e a73f
00000110: f8bc b9bf a71c 79be f875 67bf d077 cabe
00000120: 58d3 18bf d47f c93e fab4 c53e 2238 6340
00000130: ea2a a53f ae29 eb3e e440 7140 e127 bd3f
00000140: 5734 5b3f c5ce c73f b9f8 923f 134e 3b3f
00000150: e43a bcbe c2d5 803f 3560 fd3f 7451 483f
00000160: 7810 c03f e099 6140 fa09 0940 5651 e23f
00000170: 7951 d6be c636 853f 02d8 2c3f b855 9b3f
00000180: a788 1e3d 9830 403f 3320 aa3f 80d0 123f
3.1378016 0.85596883 0.99665207 3.3693268 0.630447 0.95485735 1.3546793 1.727874
0.38642445 0.6287511 2.2665806 0.47450796 0.62298703 1.2473049 1.806475 0.13152158
1.0683868 0.53045565 1.7783579 1.660604 1.2138032 1.4843754 -0.50061095 2.102816
1.1077639 -0.18554369 -0.06656416 -0.065376595 0.16325407 -0.021266907 0.1383457 -0.07609327
-0.06216371 -0.10714107 0.084998295 -0.122510314 -0.1917183 0.16849841 -0.04972975 0.045154482
-0.1511765 0.025093004 -0.09987023 0.07915084 -0.1425157 -0.053092837 0.019108966 -0.154159
-0.060363248 0.08256532 -0.15271446 -0.9269839 0.95619386 -0.18571766 0.050249472 -0.064297
-0.19579813 0.3823863 0.1268999 0.7268321 0.9910517 -0.5700322 -0.42433584 -0.42288306
-0.03933711 0.24663961 -0.29962298 1.3061217 -1.4510794 -0.24327336 -0.9041438 -0.39544535
-0.59697485 0.39355338 0.38614637 3.550301 1.2903721 0.45930237 3.7695856 1.4777795
0.8562674 1.5609976 1.1482154 0.73166007 -0.3676368 1.0065234 1.9794985 0.7824929
1.5005026 3.5250168 2.141234 1.7681072 -0.41859034 1.040734 0.675171 1.2135534
0.03870454 0.7507415 1.3291076 0.57349396

lstm.bias_hh_l1 f4 [100]
00000000: 1470 3440 f4ee 343f 05ba 5a3f 7f05 5a40
00000010: 57a1 643f 705f 2d3f 5887 ab3f acdc c23f
00000020: b759 853e 83a9 643f d6ee 1140 588c 1a3f
00000030: 3ade 1e3f 526a 913f cd51 d13f be6c 1ebd
00000040: 2a00 3b3f 37cd 813e fb0a 0640 8ec8 cf3f
00000050: 412c 9d3f e137 9a3f 6855 fdbe 969e 0d40
00000060: 29b3 933f 6c92 0bbe 47cc a9bd 12ea 8e3d
00000070: c899 37be 7833 06be 407c 1dbd 0065 09bd
00000080: 0985 1e3e d0b2 49be d485 083d 3511 31be
00000090: f3dc febd 6344 f6bd 58b7 44bd 1334 d3bd
000000a0: abea 163e 604d 263d 30d1 523c 539a edbd
000000b0: 6e86 e53d 792f 013e 2b9b 203e 4076 7dbd
000000c0: 56d8 0abe 2ad9 f3bd f578 84be 245a 8ebf
000000d0: 0faa 3b3f 7fed babe a45d 72be 9716 c5bd
000000e0: 6272 98be d08a 373e c85b a83e 55d8 463f
000000f0: 7d99 8c3f ba62 5fbe fe05 d7be c10d aabe
00000100: b621 bfbd cf2d a43e 2957 adbe c77d c73f
00000110: fab8 bebf 79b7 cebe a88a 47bf 6c9c a3be
00000120: ec64 25bf 2a37 923e d8b5 b63e 4276 5b40
00000130: b0b7 c33f dcdf 083f 1022 6a40 dbf4 da3f
00000140: 4a3d 8d3f 5b87 bf3f fea8 683f a7d2 1a3f
00000150: 90a7 19bf c0dc 3a3f 6916 0240 ca44 763f
00000160: 1a68 d23f ee92 5f40 84bc f13f 14b1 c93f
00000170: eff1 0cbf 45ff 8c3f 12c5 5b3f 64a4 a03f
00000180: 1462 7f3c a22e 363f 6f61 af3f 0072 073f
2.8193407 0.70677114 0.85440093 3.4065855 0.89308685 0.6772375 1.3400679 1.5223594
0.2604501 0.89321154 2.2802024 0.603704 0.6205784 1.1360571 1.6353089 -0.038677923
0.73047125 0.2535188 2.0944202 1.623308 1.227913 1.2048303 -0.49479222 2.2128043
1.153905 -0.13630074 -0.08290916 0.06978239 -0.17929757 -0.13105571 -0.038448572 -0.033543587
0.15480436 -0.19697118 0.033330753 -0.1729172 -0.124444865 -0.120247625 -0.048026413 -0.10312667
0.14737956 0.040601134 0.012867257 -0.11601701 0.11207281 0.12615766 0.15684192 -0.06188035
-0.13559088 -0.11906655 -0.25873533 -1.1121259 0.73306364 -0.3650932 -0.23668534 -0.09623449
-0.29774767 0.17924047 0.32882524 0.77673846 1.0984341 -0.21815005 -0.4199676 -0.33213618
-0.09332602 0.320662 -0.3385556 1.5585259 -1.49002 -0.40374354 -0.7794595 -0.31955278
-0.6460712 0.28557712 0.3568561 3.429093 1.5290432 0.5346658 3.658329 1.7105974
1.1034329 1.4963182 0.9088286 0.6047768 -0.60021305 0.7299309 2.0326178 0.96198714
1.6438019 3.4933429 1.8885655 1.5757165 -0.5505666 1.1015402 0.8584758 1.2550168
0.0155873485 0.71164906 1.3701609 0.52908325

fc.weight f4 [52, 25]
00000000: af25 7b40 efaa 66bf 2b06 d240 66a6 4041
00000010: dca8 a140 19ae cf3f 89d1 1f41 59c8 1bc1
00000020: f6eb 4240 ab74 9fc0 fda4 8dc1 da9c b0c1
00000030: a4bc dc40 df94 8740 ecee f3c0 73ad 4c42
00000040: 3dd0 3141 57ef bfc0 6872 5c41 7346 7b40
00000050: 7fb1 14c1 e104 7041 5be6 54c1 346c 4c3e
00000060: 3829 a2c0 68c7 2740 ac02 de3d 820c 1bc0
00000070: a52d 0bc0 02c9 b041 fecc babf 4937 db3d
00000080: eae7 08bf d7cd febf dd35 4ebf 3e28 e7bf
00000090: d8fa 46bf 4a32 47c0 9a3c ef40 481f 93c0
000000a0: 0a75 823f 0204 a9be 5c10 91c0 d416 b840
000000b0: 9e3e 7341 111e 6bbf b2dd 00bf e407 85c0
000000c0: d9a5 a8bf a54e 0741 317a 8ec0 56aa ec40
000000d0: 8032 fd3f 6f4a 7bc0 b2f9 8c3f bf00 0740
000000e0: cbea 5ec0 d425 7941 a295 0440 0ba8 96bf
000000f0: 4aa5 3a41 909e 3fc1 8972 ac40 910b db3f
00000100: be36 b240 c530 13c0 18f1 d13f 16b1 33c1
00000110: 3c4f 04c1 7e18 5d3e 61fa 4841 f57e 01c0
00000120: 7db2 00bf de27 7cc1 ee17 523f e612 19bf
00000130: 332e afc0 992f 2240 70aa f43f 2d6a 91c1
00000140: b9bc afc0 5d56 0a41 e3e4 94c0 0a60 7141
00000150: 5d0d 37c0 473d b83c 1b41 bbc0 dd3d 0441
00000160: 3fe3 94be 5a09 91c0 db60 0640 a3c7 87bf
00000170: 8d8a 85bf 3eed 60bf 7f34 3e40 c19b bc40
00000180: c17a 5140 4abb 52c0 87a7 8cbf dc74 4cbe
00000190: 42f8 6140 4861 a33d f4bf 55c0 567a 9bbf
000001a0: 2f8b a941 4d63 1b3f 57d0 80bf dce6 a8be
000001b0: 0c68 56c0 928d 9d3f c8c7 b5bf 8f40 f2bd
000001c0: 043c ee40 693d 8540 f2ac 8dc0 7523 f740
000001d0: 4f89 0e40 824e 57c0 2aea d440 0556 0841
000001e0: 85f9 f0bf 373b 8cbf c5b8 cfc0 41dd ffbe
000001f0: 1ddb 80bf 658b 18be 253a 50c0 c488 00bf
00000200: 40a3 ad3f b448 83c1 1f57 1f3e 698d 9240
00000210: d5cf 2ec0 45cb 4340 ab8c 91be 8a5a 71bf
00000220: a245 77c0 97d1 3bc1 095e 7dc0 2b17 37c0
00000230: 1591 553f 7d35 6dbd 1f39 253f 8f29 e0be
00000240: 4e1e 6740 aef1 ef3f f99e 81be cf44 34be
00000250: 2305 68bd 2644 ecbd 6976 a93d 20f2 34c0
00000260: cfdd 2fc0 4ca6 643f 7628 a8c0 bc6b 6640
00000270: 2c84 1540 ca34 0ec0 069f 3fc0 95e1 7bbd
00000280: 031d d4bf bf21 3bc0 5e31 7fc1 013f 23c1
00000290: 760e debf 2162 403f 131b 8bbe 59b4 843e
000002a0: 89ee 8bbf 3c33 503f f5a5 053e 581a 48c0
000002b0: 7b20 4240 d786 3b3f 5b53 9c3e 6e84 843f
000002c0: 0509 bcbf 6261 d73e ec86 18c0 1654 e43f
000002d0: 27a8 80bd 9ff3 5fc0 2ab0 14bf b1c7 0440
000002e0: 1c37 4c40 5912 1440 f380 0841 e4ab 4741
000002f0: a8d9 9d3f 23de b83f 8322 c13e fa31 cb3f
00000300: bfd1 7440 a8c0 0ebe 1ba6 e2bf 9147 1ec1
00000310: 7994 8140 ad7d 8fbe 45cc c83f ebc5 a13f
00000320: 542e aa40 63b4 c740 ca41 9d40 c517 053e
00000330: 01e9 82c0 0133 9cc0 e4bb 96bf f1bf 69c0
00000340: 31f3 41c0 fd7b cc40 9b0c cdbe 164b 2840
00000350: e204 5141 8ec0 bd41 a75a 6cc0 8523 d53f
00000360: 8c15 f8be ae51 083f b27a a340 8339 a9bf
00000370: bdf2 5b3e badf 84c0 5b47 be41 4d98 343f
00000380: d8b2 613f 4f0f 0741 1000 e440 d8f5 1041
00000390: 760c a0bf 59f5 e13f f14d 98c0 7fe6 8abe
000003a0: de8a 27c0 6282 58bf 29c3 79bf 936e a63d
000003b0: 2808 bd3f 072c 0840 4364 dc40 1f58 b4be
000003c0: 49ee 543f 8f17 db3e b927 c8be 9fec ef3e
000003d0: 9052 1fc0 4529 9a3f 37c4 a0bf 6f00 0f42
000003e0: 62c7 403e 49c9 d33f b477 d0c0 f6fe be40
000003f0: cd72 423f bfde f23f 6906 19c0 556b ebc0
3.924175 -0.90104574 6.563253 12.040625 5.0518627 1.6225005 9.988656 -9.736413
3.045652 -4.9829917 -17.70556 -22.076588 6.8980274 4.2369227 -7.6229153 51.169384
11.113339 -5.9979663 13.777931 3.9261749 -9.293334 15.001191 -13.306239 0.19963151
-5.0675316 2.6215458 0.10840353 -2.4226384 -2.174661 22.098148 -1.4593809 0.10703904
-0.5347887 -1.9906567 -0.8055094 -1.8059156 -0.7772651 -3.1124444 7.4761477 -4.5975685
1.0191967 -0.3301087 -4.533247 5.7527866 15.202787 -0.9184275 -0.5033828 -4.157213
-1.3175613 8.4567 -4.452416 7.395793 1.9781036 -3.926418 1.1013701 2.1094205
-3.4830806 15.571735 2.0716329 -1.1770033 11.665354 -11.976212 5.3889813 1.7112905
5.5691824 -2.2998517 1.6401701 -11.230734 -8.269344 0.21591374 12.561128 -2.0233738
-0.5027235 -15.759733 0.82067764 -0.5979446 -5.4743896 2.5341551 1.9114513 -18.176844
-5.4917874 8.646085 -4.6529403 15.085947 -2.8601906 0.022490157 -5.8516974 8.265103
-0.29079625 -4.5323915 2.0996616 -1.0607799 -1.0432907 -0.87862 2.971954 5.894013
3.2731173 -3.2926812 -1.0988625 -0.19966453 3.5307775 0.07977539 -3.339841 -1.2146709
21.19296 0.60698396 -1.006358 -0.32988632 -3.3501005 1.2308829 -1.4201593 -0.1182872
7.444826 4.1637464 -4.4273615 7.7230783 2.2271307 -3.3641667 6.6535845 8.521001
-1.8826147 -1.0955571 -6.491305 -0.4997349 -1.0066868 -0.14896925 -3.2535489 -0.5020869
1.3565445 -16.4105 0.15560578 4.579762 -2.731435 3.0592816 -0.28427634 -0.94278777
-3.863625 -11.738669 -3.9588645 -2.860789 0.834245 -0.05791234 0.64540285 -0.43781707
3.6112247 1.874563 -0.253166 -0.17604373 -0.056645524 -0.11536436 0.08274538 -2.8272781
-2.7479131 0.8931625 -5.254939 3.6003256 2.3361921 -2.221972 -2.994081 -0.06149443
-1.6571354 -2.9239347 -15.949553 -10.202882 -1.7348163 0.7514973 -0.27169093 0.25918844
-1.093217 0.8132818 0.13051589 -3.126608 3.0332325 0.73252624 0.30532345 1.0352914
-1.4690253 0.42066485 -2.383235 1.7838161 -0.062820725 -3.4992445 -0.58081305 2.0746882
3.1908636 2.3136199 8.531482 12.4794655 1.2332048 1.4442791 0.37721643 1.5874627
3.825302 -0.1394068 -1.7706941 -9.892472 4.049374 -0.2802557 1.5687338 1.2638525
5.3181553 6.24077 4.914281 0.12997349 -4.090943 -4.881226 -1.177609 -3.6523402
-3.0304682 6.3901353 -0.4004868 2.629583 13.063692 23.71902 -3.693033 1.6651465
-0.4845394 0.53249633 5.1087275 -1.3220676 0.21479316 -4.1523104 23.784842 0.7054489
0.8816352 8.441237 7.1250076 9.06002 -1.2503803 1.7652999 -4.7595143 -0.2712898
-2.6178508 -0.8457395 -0.97563416 0.08126559 1.4768114 2.1276872 6.887239 -0.3522348
0.83176094 0.4279141 -0.39092806 0.46860215 -2.4894142 1.2043844 -1.255988 35.750423
0.18826059 1.6545802 -6.514612 5.968623 0.7595642 1.8974227 -2.3910162 -7.356852

fc.bias f4 [52]
00000000: 7fc2 85c1 d8c5 9fbf 7002 3540 a1fa 20c0
00000010: 1a64 2b40 3510 fcbf eeb9 8dbf 584f 1fbe
00000020: 08bc d2bf 1060 5ac0 5aff f93f 93de debe
00000030: 3848 d53f eb21 1540 ecab 933f 7357 3ac0
00000040: 9c7f 7c3f 679d cabf 01a3 e0bf b95c 6740
00000050: 9513 3e40 9083 4f40 e396 90c0 47a5 f6bd
00000060: 5221 72c0 8de0 3c3f 9cf1 123f ef2f c4bf
00000070: 653d 853f e5e0 32c0 3022 8540 ac2e 4b40
00000080: 170a e73f 094e 6c40 4826 2c3f 16b3 bfbe
00000090: 0e24 833f e00b 7ebf 4e01 05c0 5c52 1940
000000a0: 3640 2dc0 72b6 183f 0572 2fc0 7602 b43f
000000b0: aef7 65bf ad1f 51bf 6933 bbbf c543 c43e
000000c0: f06a ebbf 76a2 bcbf bce9 e6bd b1e3 1640
-16.719969 -1.2482252 2.8282738 -2.5152972 2.6779847 -1.9692446 -1.1072366 -0.15557611
-1.6463633 -3.4121132 1.9531052 -0.43529186 1.6662664 2.3301952 1.1536841 -2.9115875
0.98632216 -1.5829285 -1.7549745 3.6150343 2.9699452 3.242405 -4.518419 -0.12043243
-3.7832837 0.7378014 0.57399917 -1.5327128 1.0409361 -2.7949765 4.1604233 3.1747236
1.8049954 3.692263 0.6724591 -0.3744132 1.0245378 -0.9923687 -2.0782046 2.3956518
-2.7070441 0.5965339 -2.7413342 1.4063251 -0.89831054 -0.8168896 -1.4625064 0.38332954
-1.839201 -1.4737079 -0.1127505 2.3576472
