lstm_model_player_three.pth (torch, 66776 bytes, 10 tensors)

lstm.weight_ih_l0 f4 [100, 65]
2.2495658 1.140452 1.2615597 1.3038609 2.282598 1.4901577 0.35417855 0.1512075
-0.44212705 -0.5569625 -1.693288 -0.8134379 2.0238094 0.7543218 -1.290139 -0.8034458
0.62923276 0.65230495 0.6604577 0.52929115 0.874865 0.92619395 1.194141 1.053783
0.09228076 -0.024682114 0.3348012 0.13713633 0.20578042 0.16767627 -0.109299205 0.03547327
2.6154926 2.9027174 2.8807807 2.9019134 0.7672225 0.79262 0.57560635 0.55965316
0.34462312 0.5246892 0.5030767 0.610894 0.39420417 0.26255804 0.28914204 0.2465169
0.15242945 -0.17497122 -0.13321228 0.025744528 0.84080595 2.2732391 -0.96733296 -0.7751284
-0.29993647 0.9084609 -0.77800876 0.072970875 0.06902988 1.3746376 -0.45142093 -1.4724692
0.02628462 -0.82057834 -1.0606552 -1.1207166 -1.2210587 0.26409587 -0.27365187 -0.5616448
0.27344686 -0.35843724 -0.12197261 0.38755465 0.15264896 0.21070051 0.09923922 0.1520262
0.22507243 0.2664106 -0.2209944 -0.15736093 -0.21965908 -0.047671016 -0.06514882 0.16145939
0.1344237 -0.044415854 -0.30004817 0.05675597 -0.010602717 0.079397805 0.031380635 0.20445962
0.04870608 -0.022459777 0.02314986 -0.12116703 -0.23297665 0.4283889 0.5318502 0.4821994
0.22200303 1.247912 1.4748706 1.578811 1.4398993 3.2606654 3.2525346 3.3243234
3.1488569 0.053736433 0.11661227 0.004104525 -0.0010713637 2.9016876 4.750335 0.91365814
-0.708072 -2.1555068 -0.17080946 1.0346164 1.1437999 0.3352323 0.3068204 -0.7623095
2.3344643 0.079946086 1.672321 1.9258715 1.5656532 1.4381477 0.57792246 0.2448755
0.44555074 0.37600517 0.55915034 0.6575602 0.6952453 0.70220786 -0.09774219 -0.5588089
-0.3124958 -0.5141335 0.45453942 0.24741815 0.44318262 0.42919505 0.89488137 0.9901537
0.89460784 1.0190825 1.3425734 1.4215147 1.0468782 1.0532364 0.7653216 0.5283392
0.7470902 0.60744214 0.07878077 0.3302567 -0.0350182 0.32719094 -0.021393977 -0.17932495
-0.21263543 -0.3003944 0.57451224 0.3777388 0.5438755 0.355751 0.29367533 0.595667
0.5167867 0.4872051 0.09093259 0.18760385 -0.1388586 0.16145866 5.7634997 0.900073
0.9579214 1.5819337 1.244266 0.7589752 0.1870555 0.23454802 0.09554678 -0.2094417
-0.5775151 -0.27342585 -0.15126975 0.6262467 0.89694226 1.2767538 1.7162864 0.092211105
0.4530565 0.07137369 0.3437607 1.2719374 1.5381538 1.4011325 1.2945797 0.80796343
0.49926192 0.29238322 0.008726735 -0.50291824 -0.6727133 -0.5026147 -0.63794863 -0.8717951
-1.1342139 -1.1530415 -1.1884173 -0.30735216 -0.2590291 -0.43950495 -0.0667056 0.5960852
0.5976066 0.8789965 1.0449457 -0.8409137 -0.7280236 -0.83388317 -0.60347986 1.595254
1.5057896 1.245783 1.4276023 0.14092337 -0.16019277 0.09867194 -0.08264364 1.0090204
0.93893194 0.8301632 0.919982 -0.19534159 -0.13215059 0.16262175 -0.068363875 2.321752
-0.28739572 -1.0209041 -0.2747053 -1.1486652 0.011913916 -1.581386 3.0580235 1.5903033
00000000: e3f8 0f40 55fa 913f ca7a a13f eae4 a63f
00000010: 1616 1240 7dbd be3f e456 b53e 24d6 1a3e
00000020: 7a5e e2be 1895 0ebf a9bd d8bf 773d 50bf
00000030: 1886 0140 3c1b 413f 4623 a5bf a0ae 4dbf
00000040: 6615 213f 75fd 263f c113 293f a07f 073f
00000050: 27f7 5f3f 0c1b 6d3f 9dd9 983f 5de2 863f
00000060: b2fd bc3d 2532 cabc 106b ab3e 776d 0c3e
00000070: 1ab8 523e 54b3 2b3e 43d8 dfbd 6b4c 113d
00000080: 3b64 2740 1fc6 3940 b65e 3840 f3b8 3940
00000090: b268 443f 25e9 4a3f f05a 133f 6e45 0f3f
000000a0: 7172 b03e 0852 063f a2c9 003f 8d63 1c3f
000000b0: 21d5 c93e 026e 863e 6d0a 943e ed6e 7c3e
000000c0: 7716 1c3e a82b 33be cd68 08be 30e6 d23c
000000d0: 0f3f 573f c07c 1140 22a3 77bf d16e 46bf
000000e0: 4691 99be e590 683f 952b 47bf c171 953d
000000f0: 8a5f 8d3d 20f4 af3f a520 e7be df79 bcbf
00000100: d852 d73c 6c11 52bf 8dc3 87bf a473 8fbf
00000110: a74b 9cbf 9337 873e 191c 8cbe f4c7 0fbf
00000120: 3a01 8c3e 1685 b7be c7cc f9bd 906d c63e
00000130: 0250 1c3e e0c1 573e ef3d cb3d c2ac 1b3e
00000140: 6379 663e f866 883e 5b4c 62be 3923 21be
00000150: 4fee 60be af42 43bd bf6c 85bd 9c55 253e
00000160: 5ea6 093e 66ed 35bd ea9f 99be f378 683d
00000170: 05b7 2dbc 519b a23d fb88 003d dd5d 513e
00000180: 0780 473d 91fd b7bc c6a4 bd3c 6b26 f8bd
00000190: 6e91 6ebe ca55 db3e 5627 083f d7e2 f63e
000001a0: c354 633e 95bb 9f3f 8fc8 bc3f 7b16 ca3f
000001b0: 9f4e b83f beae 5040 8729 5040 b7c1 5440
000001c0: df86 4940 bc1a 5c3d 6ad2 ee3d 407f 863b
000001d0: 006d 8cba 40b5 3940 bf02 9840 80e5 693f
000001e0: 3544 35bf d3f3 09c0 ade8 2ebe 4f6e 843f
000001f0: 0968 923f 91a3 ab3e 9017 9d3e b726 43bf
00000200: dd67 1540 c6ba a33d 9d0e d63f f582 f63f
00000210: 5367 c83f 3915 b83f baf2 133f a5c0 7a3e
00000220: 3a1f e43e c083 c03e 7a24 0f3f de55 283f
00000230: 99fb 313f e5c3 333f 0f2d c8bd 1a0e 0fbf
00000240: 73ff 9fbe 419e 03bf 64b9 e83e 2f5b 7d3e
00000250: d5e8 e23e 74bf db3e f216 653f b67a 7d3f
00000260: 0505 653f 4c71 823f 72d9 ab3f 32f4 b53f
00000270: 1b00 863f 73d0 863f 1eec 433f 3d41 073f
00000280: 4e41 3f3f 5481 1b3f d057 a13d 6817 a93e
00000290: 3e6f 0fbd 9285 a73e 6c42 afbc f6a0 37be
000002a0: 1abd 59be 4bcd 99be 3c13 133f fb66 c13e
000002b0: 6d3b 0b3f ff24 b63e 9d5c 963e a27d 183f
000002c0: 224c 043f f272 f93e de3a ba3d 391b 403e
000002d0: f330 0ebe 6b55 253e 976e b840 2f6b 663f
000002e0: 563a 753f ce7c ca3f 1c44 9f3f 334c 423f
000002f0: 7a8b 3f3e 5b2d 703e 08ae c33d e377 56be
00000300: 08d8 13bf 79fe 8bbe 75e6 1abe b451 203f
00000310: 029e 653f ab6c a33f 46af db3f 2dd9 bc3d
00000320: 06f7 e73e 5f2c 923d 6701 b03e d8ce a23f
00000330: 39e2 c43f 4f58 b33f cab4 a53f b1d6 4e3f
00000340: 429f ff3e 41b3 953e 94fa 0e3c 40bf 00bf
00000350: f036 2cbf 5bab 00bf 9a50 23bf f72d 5fbf
00000360: ec2d 91bf dd96 93bf 0f1e 98bf 435d 9dbe
00000370: 769f 84be cb06 e1be f29c 88bd 0a99 183f
00000380: bffc 183f ea05 613f c8c0 853f 1f46 57bf
00000390: c15f 3abf 5e79 55bf a87d 1abf 4831 cc3f
000003a0: b7bd c03f d175 9f3f acbb b63f 374e 103e
000003b0: 9309 24be 8414 ca3d 1241 a9bd 9527 813f
000003c0: d85d 703f 9385 543f f183 6b3f a007 48be
000003d0: 7c52 07be 5186 263e 5c02 8cbd 9697 1440
000003e0: 8825 93be fcac 82bf 2ca6 8cbe 7607 93bf
000003f0: 9632 433c db6a cabf a8b6 4340 0f8f cb3f

lstm.weight_hh_l0 f4 [100, 25]
0.08579554 0.01974997 -0.024449617 0.051738992 -0.15114817 -0.06680226 0.13276984 0.16264443
0.17085542 0.18335424 0.05473517 0.028691769 -0.026786596 -0.105287604 -0.09414828 0.049846813
0.028710485 -0.09066277 0.18706538 -0.17248371 -0.0101983845 -0.10813828 -0.19350587 0.18279545
-0.033838227 0.14928152 -0.12552306 -0.14828554 0.059260473 -0.12857231 0.17735635 -0.055490464
0.011211842 -0.17492862 0.03290899 -0.06721294 0.0715356 0.01937893 -0.17985931 0.17171331
0.1132357 -0.009844705 0.13895546 -0.006436497 -0.0247356 0.08820669 0.10615413 -0.13375416
0.14101641 0.00794518 0.021362692 0.18578942 0.18905859 -0.022331327 -0.006656006 -0.18117979
0.14692758 -0.04557833 0.15409614 -0.040174752 -0.11814787 0.1786695 0.17421748 -0.020890743
0.10655896 -0.13495523 0.10479428 -0.17560767 0.15531053 0.17914565 -0.16668765 -0.10956903
-0.16171813 0.18421482 0.082447395 0.15843655 0.017691463 -0.024165466 -0.14663568 -0.057485253
0.19371583 -0.0825505 0.052329555 -0.12976125 0.0050361454 0.02975306 0.17735077 -0.13561484
0.108832344 0.078149155 0.04721935 0.13762923 0.1358691 -0.014776558 0.109129325 -0.029325888
0.19043176 -0.15420568 -0.034777 0.13285233 0.1884885 -0.1639233 -0.10286386 0.020605728
0.17452969 -0.12017079 -0.031027585 0.0306606 -0.1824353 -0.1280917 0.14960195 0.1816396
0.11660813 0.15983887 -0.0039348155 -0.060072467 -0.17963465 0.18352385 -0.118932106 0.15694083
-0.17583437 -0.016641095 -0.06360856 0.06228985 -0.054613426 0.06672193 0.05886431 0.10503389
0.19045581 -0.06486893 -0.03082852 -0.043725044 0.09261073 -0.02816537 0.1429102 -0.065090746
0.021739408 -0.017142102 -0.031552196 -0.06553021 -0.019131467 -0.012046933 -0.058137506 -0.04909253
0.1769575 -0.15490596 0.013956755 0.013594434 -0.037123173 0.118377015 -0.06727627 0.09491654
0.17253275 -0.009795308 0.1041625 -0.1555691 0.026040584 0.025677368 -0.18633631 0.12302111
-0.080618046 0.051054582 -0.014415458 0.13400476 -0.09419256 0.13913773 0.051091 0.16860537
-0.11718919 0.14131583 -0.07588134 0.09989028 -0.05981961 0.12162985 -0.124772124 0.09115897
-0.05224316 -0.1891783 -0.19340204 -0.17428851 0.10290672 0.051794842 -0.025295451 0.011183187
-0.09096489 -0.01813583 0.12981223 0.1364368 0.08704467 -0.11249073 0.16103967 -0.022297218
0.16717823 -0.14702293 0.10642393 -0.13470608 -0.057165474 -0.11650629 0.07524352 0.05874957
0.17863147 0.0025916994 -0.049961045 -0.014381334 0.14610042 0.19574489 -0.039540887 0.07012139
0.13015123 0.037673905 -0.12505338 -0.13533707 -0.08189416 -0.038734585 0.13084598 -0.1356247
0.1674885 -0.14831014 -0.060665682 -0.012572244 0.19389726 -0.079627946 0.120971695 -0.09530568
-0.10095163 0.14216428 0.13074042 0.08834599 -0.074748725 -0.038541958 -0.17666347 0.040562674
0.0957302 -0.016044572 0.038625002 -0.058673218 0.18094386 0.119785205 -0.1558454 -0.09987374
-0.14286979 -0.08012817 -0.05140212 0.19207595 0.0038570613 0.060784355 0.022207662 -0.19312339
0.19983672 -0.12280076 0.020179838 0.06866278 0.19272782 0.1303431 -0.11396666 -0.0926554
00000000: 92b5 af3d b0ca a13c 904a c8bc 44ec 533d
00000010: 96c6 1abe a0cf 88bd d1f4 073e 438c 263e
00000020: b9f4 2e3e 37c1 3b3e fc31 603d 000b eb3c
00000030: 906f dbbc 07a1 d7bd d0d0 c0bd 2c2c 4c3d
00000040: 4032 eb3c 67ad b9bd 118e 3f3e 929f 30be
00000050: 2017 27bc 9a77 ddbd 6726 46be bb2e 3b3e
00000060: f499 0abd 41dd 183e 1e89 00be 2ad8 17be
00000070: 1cbb 723d 76a8 03be e79c 353e f849 63bd
00000080: e0b1 373c 7d20 33be 94cb 063d f0a6 89bd
00000090: 4281 923d 90c0 9e3c 0a2d 38be 9dd5 2f3e
000000a0: 1ee8 e73d b04b 21bc 574a 0e3e 40e9 d2bb
000000b0: 50a2 cabc b6a5 b43d 5667 d93d daf6 08be
000000c0: 9b66 103e 802c 023c d000 af3c 953f 3e3e
000000d0: 9398 413e 30f0 b6bc a01a dabb 3287 39be
000000e0: 2f74 163e 58b0 3abd 61cb 1d3e 488e 24bd
000000f0: 83f7 f1bd 23f5 363e 1166 323e 1023 abbc
00000100: 963b da3d b431 0abe 629e d63d 7fd2 33be
00000110: b909 1f3e f571 373e 2bb0 2abe ba65 e0bd
00000120: 7099 25be cfa2 3c3e 2eda a83d 313d 223e
00000130: b0ed 903c a8f6 c5bc aa27 16be a875 6bbd
00000140: 715d 463e 3d10 a9bd 8457 563d 22e0 04be
00000150: 4006 a53b b0bc f33c 719b 353e 9ede 0abe
00000160: 7ee3 de3d aa0c a03d 1469 413d adee 0c3e
00000170: 4521 0b3e 6019 72bc 327f df3d d83c f0bc
00000180: 8b00 433e 18e8 1dbe 5472 0ebd 710a 083e
00000190: 2103 413e 82db 27be 4aaa d2bd 58cd a83c
000001a0: e9b7 323e 1a1c f6bd 902d febc f02b fb3c
000001b0: 52d0 3abe 782a 03be 4131 193e bbff 393e
000001c0: 3ed0 ee3d cdac 233e a0ef 80bb 8c0e 76bd
000001d0: 25f2 37be aded 3b3e ad92 f3bd 19b5 203e
000001e0: ed0d 34be e852 88bc 3445 82bd a423 7f3d
000001f0: 54b2 5fbd 82a5 883d b41b 713d 021c d73d
00000200: d906 433e 00da 84bd 188c fcbc 0819 33bd
00000210: b2aa bd3d 10bb e6bc 0d57 123e 4c4e 85bd
00000220: d816 b23c 986d 8cbc e03c 01bd b434 86bd
00000230: 98b9 9cbc 8060 45bc 9821 6ebd 4015 49bd
00000240: 5934 353e ab9f 1ebe e0aa 643c 30bb 5e3c
00000250: 780e 18bd a66f f23d 24c8 89bd 9a63 c23d
00000260: 6dac 303e 807c 20bc 2653 d53d 824d 1fbe
00000270: 1053 d53c 5859 d23c f2ce 3ebe 7ef2 fb3d
00000280: 131b a5bd 9c1e 513d d02e 6cbc 8b38 093e
00000290: 07e8 c0bd 1f7a 0e3e cc44 513d e3a6 2c3e
000002a0: e300 f0bd 19b5 103e ad67 9bbd 4693 cc3d
000002b0: 6805 75bd 1219 f93d 8788 ffbd 8eb1 ba3d
000002c0: ecfc 55bd f5b7 41be 2f0b 46be b078 32be
000002d0: c2c0 d23d d426 543d 6838 cfbc b039 373c
000002e0: cd4b babd 9891 94bc 7fed 043e 17b6 0b3e
000002f0: 7a44 b23d 8a61 e6bd 95e7 243e a8a8 b6bc
00000300: c530 2b3e 2e8d 16be caf4 d93d 64f0 09be
00000310: 5826 6abd da9a eebd 4619 9a3d 64a3 703d
00000320: 2beb 363e 80d9 293b f4a3 4cbd b09f 6bbc
00000330: 599b 153e 5971 483e a0f5 21bd ce9b 8f3d
00000340: 5d46 053e f44f 1a3d fe0d 00be cd95 0abe
00000350: 20b8 a7bd 28a8 1ebd 7dfc 053e 34e1 0abe
00000360: 1b82 2b3e 9dde 17be 947c 78bd d0fb 4dbc
00000370: 018d 463e fa13 a3bd 02c0 f73d a02f c3bd
00000380: babf cebd 8393 113e d1e0 053e beee b43d
00000390: dc15 99bd 2cde 1dbd 45e7 34be 0c25 263d
000003a0: 320e c43d e86f 83bc 4035 1e3d 5453 70bd
000003b0: 5949 393e f251 f53d f095 1fbe 9a8a ccbd
000003c0: 754c 12be 3d1a a4bd 088b 52bd 8faf 443e
000003d0: c0c6 7c3b 04f9 783d d8ec b53c 23c2 45be
000003e0: ffa1 4c3e f77e fbbd 3050 a53c 129f 8c3d
000003f0: 715a 453e a978 053e 5a67 e9bd 1dc2 bdbd

lstm.bias_ih_l0 f4 [100]
-1.6353664 0.3998013 5.5091424 0.632792 -0.08407173 0.38826466 -1.1117797 1.5559739
-0.74668854 0.2123401 2.0843756 -1.9961271 -0.34978643 1.6912153 2.9922905 0.7144265
-0.67630213 0.071853526 1.2225229 1.8476485 0.99129796 1.6692061 0.69025093 0.6613088
2.3097532 0.13655366 -0.15997827 -0.14034443 -0.048860863 0.194497 -0.17134021 0.07642795
0.020567626 -0.07230243 0.118048206 -0.061916858 -0.07118066 0.023791194 -0.023121148 0.076739326
-0.041143745 0.033745885 0.099524245 0.08805235 -0.027119964 -0.13612747 0.07751463 0.12760411
-0.0052687675 -0.18284307 -0.52795184 -0.7685877 -0.8356613 0.6615707 -1.4733856 -1.2512695
-0.08922467 0.46199718 1.2207029 0.45701122 0.252847 -0.90793097 0.8526883 -1.5372468
0.6208295 -0.43391386 -0.94841707 1.9545941 1.5720227 -0.5676142 0.39746773 1.4909599
-1.0063316 1.2504722 -0.5723752 -1.4308132 1.5648533 4.4651766 0.25817502 0.3467298
1.5478415 0.17271037 1.7721575 -1.2825387 0.34095722 2.1627262 -0.40108618 0.012794024
1.2301238 2.525886 0.203581 -0.7267029 1.0537996 1.481781 0.40547994 -0.3480403
0.82301676 0.76472217 0.67381316 0.36788392
00000000: b053 d1bf c2b2 cc3e e54a b040 a8fe 213f
00000010: cd2d acbd a0ca c63e cc4e 8ebf 272a c73f
00000020: fb26 3fbf af6f 593e 6966 0540 1881 ffbf
00000030: 3517 b3be be79 d83f b081 3f40 a8e4 363f
00000040: 2322 2dbf f127 933d a17b 9c3f bf7f ec3f
00000050: b4c5 7d3f 8ca8 d53f 49b4 303f 894b 293f
00000060: ffd2 1340 b9d4 0b3e 58d1 23be 73b6 0fbe
00000070: 5422 48bd 392a 473e cf73 2fbe 4286 9c3d
00000080: 707d a83c 4c13 94bd 42c3 f13d 889c 7dbd
00000090: 2ac7 91bd c0e5 c23c 9068 bdbc 8229 9d3d
000000a0: 5886 28bd 2039 0a3d 5ed3 cb3d ca54 b43d
000000b0: b02a debc 0065 0bbe febf 9e3d a7aa 023e
000000c0: a0a5 acbb 373b 3bbe da27 07bf 2ac2 44bf
000000d0: e6ed 55bf b35c 293f e697 bcbf 9929 a0bf
000000e0: 6cbb b6bd e58a ec3e fe3f 9c3f 60fd e93e
000000f0: 2975 813e 2a6e 68bf c849 5a3f 81c4 c4bf
00000100: afee 1e3f f529 debe 76cb 72bf 2430 fa3f
00000110: 0a38 c93f 2a4f 11bf e480 cb3e c6d7 be3f
00000120: 79cf 80bf 790f a03f 2e87 12bf e324 b7bf
00000130: 1d4d c83f bae2 8e40 842f 843e 9186 b13e
00000140: ac1f c63f fdda 303e 0fd6 e23f 3a2a a4bf
00000150: f291 ae3e 1b6a 0a40 2b5b cdbe 079e 513c
00000160: b274 9d3f 1ea8 2140 8a77 503e 3409 3abf
00000170: e8e2 863f 00ab bd3f 119b cf3e 5732 b2be
00000180: 3ab1 523f d5c4 433f 057f 2c3f 485b bc3e

lstm.bias_hh_l0 f4 [100]
-1.5284059 0.051213004 5.2099032 0.49702182 -0.1912861 0.3272133 -1.1579707 1.4650217
-0.99842864 0.2875096 2.130267 -1.8592238 -0.24688627 1.9368503 2.945448 0.5999433
-0.52396387 -0.01385651 1.3112577 1.7830797 0.87494695 1.6864421 0.99043316 0.7764285
2.2258465 0.10502313 0.03392391 0.005016282 -0.08710589 -0.09861586 -0.02635035 0.1463056
0.123759255 -0.07084668 0.10655166 0.08683328 -0.030547574 -0.11057045 -0.031687766 -0.055156156
-0.16017532 -0.084411025 -0.026296332 -0.0024374276 -0.056473643 -0.19562207 -0.057310313 0.034023285
-0.124247365 0.097707585 -0.5408102 -0.90204453 -1.008325 0.426712 -1.423693 -1.4032828
-0.091011554 0.572663 1.4281669 0.39958495 -0.056603562 -1.093227 0.8852278 -1.555266
0.5684717 -0.47244856 -0.88925767 1.8629732 1.5323107 -0.24171126 0.4231223 1.7210526
-0.9505794 1.2230977 -0.6088617 -1.1143361 1.3333105 4.328296 0.2572366 0.19522549
1.6679692 0.088248156 2.0665095 -1.3815663 0.34992874 2.3138106 -0.16967797 0.17271763
1.5354831 2.6023126 0.10274156 -1.0279702 1.1969874 1.397768 0.56774926 -0.6117363
1.0026475 0.79552263 0.54858226 0.10218498
00000000: cea2 c3bf bac4 513d 87b7 a640 a579 fe3e
00000010: 81e0 43be 8088 a73e 6238 94bf d585 bb3f
00000020: 0599 7fbf 7534 933e 4b56 0840 0cfb edbf
00000030: c1cf 7cbe b6ea f73f 3882 3c40 e295 193f
00000040: 7f22 06bf 6a06 63bc 4bd7 a73f f53b e43f
00000050: 86fc 5f3f 56dd d73f 078d 7d3f 05c4 463f
00000060: 4574 0e40 5e16 d73d ccf3 0a3d a05f a43b
00000070: 9364 b2bd 1df7 c9bd b0dc d7bc 23d1 153e
00000080: 7e75 fd3d 1018 91bd c237 da3d a6d5 b13d
00000090: e83e fabc c372 e2bd 08cb 01bd 6ceb 61bd
000000a0: 0005 24be b0df acbd 686b d7bc 40bd 1fbb
000000b0: e850 67bd 2751 48be 38be 6abd 005c 0b3d
000000c0: 6775 febd ea1a c83d 8a72 0abf 64ec 66bf
000000d0: cb10 81bf ff79 da3e 923b b6bf c59e b3bf
000000e0: 4464 babd 0b9a 123f 2cce b63f 6696 cc3e
000000f0: 23d9 67bd ddee 8bbf 4a9e 623f f512 c7bf
00000100: 5d87 113f c7e4 f1be 64a6 63bf e875 ee3f
00000110: c222 c43f 2883 77be 7ca3 d83e 744b dc3f
00000120: 2c59 73bf 778e 9c3f 5cde 1bbf 91a2 8ebf
00000130: eba9 aa3f 6781 8a40 84b4 833e 31e9 473e
00000140: 0480 d53f 73bb b43d b141 0440 2ad7 b0bf
00000150: dc29 b33e 7915 1440 10c0 2dbe e4dc 303e
00000160: b68a c43f 4a8c 2640 2b6a d23d 8794 83bf
00000170: e236 993f 10ea b23f 0458 113f c09a 1cbf
00000180: c156 803f 5fa7 4b3f e36f 0c3f 5c46 d13d

lstm.weight_ih_l1 f4 [100, 25]
-3.4759862 -0.5221767 -4.91574 -0.831911 -11.929048 0.38268992 5.279205 -0.14791495
1.4705123 -5.8239465 2.3739278 1.2085398 1.8380632 -5.431242 3.964378 0.6680758
-2.0658834 56.32868 4.3538604 -6.129527 -0.94646996 1.4900001 1.19438 2.647195
4.945103 -3.2595296 1.6625044 -2.2237127 -1.379902 -9.01016 1.1231023 4.53789
2.4445279 -0.654984 -2.1312017 2.6143513 0.5389898 -0.49087197 -4.161922 2.580835
2.464286 -0.5004281 36.979805 1.6625015 -5.7887754 -1.5588287 1.031254 0.043673027
2.0962777 -0.81313396 1.1182902 -2.7586222 -2.1565678 -0.6128706 -0.26176026 -2.517463
0.35971394 0.43863755 0.24531075 -1.7899915 1.971959 6.5852656 0.03351017 -2.4916914
0.7188487 -4.6368294 -0.16085897 1.1713784 -1.958207 -0.5333482 -4.704008 -1.575145
2.4834118 -1.1602395 2.3664145 2.491476 1.927567 1.5185332 -0.3398431 -0.0037780318
-0.91108674 0.1581511 -0.08323097 1.2067665 0.032449674 0.99013925 -1.1817849 0.25412863
0.16784194 0.37808785 -1.2395409 1.495306 -0.35812286 0.8159725 -1.1004279 1.1906246
-0.00992295 0.46582142 -0.22435656 -1.3542832 -2.935986 -1.4585389 -5.2694383 -2.504664
-11.515885 -2.027915 -1.3085346 -0.094193675 4.588493 -5.811421 -0.21475106 0.08208028
1.7737346 -1.1607987 -0.14143863 -0.0416125 -2.6999543 37.58799 1.2391485 -3.3220208
-2.1594887 1.4511334 -0.4648938 5.4429326 1.4225873 -1.2495025 3.3924065 -1.7788258
-0.1194258 -6.3774104 1.30915 11.345656 -1.1732538 0.5181317 -3.8439314 0.6704089
3.2822425 0.18774194 -2.4420254 4.8713193 1.6454694 -2.0033 29.856348 8.62315
-5.895732 -0.6064821 -0.578062 2.043799 2.0744252 -1.5353413 0.42556292 -3.446446
2.1883712 0.24784257 0.81642044 1.8270543 0.91419685 1.2685999 -1.2578106 2.3804646
3.007361 3.3868167 -1.820162 -1.3409427 2.0770814 1.424893 -0.14933728 -0.7245704
0.26434886 1.1113386 -1.283244 2.207693 5.834099 -3.6385298 4.351255 1.4185557
0.6739422 -1.4468375 0.34000978 -0.796425 -0.82282203 0.9389398 -0.40114015 0.7679834
2.7105362 -0.12415153 -0.29515544 -2.9540944 -0.9047836 0.8050685 0.83181286 -0.16531648
0.04013634 -0.79903674 0.35578912 -1.4811429 0.74306506 -1.1926321 1.2480861 1.2181655
1.4029535 1.3731707 0.76069355 -0.79738516 0.66831905 0.7645554 -1.1429796 -0.88816065
-0.5823931 0.059335005 6.0806 2.7725794 -1.7641478 -0.17400637 1.6923783 5.3840785
2.7285366 -0.11890863 -0.9575915 -1.4105529 -9.991023 0.69185084 2.3283832 -0.87759113
3.3162878 -0.6296793 1.2072586 0.68244153 -1.663344 1.8184001 -5.235618 -0.830944
0.89109874 4.899607 -2.0643942 0.67406327 0.55163157 -1.2633387 -0.62917346 1.5992235
-0.6569185 1.7198315 0.70124185 0.61478996 -0.08372801 -0.12939145 0.82980376 0.47786948
0.925975 0.4694928 0.83073694 -0.11034388 0.67352915 -0.405834 -0.22787681 0.09279554
00000000: 8f76 5ec0 5fad 05bf be4d 9dc0 1ff8 54bf
00000010: 61dd 3ec1 efef c33e 3fef a840 0477 17be
00000020: bf39 bc3f c55d bac0 6fee 1740 6fb1 9a3f
00000030: a845 eb3f bccc adc0 5fb8 7d40 0407 2b3f
00000040: 6f37 04c0 9150 6142 d352 8b40 1625 c4c0
00000050: db4b 72bf 53b8 be3f 72e1 983f a56b 2940
00000060: 493e 9e40 229c 50c0 f2cc d43f 4f51 0ec0
00000070: a1a0 b0bf 9e29 10c1 d1c1 8f3f 6536 9140
00000080: 2573 1c40 08ad 27bf 9c65 08c0 8851 2740
00000090: 3cfb 093f 9253 fbbe 772e 85c0 672c 2540
000000a0: ddb6 1d40 0e1c 00bf 52eb 1342 d9cc d43f
000000b0: a63d b9c0 b387 c7bf 2200 843f 7de2 323d
000000c0: 6a29 0640 8c29 50bf 2224 8f3f 448d 30c0
000000d0: 3505 0ac0 16e5 1cbf 7105 86be 1d1e 21c0
000000e0: 6d2c b83e 1a95 e03e be32 7b3e 711e e5bf
000000f0: 2769 fc3f 7fba d240 f641 093d df77 1fc0
00000100: 7806 383f e860 94c0 37b8 24be baef 953f
00000110: 87a6 fabf 8289 08bf 3c87 96c0 5a9e c9bf
00000120: 38f0 1e40 ba82 94bf 5673 1740 5874 1f40
00000130: 84ba f63f 4c5f c23f eaff adbe db98 77bb
00000140: fb3c 69bf 5df2 213e 0075 aabd 5377 9a3f
00000150: f3e9 043d c479 7d3f ba44 97bf 261d 823e
00000160: c2de 2b3e bb94 c13e 47a9 9ebf 3066 bf3f
00000170: e15b b7be 93e3 503f d2da 8cbf 6366 983f
00000180: de93 22bc 2580 ee3e babd 65be 2759 adbf
00000190: 32e7 3bc0 67b1 babf 3d9f a8c0 6a4c 20c0
000001a0: 1141 38c1 5cc9 01c0 107e a7bf 9de8 c0bd
000001b0: efd4 9240 29f7 b9c0 b4e7 5bbe b519 a83d
000001c0: bc09 e33f 0d95 94bf 4ad5 10be de71 2abd
000001d0: 0dcc 2cc0 1a5a 1642 6b9c 9e3f fd9b 54c0
000001e0: 1035 0ac0 bdbe b93f 8f06 eebe 812c ae40
000001f0: 5717 b63f b3ef 9fbf 301d 5940 90b0 e3bf
00000200: 8495 f4bd bf13 ccc0 3a92 a73f cf87 3541
00000210: 2e2d 96bf 47a4 043f f902 76c0 eb9f 2b3f
00000220: 4310 5240 6c3f 403e 254a 1cc0 d9e1 9b40
00000230: be9e d23f 1136 00c0 cdd9 ee41 6cf8 0941
00000240: d6a9 bcc0 6942 1bbf dffb 13bf 9acd 0240
00000250: 62c3 0440 1086 c4bf 62e3 d93e 9292 5cc0
00000260: 460e 0c40 71ca 7d3e ee00 513f eadc e93f
00000270: ce08 6a3f 7b61 a23f f0ff a0bf 8859 1840
00000280: 9a78 4040 9bc1 5840 12fb e8bf 03a4 abbf
00000290: e7ee 0440 e562 b63f dfeb 18be 727d 39bf
000002a0: bc58 873e 5840 8e3f 5741 a4bf d84a 0d40
000002b0: f0b0 ba40 acdd 68c0 7b3d 8b40 3c93 b53f
000002c0: 7a87 2c3f f931 b9bf c315 ae3e 82e2 4bbf
000002d0: 77a4 52bf 5c5e 703f 3e62 cdbe 8f9a 443f
000002e0: 6d79 2d40 2843 febd 9d1e 97be e20f 3dc0
000002f0: e69f 67bf f818 4e3f b0f1 543f b948 29be
00000300: 0166 243d ac8d 4cbf fe29 b63e 1796 bdbf
00000310: 8339 3e3f 2ba8 98bf 49c1 9f3f d9ec 9b3f
00000320: fb93 b33f 0fc4 af3f d0bc 423f 6f21 4cbf
00000330: f516 2b3f e7b9 433f 284d 92bf 7f5e 63bf
00000340: b717 15bf 4309 733d 4694 c240 f171 3140
00000350: 98cf e1bf ba2e 32be da9f d83f 5f4a ac40
00000360: 58a0 2e40 5e86 f3bd b724 75bf ff8c b4bf
00000370: 3bdb 1fc1 231d 313f 3b04 1540 d0a9 60bf
00000380: 0f3e 5440 aa32 21bf 7387 9a3f 7db4 2e3f
00000390: 75e8 d4bf 56c1 e83f 2f8a a7c0 bfb8 54bf
000003a0: 0c1f 643f 95c9 9c40 091f 04c0 698f 2c3f
000003b0: ba37 0d3f 15b5 a1bf 8311 21bf 5bb3 cc3f
000003c0: d02b 28bf 7023 dc3f 9684 333f e062 1d3f
000003d0: 9779 abbd 317f 04be 056e 543f 4fab f43e
000003e0: b30c 6d3f 5c61 f03e 2dab 543f f9fb e1bd
000003f0: 686c 2c3f 79c9 cfbe 8a58 69be 970b be3d

lstm.weight_hh_l1 f4 [100, 25]
-0.0076226443 -0.12556326 0.08300789 -0.08814669 -0.1517617 -0.10815678 0.021377608 0.009528667
-0.10626846 0.02031374 0.005819991 -0.1671699 -0.050498754 -0.12241659 -0.117235996 -0.13144943
0.19469918 0.01106143 -0.15711519 0.06361757 0.018987373 -0.03222093 0.10206778 0.18175788
-0.03773877 0.036533922 0.020137936 0.18230264 -0.061748832 0.09792592 0.088999465 -0.1391942
0.10323192 -0.06977904 0.1466176 -0.1900103 -0.06613307 0.0066206753 -0.0897305 -0.038850456
-0.13218325 -0.17496014 -0.113480546 0.17862563 0.094978645 -0.0917316 0.077853814 0.1412728
0.1081744 0.004755378 0.11426078 -0.0838959 -0.114702225 -0.010262936 -0.08856952 -0.18149935
0.03536415 0.18597247 -0.15075514 -0.1994118 0.039864227 -0.17010204 -0.0908063 0.054666296
-0.016274124 0.17751463 0.18409915 0.061280206 0.1180429 -0.0058873 0.061400816 -0.056899622
-0.14369138 0.0870613 -0.14238274 -0.1404222 0.013444737 0.1430562 -0.18576811 -0.03106162
-0.1649833 0.14822085 0.16622637 -0.01492314 -0.07729416 -0.03347674 0.02356577 -0.096832536
0.18081228 0.038399905 0.15948357 -0.047932222 -0.1117666 -0.14581983 -0.025289774 0.012492105
-0.17948003 0.031028464 0.05778657 -0.0063221753 -0.070192546 -0.056334898 0.09542008 0.012652844
0.15467353 -0.1258467 -0.18690069 -0.05356404 -0.11944478 0.029210255 -0.17706302 -0.13684231
0.16247986 -0.09740491 -0.025476784 -0.10866397 -0.09400649 -0.16594934 0.16492058 0.1761279
0.051709548 0.15637629 -0.15908706 -0.19523649 -0.08985706 0.06855346 -0.1304328 -0.039535955
-0.055428177 0.15635873 0.07652329 -0.14787164 -0.10568142 0.04325041 0.1561761 0.19996347
-0.043723866 0.116430566 -0.13886161 -0.17895754 -0.1870731 -0.12057567 -0.006746441 -0.15820985
0.15639593 -0.16500707 0.02579014 -0.13808641 -0.18186167 0.0732391 0.09383936 -0.023512006
-0.050582334 0.095263585 -0.12446477 0.03354411 0.08133419 -0.09861419 0.0085000545 -0.19706808
0.041104823 -0.1628218 0.08817251 -0.10428741 -0.069024086 0.044002563 0.07888986 0.14788081
0.11628036 -0.16981815 -0.029592872 -0.03396833 -0.110669784 0.113647595 -0.060054496 0.06437345
0.06416546 -0.07986474 -0.049542427 -0.17473283 -0.15434031 0.034977645 0.16007568 0.062202916
0.18951406 0.003146723 -0.005299166 -0.046582296 -0.1785609 -0.1793332 0.01680474 0.1361034
0.12169351 -0.05595918 0.04764466 0.08619927 -0.014211863 0.14347593 -0.15387928 0.116982624
-0.0036067665 0.19109021 -0.017298937 -0.06270537 -0.08378229 0.11795081 0.043089658 0.13152282
0.07930888 -0.099380426 -0.020985484 0.15948756 -0.07590618 0.11716165 -0.12454703 -0.056750685
0.008460686 -0.03097573 0.15064637 -0.029616594 -0.17630775 0.053078458 0.018431157 -0.077507496
-0.10214777 -0.052799776 -0.06535244 -0.019194916 -0.12642068 -0.060066983 -0.025095701 -0.09576912
0.13258521 0.08988537 0.1744646 0.072359875 0.09616782 0.09443571 0.05359669 0.025142819
-0.06361064 0.08261882 0.011285469 0.040070146 -0.025653869 0.16579227 -0.091776684 -0.09742172
0.04558499 -0.09106026 -0.045814663 -0.038451955 -0.079992704 0.110253766 -0.16306135 0.011155248
00000000: 60c7 f9bb a893 00be 0a00 aa3d 4086 b4bd
00000010: 6b67 1bbe 4d81 ddbd 1820 af3c 201e 1c3c
00000020: 47a3 d9bd 0069 a63c a0b5 be3b 962e 2bbe
00000030: c8d7 4ebd 8db5 fabd 6d19 f0bd ae9a 06be
00000040: 395f 473e 003b 353c cee2 20be ee49 823d
00000050: 688b 9b3c 18fa 03bd ea08 d13d bd1e 3a3e
00000060: f893 1abd 98a4 153d 50f8 a43c 8bad 3a3e
00000070: 58ec 7cbd 628d c83d 5a45 b63d ed88 0ebe
00000080: 426b d33d 50e8 8ebd ed22 163e 0f92 42be
00000090: c670 87bd 40f2 d83b a0c4 b7bd a821 1fbd
000000a0: 0c5b 07be c028 33be 7d68 e8bd a3e9 363e
000000b0: 2a84 c23d c7dd bbbd d271 9f3d d1a9 103e
000000c0: 8a8a dd3d 00d3 9b3b 8e01 ea3d 9dd1 abbd
000000d0: 00e9 eabd e025 28bc f063 b5bd f7da 39be
000000e0: 00da 103d 916f 3e3e 8e5f 1abe 9b32 4cbe
000000f0: ac48 233d 3b2f 2ebe a7f8 b9bd c4e9 5f3d
00000100: 5051 85bc 65c6 353e 7d84 3c3e f400 7b3d
00000110: 7ac0 f13d 40ea c0bb 6c7f 7b3d 940f 69bd
00000120: d523 13be 324d b23d c8cc 11be d6ca 0fbe
00000130: 5047 5c3c 537d 123e ff39 3ebe f074 febc
00000140: 62f1 28be 35c7 173e 3f37 2a3e 3080 74bc
00000150: 674c 9ebd e81e 09bd 000d c13c 2350 c6bd
00000160: db26 393e 3849 1d3d a94f 233e 9454 44bd
00000170: e3e5 e4bd cb51 15be 802c cfbc b0ab 4c3c
00000180: 9dc9 37be 682f fe3c 9cb1 6c3d 402a cfbb
00000190: 1cc1 8fbd 6cbf 66bd 9a6b c33d e04d 4f3c
000001a0: bd62 1e3e f5dd 00be e562 3fbe f865 5bbd
000001b0: 779f f4bd 584a ef3c 0250 35be 6420 0cbe
000001c0: 1f61 263e 3a7c c7bd b0b4 d0bc 378b debd
000001d0: 7a86 c0bd a0ee 29be f1e0 283e df5a 343e
000001e0: 64cd 533d 1b21 203e b8e7 22be 13ec 47be
000001f0: fa06 b8bd c265 8c3d 2d90 05be 74f0 21bd
00000200: a808 63bd 811c 203e 3eb8 9c3d aa6b 17be
00000210: 806f d8bd 5827 313d a1ec 1f3e 39c3 4c3e
00000220: cc17 33bd 2673 ee3d bd31 0ebe a540 37be
00000230: 1790 3fbe 60f0 f6bd 4011 ddbb c301 22be
00000240: 4126 203e 9df7 28be d845 d33c 8666 0dbe
00000250: f239 3abe 62fe 953d da2e c03d 409c c0bc
00000260: 6c2f 4fbd 8e19 c33d 63e7 febd 8c65 093d
00000270: 8a92 a63d 3df6 c9bd d043 0b3c 37cc 49be
00000280: 885d 283d c2ba 26be ca93 b43d a394 d5bd
00000290: 805c 8dbd 083c 343d 0291 a13d 116e 173e
000002a0: 6624 ee3d cfe4 2dbe c06c f2bc 6022 0bbd
000002b0: d7a6 e2bd 12c0 e83d b4fb 75bd 3ad6 833d
000002c0: 2e69 833d 2090 a3bd 00ed 4abd 2aed 32be
000002d0: 630b 1ebe b844 0f3d e1ea 233e 7cc8 7e3d
000002e0: f90f 423e 4039 4e3b a0a4 adbb 14cd 3ebd
000002f0: abd8 36be 1fa3 37be 18aa 893c b15e 0b3e
00000300: 723a f93d 7435 65bd 0c27 433d 3e89 b03d
00000310: e0d8 68bc 5beb 123e 8892 1dbe 9694 ef3d
00000320: 805f 6cbb 27ad 433e 80b6 8dbc ac6b 80bd
00000330: 0d96 abbd 3290 f13d c87e 303d ebad 063e
00000340: b26c a23d f787 cbbd c0e9 abbc b550 233e
00000350: b374 9bbd 72f2 ef3d 8312 ffbd 6873 68bd
00000360: b09e 0a3c d0c0 fdbc 0b43 1a3e 809e f2bc
00000370: 058a 34be cc68 593d f0fc 963c 40bc 9ebd
00000380: da32 d1bd 9444 58bd 80d7 85bd a83e 9dbc
00000390: 6c74 01be cc08 76bd 8095 cdbc 9a22 c4bd
000003a0: 6bc4 073e d215 b83d d9a6 323e 6a31 943d
000003b0: a2f3 c43d 8267 c13d 3488 5b3d 50f8 cd3c
000003c0: 4c46 82bd 0e34 a93d b0e6 383c 9820 243d
000003d0: 1028 d2bc 73c5 293e 6af5 bbbd 0a85 c7bd
000003e0: 54b7 3a3d cd7d babd 28a8 3bbd cc7f 1dbd
000003f0: 37d3 a3bd bacc e13d 8ef9 26be 80c4 363c

lstm.bias_ih_l1 f4 [100]
1.5558655 4.5578666 2.524862 1.4174924 1.1726404 1.8826445 0.1325457 1.1162802
0.86313355 1.4120357 0.023046257 0.2504582 0.7470185 0.42333725 1.4489862 2.258756
0.90756017 1.8995173 -0.14785656 1.2089399 1.7814786 1.3249248 1.2755609 1.0210522
1.6858338 0.065825716 -0.0191582 -0.19161598 -0.14216554 -0.1619668 0.1694145 0.04742813
0.035815388 0.042424887 0.033404753 -0.09485934 0.03204687 -0.15108435 0.07293774 0.16997601
0.0132584125 0.08239411 0.06438048 -0.11828893 -0.067518994 0.09425835 0.18940534 0.06126599
0.19946496 0.05763702 -0.10597093 -0.16425729 -0.4956072 -0.100487284 -0.6838264 0.6672144
0.051061235 1.3810812 -0.15269956 -0.1578671 -0.23541498 0.3451241 0.370316 0.61613554
0.2453112 0.02120416 0.09353304 1.1061139 -0.65163654 0.30512226 -0.60640395 0.40218505
-0.20525247 0.6121735 -0.56163675 0.013790468 1.3102688 0.9084188 1.39752 0.25567728
0.6946655 0.15470941 1.4729278 0.84057397 0.8042705 0.5697265 1.4351393 3.169032
0.48697892 0.81362444 0.7363347 1.5344917 2.377768 0.34453532 1.4986427 1.4130696
1.3967736 0.4948196 0.43831342 0.8735095
00000000: 9a26 c73f 0bda 9140 5797 2140 6470 b53f
00000010: 1519 963f 7ffa f03f 0fba 073e 45e2 8e3f
00000020: 52f6 5c3f 96bd b43f 81cb bc3c 0f3c 803e
00000030: 9b3c 3f3f a9bf d83e 6178 b93f 758f 1040
00000040: dd55 683f 6223 f33f b667 17be 8bbe 9a3f
00000050: 7e07 e43f 2397 a93f 9445 a33f d7b1 823f
00000060: 67c9 d73f a2cf 863d a8f1 9cbc fb36 44be
00000070: d893 11be a0da 25be ff7a 2d3e 0044 423d
00000080: 28b3 123d b8c5 2d3d 6cd3 083d 9d45 c2bd
00000090: 9443 033d dbb5 1abe 6260 953d 310e 2e3e
000000a0: d039 593c 3ebe a83d ead9 833d 7741 f2bd
000000b0: 6647 8abd 860a c13d 79f3 413e 0cf2 7a3d
000000c0: 8b40 4c3e cc14 6c3d 4907 d9bd 1033 28be
000000d0: 3ac0 fdbe 47cc cdbd 3f0f 2fbf 90ce 2a3f
000000e0: 9625 513d 45c7 b03f 465d 1cbe eaa7 21be
000000f0: a010 71be 1bb4 b03e 0f9a bd3e 0fbb 1d3f
00000100: dc32 7b3e 59b4 ad3c 408e bf3d 2495 8d3f
00000110: a7d1 26bf fc38 9c3e 4a3d 1bbf 33eb cd3e
00000120: b42d 52be 67b7 1c3f 6dc7 0fbf 6af1 613c
00000130: e3b6 a73f 228e 683f efe1 b23f 22e8 823e
00000140: 99d5 313f 256c 1e3e e688 bc3f db2f 573f
00000150: ace4 4d3f 99d9 113f a5b2 b73f 6cd1 4a40
00000160: 4d55 f93e b149 503f 6e80 3c3f 396a c43f
00000170: 5a2d 1840 ef66 b03e 86d3 bf3f 77df b43f
00000180: 7ac9 b23f ff58 fd3e 9e6a e03e 529e 5f3f

lstm.bias_hh_l1 f4 [100]
1.6580012 4.1833177 2.3075168 1.6085472 1.0954522 1.8014628 0.12282269 1.2107764
0.9030601 1.3776455 0.1276355 0.44004777 0.85150594 0.5034935 1.5620478 2.3519776
0.5865696 1.7444112 -0.50613046 1.2895163 1.6540754 1.4313437 0.8830428 1.1189011
1.4465135 -0.008811265 -0.18904965 0.051157042 -0.08677254 0.09668012 0.18291442 -0.017006397
0.015832752 0.041410178 0.05176498 -0.17587249 0.060784414 0.013277963 -0.19688177 -0.1907445
0.12004857 0.10624923 0.15483783 -0.0067109764 -0.12332048 0.1865821 -0.020455092 0.008245155
-0.038514495 -0.1171926 0.13503766 -0.17454636 -0.4844252 -0.087931044 -0.6444239 0.76378477
0.3849675 1.2063843 -0.24711926 -0.027500317 -0.073965915 0.30955794 0.21733133 0.71317106
0.60380024 0.15682264 0.23558725 1.1580255 -0.5677056 0.39862555 -0.8148457 0.5118446
-0.24353865 0.53446335 -0.3086917 0.13721922 1.2567865 0.8300564 1.286641 0.50491154
0.92862755 0.14191376 1.4526637 0.86048216 0.666427 0.9109245 1.5964135 2.9023685
0.36479965 0.80214065 0.79637206 1.4759907 2.5760474 0.6432943 1.1132724 1.6983398
1.3161123 0.6741001 0.13259159 0.973645
00000000: 6239 d43f bddd 8540 5bae 1340 e0e4 cd3f
00000010: c737 8c3f 5596 e63f 768a fb3d b9fa 9a3f
00000020: f22e 673f b056 b03f e1b2 023e f14d e13e
00000030: 4bfc 593f f3e4 003f 2ff1 c73f cd86 1640
00000040: 6d29 163f de48 df3f c491 01bf df0e a53f
00000050: beb8 d33f 4536 b73f 180f 623f 2738 8f3f
00000060: 5b27 b93f 205d 10bc 3b96 41be 0c8a 513d
00000070: cdb5 b1bd 3a00 c63d eb4d 3b3e 0051 8bbc
00000080: b0b3 813c b89d 293d 8407 543d eb17 34be
00000090: 14f9 783d d08b 593c 609b 49be 8752 43be
000000a0: 06dc f53d 3299 d93d cf8d 1e3e c0e7 dbbb
000000b0: 738f fcbd 610f 3f3e 7091 a7bc b016 073c
000000c0: 60c1 1dbd ad02 f0bd 5047 0a3e 48bc 32be
000000d0: 9406 f8be 3115 b4bd f7f8 24bf 6687 433f
000000e0: 761a c53e cd6a 9a3f d50c 7dbe 5848 e1bc
000000f0: 717b 97bd 617e 9e3e 1b8c 5e3e 6192 363f
00000100: a792 1a3f 1d96 203e c93d 713e 2e3a 943f
00000110: 2755 11bf a618 cc3e ba99 50bf 3f08 033f
00000120: 3262 79be 97d2 083f d70c 9ebe 3283 0c3e
00000130: 61de a03f 947e 543f a7b0 a43f e241 013f
00000140: 89ba 6d3f d751 113e e2f0 b93f 8f48 5c3f
00000150: f69a 2a3f 5932 693f 4757 cc3f 68c0 3940
00000160: 05c7 ba3e 1759 4d3f 0adf 4b3f 43ed bc3f
00000170: f6dd 2440 efae 243f b67f 8e3f 3363 d93f
00000180: 5e76 a83f d391 2c3f 17c6 073e cc40 793f

fc.weight f4 [52, 25]
4.8931985 -0.12245388 0.06570279 -2.3239417 0.8522438 0.5103692 3.0623655 -1.2286679
-0.6659321 2.3074303 -0.6655771 3.4004693 8.659229 -0.5610474 1.1583533 -3.4346604
0.2759264 0.0071724504 6.747512 -0.97357166 -0.60601324 3.5520177 -3.1093547 -0.57550544
-0.09468338 -12.220755 1.488451 -2.768521 7.879721 -6.660688 0.13047503 -7.5629835
-1.5546606 -0.06283953 -3.9761393 -1.2874179 1.9934291 -0.4211124 3.4783545 0.9430562
3.2461534 -0.37730092 -2.3391366 -11.192084 -4.076404 4.822786 2.152635 3.5464752
1.045681 -1.5258998 -0.33476013 -0.26632994 2.1751492 3.9342191 -1.4452826 2.3709993
15.169135 -0.92951506 10.926218 13.230168 7.2195287 1.652808 -50.526062 1.9818438
-3.602724 0.5479081 -1.4995332 -6.8824863 -42.157925 0.2381811 3.514991 -2.6244924
1.1103647 0.9728108 0.37006316 -0.54714155 -5.4337907 5.9243803 -3.0576298 0.45690116
-0.6280772 6.009686 -6.5918674 0.42800578 -4.277656 3.7888105 -1.7656143 -0.93562305
-4.7238135 5.935936 4.693765 1.084267 2.7373571 13.5694065 1.4977326 4.040566
0.97630626 -0.12518768 1.956928 0.47880462 1.1496656 1.0505333 -1.4772894 -1.2732924
0.06469012 0.39145416 -11.566435 2.021248 2.4804163 14.489036 -6.0955358 2.023521
1.2340889 -0.079208836 -2.7573602 -3.2773654 -2.4316459 2.3726807 0.54687965 -3.9331641
-1.1002328 -0.42211908 -0.5590139 -1.4747688 -1.9245548 -0.062411256 -1.8905 -1.0189605
9.153933 1.6632836 -2.2542086 -14.169157 -3.849101 4.742999 0.25395045 -0.6149391
-3.4029214 -1.4698975 -8.274702 -4.4225364 1.0046166 68.35161 -1.9454659 -16.0537
1.1827406 -5.142838 2.7077503 7.34842 -1.5444199 -1.3707781 0.674972 0.03316231
-0.31687054 -3.5365336 -13.41879 0.65348816 3.2326686 -0.25409457 -1.4437164 0.71482116
-1.1600322 2.4145498 8.6436405 0.14033388 1.7389045 -3.5451097 1.0205863 -1.2631007
6.7154555 -1.7126751 -2.1072478 -0.16887951 0.3829635 -0.6080027 0.77771676 -1.0832812
0.22681479 -0.15269433 4.408456 -0.5084017 -2.2616003 0.11612387 -1.8705152 -25.053316
6.312784 2.1485066 -0.3529422 -8.23659 -1.3687733 -1.134877 0.24108532 -18.014204
-5.164369 14.937379 -0.093839094 3.9265573 -0.55245334 4.2223477 -1.8302433 -19.57812
-1.6934265 -0.09386904 -0.16422787 4.5250793 -0.8096243 0.5726125 -4.6121054 -2.3415923
-47.74702 1.5320969 3.733614 0.4734196 -6.1541805 -1.6106591 -2.9284618 -0.014643728
-1.9141538 -6.054824 -12.822545 0.10497931 3.5446768 -0.7007842 3.3548324 -0.9528013
14.54804 -6.7625394 -1.0237613 1.3048413 2.0638974 2.3067489 -0.2810985 -2.698412
4.809557 1.4769897 -2.9186747 -0.70364684 13.857966 3.1950445 -5.6285276 0.8494964
4.1849656 -3.3506923 1.4790493 25.292229 0.029016491 1.5370489 -0.3822682 -1.2438296
0.34407994 1.1147914 -1.1964598 -0.36392042 5.256712 0.5806715 1.9746975 0.90648246
00000000: 1595 9c40 1ac9 fabd 2f8f 863d 76bb 14c0
00000010: a62c 5a3f 8ea7 023f ccfd 4340 fd44 9dbf
00000020: 877a 2abf f0ac 1340 4363 2abf 4aa1 5940
00000030: 348c 0a41 cda0 0fbf ec44 943f 7ad1 5bc0
00000040: 3a46 8d3e e006 eb3b 9eeb d740 fe3b 79bf
00000050: af23 1bbf 4254 6340 abff 46c0 5354 13bf
00000060: 5ce9 c1bd 3688 43c1 9085 be3f 732f 31c0
00000070: ad26 fc40 5b24 d5c0 3f9b 053e f603 f2c0
00000080: 1eff c6bf 03b2 80bd 1179 7ec0 1cca a4bf
00000090: af28 ff3f 0b9c d7be 5c9d 5e40 226c 713f
000000a0: fac0 4f40 962d c1be 6ab4 15c0 c712 33c1
000000b0: e771 82c0 4354 9a40 c6c4 0940 73f9 6240
000000c0: e0d8 853f af50 c3bf ae65 abbe 665c 88be
000000d0: a535 0b40 3fca 7b40 05ff b8bf 74be 1740
000000e0: c7b4 7241 b3f4 6dbf cad1 2e41 c5ae 5341
000000f0: 6106 e740 368f d33f b01a 4ac2 0fad fd3f
00000100: 0893 66c0 b543 0c3f b4f0 bfbf 543d dcc0
00000110: b7a1 28c2 bfe5 733e 9df5 6040 aff7 27c0
00000120: 6e20 8e3f 210a 793f eb78 bd3e 7811 0cbf
00000130: 9de1 adc0 8694 bd40 35b0 43c0 f3ee e93e
00000140: abc9 20bf 594f c040 94f0 d2c0 9323 db3e
00000150: 8fe2 88c0 df7b 7240 a6ff e1bf fe84 6fbf
00000160: 7b29 97c0 30f3 bd40 5333 9640 43c9 8a3f
00000170: dc30 2f40 4a1c 5941 b4b5 bf3f 514c 8140
00000180: 35ef 793f 3331 00be 9e7c fa3f e125 f53e
00000190: 3e28 933f e077 863f d217 bdbf 3ffb a2bf
000001a0: 417c 843d ae6c c83e 1e10 39c1 215c 0140
000001b0: 24bf 1e40 17d3 6741 a10e c3c0 5e81 0140
000001c0: a0f6 9d3f 3e38 a2bd 9778 30c0 5bc0 51c0
000001d0: 16a0 1bc0 00da 1740 4e00 0c3f f6b8 7bc0
000001e0: 6ed4 8cbf fe1f d8be 891b 0fbf 39c5 bcbf
000001f0: d057 f6bf f2a2 7fbd e7fb f1bf 4c6d 82bf
00000200: 8276 1241 7ae6 d43f f444 10c0 deb4 62c1
00000210: ac57 76c0 a6c6 9740 cb05 823e a66c 1dbf
00000220: 77c9 59c0 9a25 bcbf 2e65 04c1 6b85 8dc0
00000230: 4797 803f 06b4 8842 0705 f9bf fa6d 80c1
00000240: 0b64 973f 2192 a4c0 c84b 2d40 4226 eb40
00000250: 8daf c5bf a875 afbf f7ca 2c3f 34d5 073d
00000260: db3c a2be 9156 62c0 5db3 56c1 004b 273f
00000270: 0be4 4e40 af18 82be b3cb b8bf 85fe 363f
00000280: ef7b 94bf fc87 1a40 5a4c 0a41 afb3 0f3e
00000290: 6c94 de3f 14e3 62c0 92a2 823f 49ad a1bf
000002a0: 03e5 d640 f038 dbbf 26dd 06c0 c0ee 2cbe
000002b0: cb13 c43e 11a6 1bbf 7218 473f f5a8 8abf
000002c0: 2342 683e e75b 1cbe 1212 8d40 9d26 02bf
000002d0: 0fbe 10c0 5ad2 ed3d 0b6d efbf 316d c8c1
000002e0: 5402 ca40 2281 0940 d7b4 b4be 13c9 03c1
000002f0: f733 afbf a643 91bf 12df 763e 171d 90c1
00000300: 8342 a5c0 81ff 6e41 b62e c0bd b74c 7b40
00000310: 956d 0dbf 791d 8740 6a45 eabf fd9f 9cc1
00000320: 33c2 d8bf 693e c0bd 5a2b 28be 73cd 9040
00000330: 8a43 4fbf bc96 123f 5e96 93c0 a6dc 15c0
00000340: f3fc 3ec2 c01b c43f 88f3 6e40 0e64 f23e
00000350: 0cef c4c0 142a cebf eb6b 3bc0 3fec 6fbc
00000360: fe02 f5bf 1ec1 c1c0 2529 4dc1 64ff d63d
00000370: fcdb 6240 9866 33bf 93b5 5640 c9ea 73bf
00000380: c6c4 6841 b966 d8c0 9c0a 83bf 0a05 a73f
00000390: e516 0440 c6a1 1340 25ec 8fbe c8b2 2cc0
000003a0: e4e7 9940 000e bd3f 91cb 3ac0 3322 34bf
000003b0: 3bba 5d41 9c7b 4c40 e61c b4c0 9978 593f
000003c0: 3deb 8540 be71 56c0 7d51 bd3f 7c56 ca41
000003d0: feb3 ed3c 05be c43f a8b8 c3be cf35 9fbf
000003e0: 3f2b b03e 7cb1 8e3f 9825 99bf c753 babe
000003f0: fc36 a840 e3a6 143f e3c2 fc3f 3c0f 683f

fc.bias f4 [52]
2.8335125 -4.1728787 -2.8015046 -0.91308856 1.0397214 -3.9235864 -0.16520666 -2.0522735
-3.1107712 0.9262226 -0.2314009 -0.7654944 0.6125962 2.2747064 -0.69923145 1.719095
1.655474 -3.9851968 -2.113465 1.1079572 -1.4600267 2.9699283 2.7921348 -1.4538262
0.083508305 4.584294 1.9587717 0.53755534 0.041621435 -10.040256 0.42071223 2.9806669
-0.011326875 -3.2322943 0.75560194 1.3667741 -1.8081673 -0.3609973 1.3281188 0.83169514
-1.9172457 -2.1080396 0.4392153 0.99375856 -2.5252008 -0.75644994 0.40617 -0.9329499
-0.5321991 1.7923617 0.676033 0.21218985
00000000: 4558 3540 3988 85c0 da4b 33c0 2cc0 69bf
00000010: 9715 853f 0a1c 7bc0 ef2b 29be 7358 03c0
00000020: e016 47c0 ed1c 6d3f 5cf4 6cbe 71f7 43bf
00000030: 1bd3 1c3f ca94 1140 d500 33bf 4e0b dc3f
00000040: 92e6 d33f 770d 7fc0 0343 07c0 8bd1 8d3f
00000050: 28e2 babf 4e13 3e40 56b2 3240 fa16 babf
00000060: 6706 ab3d 89b2 9240 08b9 fa3f 3a9d 093f
00000070: 3d7b 2a3d e3a4 20c1 9867 d73e 3fc3 3e40
00000080: 5b94 39bc e9dd 4ec0 216f 413f 74f2 ae3f
00000090: 0772 e7bf a3d4 b8be ccff a93f f9e9 543f
000000a0: 4f68 f5bf 1fea 06c0 d4e0 e03e f666 7e3f
000000b0: e49c 21c0 b4a6 41bf 84f5 cf3e ced5 6ebf
000000c0: 333e 08bf 1c6c e53f 8010 2d3f 4c48 593e
