lstm_model_player_zero.pth (torch, 66762 bytes, 10 tensors)

lstm.weight_ih_l0 f4 [100, 65]
00000000: b30d bc3f e3cc 0e3f c37f ca3e 715e e93d
00000010: 9f5d 8b3e 605d c73e 6bbc 3f3f b3fb 373f
00000020: 28c9 59bd 1a24 06be 18c2 f8be cf50 dabf
00000030: ef5a 8bbd dbaa 96be ab4e f23d 42f2 223f
00000040: 3ec9 bebe 0c0c b63d e5d3 a33e 3e96 ae3e
00000050: 673d 67be 62ea f83d da18 db3d 731f 173e
00000060: ce9d 3d40 a9e3 3740 1f88 3540 5f25 2440
00000070: 4abb d73f f359 f53f b17c fa3f 260d e93f
00000080: 99d1 573f 82cd f63e ee9b 203f 68fe 063f
00000090: ff0d 533f 0257 453f 1e9e 743f bc5d 623f
000000a0: a640 e63e 94ef de3e 2dc2 ac3e 31de 9a3e
000000b0: ff62 e83e d26b b23e 8c23 ca3e 1d33 c93e
000000c0: 3076 0bbc 0b64 203e 0098 863a 27b0 2f3e
000000d0: c6ef 6b40 8962 a3bf 63f0 fbbc 3ec5 81be
000000e0: bbd2 993e 0968 013e 2824 2c3d 8a1e 393e
000000f0: 3b9d 273f de65 af3e 3220 813f 66a3 5abf
00000100: 4e2f 903f 2e96 9c40 7e67 8c40 2af0 9340
00000110: 4f24 9640 7fa7 d73f df4d 0640 ed67 1840
00000120: 5446 1b40 b266 b83f 7f27 993f d115 b33f
00000130: 6514 a73f 20fb 1d3f bfa8 0d3f 0c2b 2d3f
00000140: 67dc 3e3f 2719 4c3e 3428 093f cc55 3c3e
00000150: 6873 e03e 3b3c 873e 129b 583e 11ba ae3e
00000160: db1d db3e 408d a73e 6773 823e dcba 113d
00000170: 3436 493e 0173 a43e df11 1f3d 28ea 013e
00000180: 7a48 093e b862 953e d908 0b3d 46fc 873d
00000190: 0af8 683e 30fa 8e3e ef70 f33d 9241 613d
000001a0: 34e4 2e3e 3d10 453e 0c6c 14be 9d7b 4fbc
000001b0: ace1 363d 79a2 1fbe b471 223e 628d 07be
000001c0: d132 a83d 50d0 f03c 9802 39be 40ef d6bb
000001d0: da52 38be a598 60c0 13fa 47c0 5c0d 83bf
000001e0: 699b b841 cf67 cc40 97a1 a43f 4c00 8d3f
000001f0: 45ea ff3f 1285 fb3f ef19 a53f 3a28 223f
00000200: 3f88 8a3e 4f3c 9f3e 0a56 b3be cc74 443e
00000210: c31f d43d 9b3f ab3d 4aca 283e d936 9b3d
00000220: 812b 8dbd 071e 6abe c70f e8bd 715c 9ebd
00000230: 16f1 783d 087e 313d 8103 32be eff8 b33e
00000240: b19f 0a3e 6347 f6be 016c cf3d 1452 02be
00000250: 69aa 5ebc eb7e 2c3b bd6d dd3d d5cc 67be
00000260: 5fcc 033d 0e05 ea3d b100 69be 578a febd
00000270: b7fb 403e 82ee 873e 080a 19be 215d 7b3e
00000280: 635d cf3d 995f e7bd 0013 5c3d 676e 403e
00000290: f6b4 603e fc8a 7e3d 9925 813f e939 663f
000002a0: be08 6a3f b6a5 6a3f 2cce 41bf 71be 28bf
000002b0: ed32 56bf 1539 6dbf 5078 0840 a406 f63f
000002c0: 983d f33f 656b 0d40 60c9 48bc cd04 c3bd
000002d0: 8e15 d23d d2e7 893d 777d a240 072e 45c0
000002e0: d1be e03e 096f da40 f19d 1040 806d 0ec0
000002f0: cbe8 65c0 3cb5 00bf b3d7 30bf da0d 80bf
00000300: 3a3c 21bf 2065 96bf 770f 01bf 64ad 84be
00000310: 5dc9 09be 7672 603e 117f b13e 6825 2ebe
00000320: 1451 a33d d9fe 663e 8bf1 043e bc09 433e
00000330: ed60 063e ab79 a83d 051c b43e e8d8 703e
00000340: 85a5 823e ea42 353d 1bbf 7abd fd45 943d
00000350: c9de 93bc 0c06 ebbd b368 563e bbf9 8f3e
00000360: 0721 963d b6c9 3dbc ac29 f23c 4442 963e
00000370: 07f1 2d3e 1814 fdbc 889c c3bd 36ac 8a3e
00000380: d4a8 ea3d 4158 e63e d051 8c3d d74c 9b3f
00000390: 6891 963f 9b4f 963f 3f70 6a3f 2b48 29bf
000003a0: 8f93 81bf 0c4e 44bf 067b 35bf c6de 3540
000003b0: 84ff 2e40 011b 2e40 59f8 3940 ef33 023f
000003c0: df36 2f3f 8243 fb3e 93b0 f63e 6c40 7bbd
000003d0: e765 b8bd f105 2b3e f1f5 023e 53ac a43b
000003e0: f17b 98bf 4dfb 72bf ff82 313e 3616 d13e
000003f0: 17c1 31be e98a 9ebe 4c75 753d 8366 00be
1.4691681 0.5578138 0.395506 0.113949664 0.27219865 0.38938427 0.7489688 0.7186844
-0.053170353 -0.13099709 -0.48585582 -1.7055911 -0.068044536 -0.29427227 0.11831411 0.63650906
-0.3726291 0.088890165 0.319976 0.34099 -0.22582017 0.1215408 0.106980994 0.1475809
2.9627566 2.8732703 2.8364332 2.564781 1.6854031 1.9168075 1.9569303 1.8207138
0.84304196 0.48203665 0.6273793 0.52731943 0.8244323 0.7708589 0.9555377 0.8842428
0.44971198 0.4354216 0.33741894 0.30247644 0.45388028 0.34847885 0.39480245 0.3929681
-0.008512065 0.15663163 0.0010268688 0.1715704 3.6865096 -1.2764446 -0.030754274 -0.25345796
0.30043587 0.12637343 0.04202667 0.18078056 0.6547429 0.34257406 1.008795 -0.85405576
1.1264436 4.8933325 4.3876333 4.623067 4.691932 1.6847991 2.0985029 2.3813431
2.4261675 1.440634 1.1965178 1.3991033 1.3053099 0.6171131 0.5533561 0.6764381
0.7455506 0.1993147 0.5357697 0.18392104 0.43838048 0.2641314 0.21152905 0.34126332
0.42796215 0.32724953 0.2547867 0.035578594 0.19649583 0.3211899 0.038835403 0.1268698
0.13406554 0.2917688 0.033943985 0.06639914 0.2275087 0.27925253 0.11886775 0.054994173
0.1707924 0.19244476 -0.14494342 -0.012663749 0.04464881 -0.15589322 0.15863687 -0.13237527
0.082128175 0.029396206 -0.18067396 -0.0065592825 -0.18000355 -3.5093167 -3.1246383 -1.0238452
23.075884 6.387672 1.2861813 1.1015716 1.9993368 1.9649985 1.2898539 0.6334263
0.27057073 0.311007 -0.3502658 0.1918518 0.103576206 0.08361741 0.16483417 0.07578821
-0.06893063 -0.22863017 -0.11331134 -0.077324755 0.060776792 0.043333083 -0.17384149 0.3515086
0.1353748 -0.4810134 0.10128022 -0.12726623 -0.013590434 0.0026320766 0.108119465 -0.22636731
0.032177325 0.11426745 -0.2275417 -0.1242873 0.18846022 0.26549155 -0.14945233 0.24547245
0.10125234 -0.11297531 0.053729057 0.18792115 0.21944031 0.062144265 1.0089599 0.89932114
0.9141959 0.91659105 -0.7570522 -0.6591559 -0.83671457 -0.92665225 2.1323433 1.9220777
1.9003172 2.2096798 -0.012255043 -0.095224 0.102580175 0.06733669 5.0778155 -3.0809343
0.4389558 6.826054 2.25964 -2.2254333 -3.5923336 -0.5027654 -0.6907913 -1.0004227
-0.62982523 -1.1749611 -0.5041422 -0.25913537 -0.1345572 0.21918663 0.34667256 -0.17006457
0.07974449 0.22558154 0.12982766 0.19046682 0.13122912 0.08226331 0.35177627 0.23520243
0.25516906 0.044253267 -0.06121741 0.07239912 -0.018050568 -0.11475763 0.20938377 0.28120217
0.07330518 -0.011583736 0.029560886 0.29347432 0.16986476 -0.03089337 -0.0955134 0.27084512
0.11457983 0.44989207 0.06851542 1.2132825 1.1763124 1.1743044 0.91577524 -0.66125745
-1.0123156 -0.7668159 -0.70890844 2.841722 2.7343454 2.7203982 2.905783 0.50860494
0.684431 0.49074942 0.4818159 -0.061340734 -0.09003811 0.16701485 0.12789132 0.0050254255
-1.1912824 -0.94914705 0.17335127 0.40837258 -0.17358814 -0.30965355 0.059926316 -0.12539105

lstm.weight_hh_l0 f4 [100, 25]
00000000: 40d4 bebd 7f42 053e 7cd5 89bd 58da 41bd
00000010: 80b7 09bc a998 363e e294 f13d 788b 1e3d
00000020: 504b 0e3c e745 c8bd a0d3 69bc 5b65 2b3e
00000030: 682b 56bd 2f55 023e ddbf e9bd 724a e93d
00000040: 7717 453e 18e6 33bd d241 38be a066 3abe
00000050: 9a57 9dbd d28f 2abe 105c d4bd 317e 333e
00000060: a223 05be a88d 64bd 6c98 6c3d 455c 3fbe
00000070: 20cf 61bc c245 913d 9315 283e 033c 28be
00000080: 544f 203d 80e6 34bd 8aa9 8dbd 2040 10bd
00000090: e9e5 193e 626d 23be 385d 17bd 1ead eb3d
000000a0: a893 1ebd 9a8b 43be ca61 05be f992 403e
000000b0: 886f 70bd b184 223e 9bd5 2e3e 5b13 393e
000000c0: 62c8 c43d 1162 3a3e 482f 383d b05c f8bc
000000d0: fcf4 583d f017 9cbd 2a75 a63d bd5c abbd
000000e0: 23e5 bebd 9bf2 4abe e51e 1cbe f441 2bbd
000000f0: f0e4 b1bc ddb8 453e 5b76 13be 85bc 3a3e
00000100: 56c5 8cbd f63d c43d d057 c9bc aa2b 823d
00000110: e7f9 433e 309d 363c 472d 37be b60d 0dbe
00000120: fd93 28be 6830 fc3c e68c c03d 3078 103c
00000130: a8f7 8d3c 935f d3bd 3876 15bd 2db9 433e
00000140: 2dc8 4cbe c077 0d3d c7ff bcbd c2b5 803d
00000150: 8fef 3a3e da04 da3d c441 503d 347f 25bd
00000160: c019 47be 1054 ddbc 8dc7 eabd 2925 253e
00000170: cf05 163e a04a 3fbc 9f23 473e 0ced 7f3d
00000180: d229 a83d 08a2 2bbe b567 433e 118f 493e
00000190: 4722 2ebe 884a 103d 8540 48be 68ff 2abd
000001a0: 9049 c03c 1376 4c3e bf53 243e 6210 833d
000001b0: d606 17be d4f1 70bd eca2 87bd 107d bf3c
000001c0: c012 283d d268 eb3d f0e9 abbc 3de6 1dbe
000001d0: 51bd 493e 0d88 24be fa4c d53d a634 c23d
000001e0: d3a0 9bbd 8696 873d ca3d c83d e044 533c
000001f0: 7768 323e c834 383d 36a9 cf3d 6039 30be
00000200: 3a8a 29be 9280 d13d b555 433e 0bf2 3bbe
00000210: 8fd2 48be 637f 32be aa82 ab3d 7282 02be
00000220: 5a3f f0bd 8c86 333d 42f1 c93d 8066 5d3c
00000230: 5394 47be 3191 073e 13a3 bdbd ff57 37be
00000240: eee8 26be 4a84 bf3d 3009 993c eea6 e83d
00000250: d484 7a3d 0991 383e 8dbf e3bd bfac 153e
00000260: edb8 dbbd 709e 973c e2c0 49be 2eda ed3d
00000270: 508a 0a3c 18b3 45bd 1422 83bd 9a4d ef3d
00000280: 5bc6 0d3e 268c ad3d 7221 ca3d 6ded 3b3e
00000290: 3046 36bc dff4 403e 8ce2 60bd b67e 0bbe
000002a0: e4e5 05be 0974 143e 659b 193e 6574 32be
000002b0: fbe5 003e edbb 0b3e 6c2c 0ebd 6024 c63b
000002c0: e55e 2e3e 10b8 e43c bde4 24be 42ed fa3d
000002d0: c0da 1abd f2b7 09be 5840 12bd 6d6a 163e
000002e0: 86d8 c53d e08b 38bc b73e 3d3e 0401 8abd
000002f0: 5404 08bd e434 6b3d 30c2 10be aa98 903d
00000300: e0f6 0dbd 0082 3cbe d7a5 bfbd 5031 b1bd
00000310: 91c5 3c3e 5292 f13d 5894 003d ca1d 9abd
00000320: ee9f df3d 8a13 0cbe b6b6 c93d 9965 283e
00000330: 17c0 153e c1de 493e 1292 bb3d 46a6 22be
00000340: 80a4 71bc 9878 bb3c 4cb4 06be ba8b bc3d
00000350: 768c d53d efe4 3b3e f0ef 86bc 50a1 7f3c
00000360: 735e 373e b258 923d 986c f33c 3eb0 f33d
00000370: 0c64 0d3d 00a2 b1bc 2999 463e d20f b73d
00000380: 0355 ecbd bde9 0a3e b4a7 4d3d 16fd 90bd
00000390: 5489 91bd f2c5 8f3d 349c 17bd afda 063e
000003a0: 7133 423e e7ab fdbd 20f7 4cbd d379 abbd
000003b0: 02f6 993d 80a6 463c 30f3 2fbc 5e2d 12be
000003c0: 5750 223e b97c 453e 3dfd cfbd 3d20 12be
000003d0: a03c 29bc 60b3 ac3b 029d ad3d 8c34 17bd
000003e0: 1fe8 133e f567 353e 6f1f 173e fa00 b5bd
000003f0: 12b7 da3d 90df 1dbe 49f2 393e fbed 21be
-0.09317827 0.13013647 -0.06730172 -0.04732737 -0.008405566 0.17831673 0.11795975 0.038707227
0.008684948 -0.09778958 -0.014271647 0.16737883 -0.05228749 0.12727807 -0.11413548 0.113911524
0.19247232 -0.043920606 -0.17993858 -0.18203211 -0.07682724 -0.16656426 -0.10369122 0.17528607
-0.13001874 -0.055799156 0.05776255 -0.18687542 -0.013782293 0.07093383 0.1641448 -0.16429143
0.039138153 -0.044165134 -0.06917103 -0.035217404 0.1502911 -0.15959695 -0.036954135 0.11507629
-0.038715035 -0.19096223 -0.13025585 0.18806066 -0.058700114 0.1587093 0.17073672 0.1807379
0.096085325 0.18201472 0.044966966 -0.030317634 0.05296801 -0.07621753 0.08127816 -0.08367298
-0.09321048 -0.19819109 -0.1524616 -0.041810945 -0.021715611 0.19308801 -0.14400618 0.18235977
-0.06873576 0.095821306 -0.024578005 0.063559845 0.19138299 0.011145875 -0.17888366 -0.13774762
-0.16462703 0.0307848 0.09401874 0.008817717 0.017330006 -0.10320964 -0.036489695 0.19113608
-0.19998236 0.03453803 -0.09228473 0.062846676 0.18255447 0.106454566 0.05084397 -0.040404513
-0.19443417 -0.027017623 -0.114638425 0.16127457 0.14650653 -0.011675507 0.19447182 0.062481925
0.082111016 -0.16761029 0.1908253 0.19683482 -0.17005263 0.03522733 -0.19555862 -0.04174748
0.023472577 0.19966917 0.16047572 0.06399609 -0.14748701 -0.058824375 -0.06622872 0.023375064
0.041033506 0.11494602 -0.020985574 -0.1541986 0.19701125 -0.16067524 0.10415073 0.09482698
-0.07599034 0.06620507 0.0977741 0.012894839 0.17422663 0.04497221 0.10139696 -0.17209387
-0.16556635 0.10229601 0.19075663 -0.18354051 -0.19611572 -0.17431407 0.083745316 -0.12745073
-0.11730833 0.043829486 0.098604694 0.013513207 -0.19490175 0.1323898 -0.092596196 -0.17904662
-0.16299793 0.09351404 0.018681139 0.11359964 0.06116183 0.18024077 -0.1112052 0.14616679
-0.10728631 0.018508166 -0.19702485 0.1161388 0.008455828 -0.0482665 -0.06402984 0.11684723
0.13845198 0.08473997 0.098696604 0.1835229 -0.011125132 0.18843411 -0.054903552 -0.13622555
-0.13075978 0.14497389 0.15000685 -0.17427213 0.1258773 0.13645907 -0.034710333 0.0060468167
0.17028387 0.0279198 -0.16102882 0.122522846 -0.037806273 -0.13449076 -0.035705894 0.14689036
0.09660439 -0.011263818 0.18480955 -0.06738475 -0.033207253 0.057423487 -0.14136577 0.07060368
-0.034659266 -0.18408966 -0.09357803 -0.08651984 0.1843474 0.117954865 0.03139147 -0.07525213
0.10919176 -0.13679329 0.098493025 0.16445006 0.14624058 0.1971388 0.0915872 -0.15883741
-0.0147486925 0.022884652 -0.13154715 0.09206338 0.104271814 0.1834905 -0.016471833 0.015602425
0.17907123 0.071458235 0.029714867 0.1189885 0.03451924 -0.021683693 0.19394363 0.08938564
-0.11539652 0.13565727 0.050208762 -0.07079522 -0.071062714 0.07020177 -0.0370142 0.13169359
0.18964936 -0.123863034 -0.050040364 -0.083728455 0.075176254 0.012124658 -0.010739133 -0.14275119
0.1585096 0.19285859 -0.10155723 -0.1427011 -0.0103293955 0.0052704066 0.084772125 -0.036915347
0.14444016 0.17715438 0.14758085 -0.08838077 0.10679449 -0.15417314 0.1815883 -0.15813439

lstm.bias_ih_l0 f4 [100]
00000000: 44f1 9c3c 884f 6c3f 2faf 703e 34d9 fa3e
00000010: 4525 503f 7c6c 693f e2e9 163f 47f7 653f
00000020: c2d5 813f 063c 3f3f 5ee0 8d3f 1d53 c93f
00000030: 262b 8d3f 24c2 ca3f 998c d53d 67a8 43bd
00000040: f4d3 1abe 9444 0740 7319 44c0 4240 d63f
00000050: 718b 23bc 71cb 44bd a066 ff3e 9bae f1bd
00000060: bd24 d13e db2f 0ebe 302f d7bd 1f53 413e
00000070: 58ce a8bc d54a 363e d280 f23d 0e8b d93d
00000080: c228 1cbe d0c4 28be be9f a93d 5479 033d
00000090: 7f07 4b3e 66d6 2abe 0d81 a2bd bb4f 25be
000000a0: 6da2 42be 49b2 1d3e d2cd 27be 92d5 b03d
000000b0: 20c3 9cbd 1899 5cbd b5e1 383e 7e35 c43d
000000c0: 6e16 873d cd2b 0c3e da23 ccbf bd0f 4dbf
000000d0: 92d6 8bbe 4dfa 42bf 2407 083e 8d4b 0f3e
000000e0: 14f3 b6bf fa92 d13e f74c c03f 10f6 c03d
000000f0: 8230 a4bd 53ac ac3f 759f dabf 0612 aebf
00000100: 2662 95bf b563 16bd 548f 9f3f 01c5 5f3f
00000110: eace a83e 24b9 a2bf 0aa7 953f b47c 213f
00000120: d717 06c0 f0e6 c5be 6990 893f c922 ce3e
00000130: 8764 823f 0628 da3f 73a8 323f 0c5e a33f
00000140: e058 8abe 1738 393f 364b 3f3f 938b 0a40
00000150: 5616 81be 408d fd3f 3dc7 3d40 aae2 c540
00000160: c990 e63f 7ea5 92bd 1f70 983f b7b7 5b3e
00000170: 3623 763f 1ae9 783f 2bc7 d33f 1190 cc3e
00000180: 3641 b13f dc3d eb3f 6435 f7be 233f c13d
0.019158013 0.92308855 0.23504327 0.48993838 0.8130687 0.9118116 0.58950627 0.8983044
1.0143359 0.74700963 1.1084096 1.5728489 1.1028793 1.5840497 0.104272075 -0.047768023
-0.15119916 2.1135607 -3.0640533 1.673836 -0.009981976 -0.04804558 0.49882984 -0.118008815
0.40848342 -0.13885443 -0.10507047 0.18879364 -0.020606205 0.17801984 0.11840977 0.10622226
-0.15249923 -0.16481328 0.082824215 0.03209813 0.19827078 -0.16683349 -0.07934771 -0.16143696
-0.19007273 0.15400042 -0.16387108 0.08634485 -0.07654405 -0.05385694 0.1805485 0.09580515
0.06596075 0.13688584 -1.5948441 -0.8010214 -0.27312142 -0.7616318 0.13283974 0.13993664
-1.4292932 0.40932447 1.5023488 0.09421933 -0.08017065 1.3490089 -1.7079912 -1.359925
-1.1670578 -0.03671618 1.2465615 0.8740998 0.32970363 -1.271275 1.1691601 0.63080907
-2.095205 -0.38652754 1.0747195 0.40260914 1.0186929 1.7043464 0.69788283 1.2763076
-0.2702093 0.7235121 0.7472414 2.164769 -0.25212353 1.9808731 2.9652855 6.183919
1.8012935 -0.071604714 1.1909217 0.214568 0.9614748 0.97230685 1.6545156 0.39953664
1.3848026 1.8378253 -0.4828292 0.094358705

lstm.bias_hh_l0 f4 [100]
00000000: 4634 8a3d 942b 343f aedc bb3e 98f1 163f
00000010: b9b7 1c3f 5ef8 6c3f 26f1 f33e db00 943f
00000020: fc85 803f 6250 893f 8a04 893f 9f67 e33f
00000030: 74bb a33f 2620 b13f c739 86bd 5cdd 533e
00000040: a4e3 223e b667 0840 4752 3ec0 08fe d83f
00000050: 7608 373e 2447 033e 1e5e 4c3f 438c 9bbe
00000060: 1270 0b3e 14a9 293d 7485 293d 8d6d 24be
00000070: dddc 4abe 5364 48be 6e30 d73d c5ec 22be
00000080: 80e7 39be 6f9e 2ebe 008f 97ba 4878 41bd
00000090: 9133 0f3e 3dbd 32be b082 c0bd 4a34 08be
000000a0: 0065 82bc 2845 17be 4586 353e fbd5 35be
000000b0: 54ab 163d ebbc 32be 6cce 3c3d 07ce 2a3e
000000c0: 140c 15bd a83f 34bd c43f a5bf f7c3 49bf
000000d0: c12e 60be 0292 c2be 65ad b23e ce7f eb3e
000000e0: febd b3bf 2d8e 013f 270e a33f 3f4e b13e
000000f0: 807c a3bd 0d42 b93f af08 edbf 2876 c7bf
00000100: e458 8fbf ebd9 8b3d 9c62 a03f 97fc 3b3f
00000110: e446 f83e 56ff 67bf c03c 823f 6079 713f
00000120: bbbf dcbf 2b8d 0ebf 4d5c 5d3f 2fff 963e
00000130: 434c 933f e0d9 f63f 77d2 c53e dadc 9d3f
00000140: d8a0 e4be 1b98 163f 78a5 5f3f c10b 0240
00000150: 723e ef3c 06d0 0740 d53b 3e40 8046 c840
00000160: c187 e63f 5850 173d 8f4e 883f 5da2 e03e
00000170: 9261 6c3f b07d 1a3f 05a0 e03f 8ed8 1d3f
00000180: 5c8f c73f ca4e d23f 59be 8fbe c77f 103e
0.067482516 0.70378995 0.36691803 0.5896239 0.6121784 0.9256648 0.4764492 1.1562761
1.0040889 1.0727656 1.070451 1.7765998 1.2791581 1.3837936 -0.06553989 0.2068991
0.1590715 2.13133 -2.9737718 1.6952524 0.17874321 0.12820107 0.7983111 -0.3038045
0.1361697 0.04142101 0.041387036 -0.16057415 -0.19810815 -0.1956952 0.10507284 -0.15910633
-0.18154716 -0.17052625 -0.0011563003 -0.04723385 0.13984515 -0.17455001 -0.09399927 -0.13301197
-0.015917301 -0.14772475 0.17727001 -0.17757408 0.036784485 -0.17454879 0.046095297 0.16680156
-0.03638847 -0.04400602 -1.2910085 -0.78814644 -0.21892835 -0.3800202 0.34897915 0.45995945
-1.4042356 0.5060757 1.2738694 0.3463001 -0.07982731 1.4473282 -1.8518275 -1.5582933
-1.1199002 0.06828674 1.2530093 0.73432297 0.48491585 -0.90623987 1.017479 0.9432583
-1.7246011 -0.55684155 0.86468965 0.29491565 1.1507648 1.928524 0.38637134 1.2333024
-0.44653964 0.58825845 0.8736186 2.0319674 0.029204581 2.1220717 2.9724019 6.258606
1.8010179 0.036941856 1.0648974 0.43873873 0.9233638 0.60348034 1.7548834 0.6165856
1.5590625 1.6430295 -0.2807491 0.14111243

lstm.weight_ih_l1 f4 [100, 25]
00000000: 0d9b 5540 1502 c8bf 2798 8f3f f341 3a41
00000010: 273e 91c0 0b4d dec0 ef4f 913f 9c4b fdc0
00000020: 0542 083f 92b8 1abf 3a3f c7c0 6cee 2e3f
00000030: e530 e93e 9118 e840 fffa 413e 6d38 8c3f
00000040: c2fb 62bf bae6 21c1 ae64 40c1 9a7c e43e
00000050: cddb 55c1 a297 a1c0 72f4 d63f 2f7a 87c0
00000060: 5932 dfc0 60c2 debe 1f71 aebf 7cbb 86be
00000070: 0ff4 9fbf dd31 e4be 9490 6fbf 4492 d13e
00000080: 4ea4 7ebf 9ce0 cabe 6e2b cfbe 581a e5bf
00000090: 4494 433f 27d7 afbe 4eea f33f 9ca0 a9bf
000000a0: 8b08 973d ee3e a6c0 2861 b2bf aafa c5be
000000b0: 4d0a 7dbf fa0a 0e3f c310 823f 9768 b53f
000000c0: d1f2 bdbf fa79 a9be ede9 0940 d76d 653d
000000d0: 4838 91bf 0914 fd3e 7f8f b3bf 9acd c5bf
000000e0: 5822 1c42 c0d2 b0bf 3810 c4c0 b388 713e
000000f0: 7833 b340 03b6 cf3f 3072 da42 86dd 3340
00000100: dd49 f53f 376c 873d b857 48bf b378 5240
00000110: f190 05c0 1bc6 e43f ccbf 20bf f20f 95bd
00000120: b10e cbbd 1a8f e03f 499a b7bf ad5f 44c0
00000130: d838 cbc0 5252 cbc0 5f3b 4dbf 15e5 7b3f
00000140: 90d6 e23e 2334 e8bf 5271 a8bf 8dd2 fe40
00000150: 0370 8ebf f0ca 4bc0 c939 cc40 7ff8 013e
00000160: d7da 39c0 85d2 11c1 2e6c 0940 b1f7 943f
00000170: 1113 05c1 3848 e6bf 9087 78bf e403 a3be
00000180: 3a12 5c40 7971 20c1 bed9 e13f b748 073f
00000190: e21e 2040 fa1b bf40 a05a a63f c9de 6740
000001a0: 1b7e bac0 9d05 603e d38a 6241 4f66 4740
000001b0: 45f4 92c0 f256 62c0 fa5d 7040 0350 f3bf
000001c0: 6fe1 0d41 4e86 c43f 7555 0540 c7fc ab3e
000001d0: 409a 1bbf e0cd b640 7f49 0741 b710 afbf
000001e0: f7cb 6c40 86a3 c33f 8f3f a140 7267 1cbf
000001f0: 4c4c 1c40 c6ed b33d 60d5 ddbe d616 bfbe
00000200: 5e91 70bf bd1f 15bf cc58 943e aece 633f
00000210: 15a7 663e bbf8 8a3e 9b3f e9be d28a 57bf
00000220: 4780 633f c1dd 073f 08f4 223f d593 1cbf
00000230: 8633 543f 9212 b2bc 2b3f c1bf 9d09 66bf
00000240: 13b9 a5bf f70a f9bf 6ee2 4dbf c77e ea3e
00000250: 91a2 ad3d d30b b2bf b9d2 d9bf 5b8f babd
00000260: 630f ed3f e117 6f3f 58af febe ac0e dabf
00000270: f28d 293f a8bd 16bf 5f54 97bd 964c 743e
00000280: 2fb0 9bbf ed44 0f3f 96cd ea3e fd3f 1040
00000290: be72 a2bf 6afd 4b3f 48a2 1e3e 9a3b 15c0
000002a0: dfe1 f3bf 536c 2d3b 1df7 d4be a880 0dc0
000002b0: 635a 633f 29da adbd b247 c83f 3410 f1bf
000002c0: 6800 29be 2c78 d53f bc96 0f3f 8d5e 5abf
000002d0: d238 f6bf 13f1 dfbc f084 a23d b79e 9b3f
000002e0: dc15 253f cbc0 82be 4ce6 943e 4e6b 94bf
000002f0: 9d38 d2bd 79df e3be f595 95be bdb4 a63f
00000300: 6715 d7bf e71c 18be e29e 30bf 13d3 d0be
00000310: c63d 80bf a9b4 963f 1d54 1a3f 8e59 003f
00000320: db98 d2bf 23c5 a8bd cb22 0f3f b367 1f3f
00000330: def0 a6bf 8ed5 d6be cbf5 d83e 9934 2a3d
00000340: 801b 313f 7c98 a83d ea1e bdbf d8ab 023f
00000350: b1c4 163f 5484 1e3f c573 d5be 28a7 153f
00000360: 5955 7bbf 4ce2 dfbf 6a22 16c0 f532 00bf
00000370: 576c 11bf 2f70 43bf 916d 4d3f c241 fb3e
00000380: 089c 103f 0940 4ac0 cdb9 75c1 663f d7bf
00000390: 5cc8 c3be 32ae 79bf 948f a3bf b1e4 c6bf
000003a0: 9c05 cc3e d0fb 2441 855d dd3f 74bc cebf
000003b0: 8399 bb40 1f3c 9fbe 7049 85c0 6c4f 59c1
000003c0: 9af2 bf3f d339 8240 14cd 4fc0 0185 a83d
000003d0: 7b78 e9c0 ef5b fa3e 7b0b 8940 a4d8 5ac1
000003e0: 202d 97bf 35ba a0be 50fe 3840 caa8 debe
000003f0: f4e4 2840 62fc e8bf afde 0cc0 7ef6 b6be
3.3375885 -1.5625635 1.1218308 11.641101 -4.538837 -6.9469047 1.1352519 -7.9154797
0.5322574 -0.6043788 -6.226468 0.6833255 0.45545116 7.252999 0.18943404 1.095472
-0.886654 -10.11883 -12.02458 0.44626313 -13.366162 -5.04976 1.6793349 -4.233665
-6.974896 -0.4350767 -1.3628272 -0.26314914 -1.2496356 -0.44569293 -0.93579984 0.40931904
-0.9946946 -0.39624488 -0.40462822 -1.7898664 0.7639811 -0.34343836 1.9055879 -1.3252139
0.07374676 -5.195182 -1.39359 -0.38667804 -0.9884384 0.554855 1.0161365 1.4172543
-1.4839727 -0.33100873 2.1549027 0.056012955 -1.1345301 0.49429348 -1.4028167 -1.545337
39.03354 -1.3814316 -6.12698 0.23587303 5.600033 1.622742 109.22302 2.8103957
1.9163166 0.06612437 -0.7825885 3.288617 -2.0869715 1.7872957 -0.6279266 -0.07278432
-0.099149115 1.7543671 -1.4343959 -3.0683396 -6.350689 -6.353799 -0.8016872 0.98396426
0.44304323 -1.8140911 -1.3159583 7.963202 -1.1127933 -3.1842613 6.382054 0.1269245
-2.903982 -9.113896 2.1472278 1.163809 -8.317155 -1.799079 -0.9708185 -0.31838906
3.4386125 -10.027703 1.7644575 0.5284533 2.501885 5.972165 1.2996407 3.6229727
-5.8278937 0.21877141 14.158893 3.1156194 -4.592318 -3.5365567 3.7557359 -1.9008793
8.8675375 1.5353487 2.083341 0.3359129 -0.6078224 5.712631 8.455443 -1.3676976
3.699949 1.5284278 5.0390086 -0.61095345 2.4421568 0.08785586 -0.43326855 -0.3732211
-0.9397181 -0.58251554 0.28973997 0.88987243 0.22524674 0.2714289 -0.4555634 -0.841962
0.8886761 0.53072745 0.6365361 -0.61163074 0.8289112 -0.02173737 -1.5097402 -0.8985842
-1.2947105 -1.9456471 -0.8042363 0.45799848 0.08478273 -1.3909858 -1.7017432 -0.09109374
1.8520321 0.9339581 -0.49743152 -1.7035728 0.66232216 -0.5888314 -0.073891394 0.2385734
-1.2163142 0.5596455 0.45859975 2.2539055 -1.2691267 0.79683554 0.15491593 -2.3317628
-1.9053305 0.0026462271 -0.41594782 -2.2109776 0.88809794 -0.084888764 1.564688 -1.883307
-0.16504061 1.6677299 0.5608938 -0.85300523 -1.923609 -0.027336633 0.07935512 1.2157811
0.6448648 -0.25537714 0.29081953 -1.1595247 -0.102647044 -0.44506434 -0.2921597 1.3023907
-1.6803406 -0.14854775 -0.68992436 -0.40786037 -1.0018852 1.1773883 0.60284597 0.5013665
-1.6452898 -0.08240726 0.55912465 0.6226761 -1.3042257 -0.41959804 0.42375025 0.041554067
0.69182587 0.08232209 -1.4775059 0.5104346 0.5889388 0.61920667 -0.41689888 0.58458185
-0.98177105 -1.7490935 -2.3458505 -0.50077754 -0.5680594 -0.76343054 0.8024531 0.49073607
0.56488085 -3.1601584 -15.3578615 -1.6816223 -0.382388 -0.97531426 -1.2778192 -1.5538541
0.3984803 10.311478 1.7294165 -1.6151261 5.862489 -0.31100556 -4.1652145 -13.58189
1.4995911 4.0695586 -3.246892 0.082284935 -7.295957 0.48898265 4.2826514 -13.677891
-1.1810646 -0.31392065 2.890522 -0.4348815 2.6389742 -1.8202021 -2.2010915 -0.35734934

lstm.weight_hh_l1 f4 [100, 25]
00000000: 4c49 21bd b4fa 223d 487e 47be 52a2 4bbe
00000010: a8a5 e03c 841d 06be 61a4 443e a3f7 26be
00000020: b014 043c f59c 3fbe 1038 b2bd fd7f f5bd
00000030: a610 8fbd 9ae1 ed3d 1d2a 3bbe a054 633c
00000040: da09 efbd a373 debd 1576 19be 90f5 d03c
00000050: 3a09 f0bd 9e32 983d 0030 9ab8 ea9f 05be
00000060: 4f55 3f3e c945 443e c2c3 1ebe 34ea 83bd
00000070: bee2 8d3d 7ed5 d83d d7d1 b2bd fb4b 1a3e
00000080: a237 c73d 91c2 4b3e 3db8 f2bd c4e8 0bbe
00000090: df7a 113e 3b91 0a3e d9af 2d3e 0502 2fbe
000000a0: 61a5 213e ad42 1ebe aef1 d33d 0e68 823d
000000b0: 2ac1 df3d b54b 46be f265 3cbe 91eb 063e
000000c0: 80f8 1cbd fdda 46be e148 103e 4039 f5bb
000000d0: 8092 ed3a 9a93 fdbd d43c 71bd d950 1e3e
000000e0: 7e0e f13d d073 f53c 1bac 46be b09b bdbc
000000f0: 6724 a4bd 19a0 083e 304e 88bc 8e5d 933d
00000100: f2d0 1cbe 5486 0b3d 17e5 353e 4d0a a5bd
00000110: 40bd fa3b f31d a8bd 43f9 ebbd 7c06 6a3d
00000120: 4a36 49be cf88 2fbe 4318 3b3e 4b9f 43be
00000130: 3cf1 6f3d 98c9 39bd 0feb 1b3e e0cb 9dbd
00000140: 0b95 0d3e 6875 f4bc 80a2 19bc fab9 90bd
00000150: 1885 0fbd 3d82 ffbd aae0 b2bd 9a3c a03d
00000160: 92b3 9f3d 3595 2cbe 3bf8 33be 36d9 08be
00000170: 7d8d 283e 8d75 153e fb1d 003e 309c 3bbc
00000180: b3ad 383e 5486 363d c894 02bd 167c b03d
00000190: b4e3 07be 6093 3f3c 6d11 123e 17dd cfbd
000001a0: c674 933d fddb d7bd fa4e e33d 9d5d 21be
000001b0: 2db4 2abe 2c74 29bd b4de 2b3d a05a 4ebd
000001c0: ed17 1e3e 7ec4 28be d0cc 4ebc 07e0 9fbd
000001d0: 0096 72ba e4df 693d 0311 b4bd ef40 213e
000001e0: 40f9 88bd 7068 b8bc 7de7 403e 705d c4bc
000001f0: 4132 2f3e 94d4 56bd f0dc b53c 12cd 943d
00000200: 8265 9d3d 8093 083b 7260 a83d 3dcb 373e
00000210: 436b 183e aad4 ffbd 2bfd 2bbe 16dd f73d
00000220: 601d 473d 4274 c03d 53cb e2bd b23e 18be
00000230: a08d 96bb a087 e13b 5e87 fa3d d2a5 14be
00000240: 3736 343e 50d8 55bc 4024 70bd 6a64 46be
00000250: 5fc1 2dbe cd67 0a3e 3100 133e 1599 2f3e
00000260: b4c2 10bd 3bcf 48be 4dff f5bd 5ec2 893d
00000270: be32 dd3d b641 d63d 6771 463e 98fe dfbc
00000280: 602c ea3b f401 06bd fdc6 30be b4a8 46bd
00000290: bd7d afbd 4549 27be 80f4 e13c e07c 7f3c
000002a0: ca57 98bd 60e5 28be 2705 0c3e 8594 16be
000002b0: ecdc 3c3d 6b40 3cbe 18c7 77bd 3324 acbd
000002c0: 003b 81bd 5fc7 31be 72fc 45be 69fd 163e
000002d0: 22b5 1bbe 4ead f33d 91c2 283e 75dd 3d3e
000002e0: 3533 48be e0f5 14bc 58ae 6fbd 6036 53bc
000002f0: b06d 0bbe 60dc 1abc eae3 0abe 1689 833d
00000300: 5dcc 07be d4dc 72bd 549f 533d e8c5 073d
00000310: c681 01be d0f8 f73c 2953 393e 6050 5c3c
00000320: a898 f53c 7a61 b8bd f259 d13d 7e59 c23d
00000330: 0d68 453e a8e6 f93c e0d9 10bc 8c7f 2e3d
00000340: 8784 b7bd 6005 3cbc 40a9 193b 6c3b 4dbd
00000350: 860b 90bd d6cc f33d 929d c03d b6b0 993d
00000360: 22a7 e13d c2f1 d63d 66cf 94bd 3f11 35be
00000370: 7c8b 703d 511c 233e a74f d0bd 185b ea3c
00000380: 20c2 08bc 60e6 7fbd 682c 47bd 1363 12be
00000390: 4ccc 753d d0f9 5c3c 5d7c 223e b65c 82bd
000003a0: 318a 443e 00ff 643c d637 fc3d cf34 123e
000003b0: cda3 efbd 4ca2 283d 80b8 3d3d 1be6 45be
000003c0: 9061 40be 7db6 29be 5afa b53d e0d6 16be
000003d0: 470f eebd 407e f53b decf 09be 51ec 263e
000003e0: caf9 04be 73c7 2cbe 508b 81bc eaf8 c8bd
000003f0: 2558 193e b022 28bc e069 7fbd 1a78 e6bd
-0.039376542 0.03978987 -0.19481766 -0.19886139 0.027422741 -0.13097197 0.1920333 -0.16305403
0.008061573 -0.18712218 -0.08702099 -0.119873025 -0.06985597 0.11615296 -0.18277784 0.013875157
-0.11671801 -0.108619 -0.14986451 0.025507718 -0.1172051 0.074315295 -7.352233e-05 -0.13049284
0.18684886 0.19167246 -0.15504363 -0.06441155 0.06928013 0.105875954 -0.0873143 0.15068047
0.09727408 0.1989844 -0.11851547 -0.13663012 0.14207028 0.13531964 0.16961612 -0.17090614
0.15785743 -0.15455122 0.10348831 0.06367503 0.10925515 -0.19364817 -0.18398264 0.13175799
-0.038322926 -0.19419475 0.14090301 -0.0074836314 0.0018125325 -0.123816684 -0.0588959 0.15460528
0.11770342 0.02996245 -0.1940159 -0.023145527 -0.08014756 0.13342322 -0.016638845 0.071955785
-0.15314081 0.034063652 0.17763172 -0.08058605 0.007651955 -0.08208837 -0.11522152 0.05713509
-0.19649616 -0.17142032 0.18270974 -0.19103734 0.05857967 -0.04535827 0.15226386 -0.07704902
0.13826387 -0.02984114 -0.009377122 -0.07066722 -0.035039037 -0.12476013 -0.087342575 0.07824059
0.07797922 -0.16853793 -0.17575161 -0.1336411 0.16460223 0.14595623 0.12511437 -0.011450812
0.18035011 0.0445617 -0.03188017 0.086174175 -0.13270456 0.011692852 0.1426446 -0.101495914
0.07200007 -0.10540006 0.11099048 -0.15758367 -0.16670294 -0.041370556 0.041960433 -0.050379395
0.15438814 -0.16481206 -0.012622073 -0.07806402 -0.0009253919 0.057098284 -0.08792307 0.15747426
-0.06688166 -0.022510737 0.18838306 -0.023970336 0.17109014 -0.052448824 0.022200078 0.072656766
0.07685377 0.002083987 0.082215205 0.17948623 0.14884667 -0.12491734 -0.16795795 0.12102716
0.048612 0.093971744 -0.11073937 -0.14867666 -0.0045945197 0.006882623 0.122328505 -0.1451638
0.17598806 -0.013052061 -0.05862832 -0.19374242 -0.16968296 0.1351616 0.14355542 0.1714824
-0.035341933 -0.19610302 -0.120115854 0.06726526 0.10800694 0.10461752 0.19379197 -0.02734308
0.007146403 -0.032716706 -0.17263408 -0.04850073 -0.085689045 -0.16336544 0.027582407 0.015593737
-0.074386194 -0.1649375 0.1367384 -0.14705093 0.046109125 -0.18383949 -0.060492605 -0.08405342
-0.063100815 -0.1736121 -0.19334581 0.14745106 -0.15205815 0.118982896 0.16480471 0.1854151
-0.19550784 -0.009091824 -0.058515877 -0.012891382 -0.13616061 -0.009451956 -0.13563505 0.064226314
-0.13261552 -0.05929263 0.05166562 0.033147722 -0.12647161 0.03027001 0.1809813 0.013446897
0.029980019 -0.09002967 0.10222234 0.094897255 0.19277973 0.030505493 -0.008841008 0.042602107
-0.089608245 -0.011475891 0.0023446828 -0.050105497 -0.07033448 0.11904304 0.09405054 0.07504408
0.11018206 0.104953304 -0.072661206 -0.1768236 0.058726773 0.1592877 -0.101714425 0.02860789
-0.008347064 -0.062475562 -0.048626333 -0.14295606 0.060009286 0.013487294 0.15867753 -0.063653395
0.19193341 0.013976812 0.12315337 0.14277957 -0.117011644 0.041170403 0.04631853 -0.1932606
-0.18787217 -0.1657352 0.088856414 -0.14730406 -0.11624008 0.007491857 -0.13458201 0.16301085
-0.12985912 -0.16872959 -0.0158135 -0.098131016 0.1497503 -0.010262176 -0.06235683 -0.11253376

lstm.bias_ih_l1 f4 [100]
00000000: 0214 483f 4b3c 8d3f e957 9d3f fe00 463f
00000010: 32cb 6d3f 16a3 063f fb6e 183f 4182 03be
00000020: 5f53 263f 7d16 ec3f 4fe0 1840 329d 143f
00000030: 8e2c 5c3f 066b 82be fb6a 633e 8d76 eb3f
00000040: e95b ea3f c5d9 c13f c5fa b43f 82be 073f
00000050: 7b1c ac3f 9422 523f d736 4f3f 9d5a 5f3e
00000060: 8d6e 5340 b0f6 d33c a017 27bd 2cab 55bd
00000070: 2054 1fbd f367 4bbe 20ca 60bc e295 3ebe
00000080: 532d c5bd ed17 d9bd 04aa 783d 34e5 1a3d
00000090: d60c 873d 4d60 263e a43c 5c3d 8d32 053e
000000a0: 75dd 023e 827d 843d b7f4 d5bd c813 39be
000000b0: 4bad 253e 35bb 0fbe d788 efbd 0a3b da3d
000000c0: 42cf 20be bad0 a93d c93f ddbe 66bd 48bf
000000d0: 0d82 d23e 98d7 02c0 ae84 27bf 5afe 2f3e
000000e0: 06e2 b7bd ed7b cf3e ad66 4dbd 0cc6 293e
000000f0: be95 2cbf 775a 49bf 9f99 de3e fa2a 6f3f
00000100: 63e3 f93e 755d 5fbc 528d 91bf 2efb 633f
00000110: c398 99bd 2f34 493f 0aee 53be 0554 53bf
00000120: 21fa 0c3f c3ed b6be e28e 0b3f 5768 1a3f
00000130: 8ffd 5540 2ab8 483f 8c91 9b3f a39a cabd
00000140: 18f5 953f f5d5 98bd 7463 8b3f 8a4e 983f
00000150: dbb5 ea3f cf58 473f 5f90 533f 5012 d5bd
00000160: f0ff a83e 4d91 55bd c04f 0e3f 0489 1140
00000170: 23d1 b83f 9470 3240 d3e4 cb3f 0fcc 163f
00000180: a1f1 913f 39ee 623f 7eed 10bf 619c bd3f
0.7815553 1.1034025 1.2292453 0.77345264 0.92888176 0.525926 0.5954434 -0.12842657
0.64970964 1.8444363 2.3886907 0.5805236 0.86005485 -0.25472277 0.22208779 1.8395554
1.8309299 1.5144583 1.4139029 0.53025067 1.3446192 0.8208401 0.80943054 0.2181191
3.3036225 0.025874466 -0.040794015 -0.052165195 -0.038898587 -0.19863872 -0.013720065 -0.18611863
-0.096277855 -0.106002666 0.060709015 0.03781624 0.06594245 0.16247673 0.05376877 0.13007565
0.12779792 0.06469251 -0.10447066 -0.18073952 0.16179387 -0.14036258 -0.11696022 0.10655792
-0.15704063 0.082917646 -0.43212727 -0.78414 0.41114846 -2.0444088 -0.6543683 0.17186871
-0.089786574 0.40524235 -0.050146747 0.16579455 -0.6741599 -0.78653663 0.4347658 0.9342495
0.48806295 -0.013633122 -1.1371253 0.89055145 -0.0749984 0.7859525 -0.20696273 -0.8255008
0.55069166 -0.35728273 0.54514897 0.6031546 3.343601 0.7840601 1.2153792 -0.09892776
1.1715422 -0.07462684 1.0889726 1.1898968 1.8336748 0.77869886 0.8264217 -0.104038835
0.33007765 -0.052140523 0.5559044 2.2739878 1.4438823 2.7881212 1.5929207 0.5890512
1.1401864 0.8864475 -0.56612384 1.4813348

lstm.bias_hh_l1 f4 [100]
00000000: 84e8 3a3f 8111 6e3f 072f 9a3f fced 5b3f
00000010: b889 593f 1366 e43e cb99 023f e025 b1be
00000020: 4d31 1c3f 270d dc3f ed6d 0d40 7007 1b3f
00000030: 4294 4b3f 4d9c efbd 73f2 d43e 8511 d23f
00000040: 199f fa3f 011c c23f fbc8 c93f 460c 2b3f
00000050: e5f7 aa3f fe6b 143f b364 723f 03b2 0f3e
00000060: 8b9a 5a40 1a12 85bd 2630 d53d d023 243c
00000070: 0086 14bb ba5d eb3d 0a88 8abd 106e c6bc
00000080: 80a5 0e3d a06c 78bd 4587 0f3e 6db8 1cbe
00000090: f639 2bbe 888f 23bd 421d 4bbe d328 b0bd
000000a0: 42db e43d 602b 0fbe e0ef 6fbd b48b 8ebd
000000b0: c55b 3b3e 4078 d73c 8253 a13d 4f5c 0b3e
000000c0: 0d9c 3fbe 8c13 6cbd b565 fabe 262d 56bf
000000d0: 6b06 e93e 6061 f0bf 309f 2abf 3a1d 853e
000000e0: 63c9 64bd 0cf5 a03d 4914 5abe 36c8 e43e
000000f0: bed5 59bf fd11 4ebf 773e a93e 484a 573f
00000100: ff9b 0f3f 65ca d53d c280 90bf c4b1 4e3f
00000110: 97e2 b6be 0986 483f 3f1f c0be ab40 25bf
00000120: 2d98 0f3f cec3 fbbe 148c 133f 81db 1a3f
00000130: 7dec 4740 6a53 183f 209c 933f c101 f33d
00000140: 20e9 9a3f 8b7b 9bbd af5c 833f eea6 a13f
00000150: d511 c73f 7ddf 273f 4fea 4f3f 2e8a 12be
00000160: d53b 3e3e 82c4 583d 6885 3f3f d202 1940
00000170: 7129 c63f c620 2e40 b5fa e63f e716 023f
00000180: 050c ad3f 2ad8 8a3f f638 0bbf 1ffc d33f
0.7301104 0.9299546 1.2045602 0.8591001 0.8497577 0.44609126 0.5101592 -0.3459921
0.6101273 1.7191514 2.2098343 0.60558224 0.795231 -0.11699734 0.41591224 1.6411597
1.9579803 1.5164796 1.5764459 0.668156 1.3356901 0.57977283 0.94684905 0.1403275
3.4156826 -0.06497593 0.10409574 0.010018304 -0.0022662878 0.11492486 -0.06764229 -0.024222404
0.0348258 -0.060650468 0.14016445 -0.15304728 -0.16721329 -0.039931804 -0.1983538 -0.086015366
0.111746326 -0.1398139 -0.058578372 -0.0696024 0.18296726 0.026302457 0.07877256 0.13609432
-0.18711872 -0.05763583 -0.4890572 -0.8366264 0.4551271 -1.8779716 -0.6664915 0.2599886
-0.05585612 0.07859239 -0.212968 0.44684 -0.8509177 -0.804962 0.3305547 0.8409772
0.56097406 0.10438994 -1.1289294 0.8074 -0.3571975 0.7832952 -0.3752384 -0.645518
0.56091577 -0.49172825 0.5763562 0.60491186 3.123809 0.5950228 1.153202 0.11865569
1.2102394 -0.07591923 1.026266 1.2629068 1.5552317 0.6557539 0.812169 -0.14310524
0.18577512 0.05292178 0.74812937 2.3907971 1.5481397 2.7207503 1.804526 0.50816196
1.3519293 1.0847218 -0.5438379 1.6561316

fc.weight f4 [52, 25]
00000000: 6159 3040 85e7 cec0 7c94 4240 663a 3b41
00000010: 36db acc0 1c81 0340 5c67 17c0 3247 a640
00000020: 8562 5b40 b561 60c1 7324 6bc0 2c20 95c0
00000030: 55fc 1c3f 10bf 683f 4704 2f41 7c85 dc40
00000040: 849e ffc0 095c 0c3f 3333 82c1 121d 6540
00000050: ea46 0ec1 d97a 0dc0 1fa8 43c0 cc64 ac40
00000060: 1fbb 90c0 6f4a 41c1 c795 d53f da22 23c0
00000070: 03ee 6fc0 8aac 513f 2e5e d3bf b63d 0ec1
00000080: 8fee a3bf 48ca 86c1 cf8c 4340 9441 fd3d
00000090: bd0f 223f cf21 54c0 712e 12c0 3261 7c3e
000000a0: 3f91 9140 f3b0 7340 4d1e 3240 fdd8 9f40
000000b0: 91b4 80c0 ce96 cec0 27ae 0f3f 3c06 5240
000000c0: 47d7 30bf 4402 bd3f 1aca 2640 20a3 0d40
000000d0: 961b 723d b236 12be a36f 09be a3f6 0c40
000000e0: 73a4 ffbf de22 bd40 f0fc 6940 8b49 5a40
000000f0: 9725 e340 4c32 d23e a52b bac0 8907 90bf
00000100: 3238 313f 0a5f 96bf 4bbf 503f b801 5240
00000110: affb dbbf 4bed d53f d5f4 c240 312b 1e40
00000120: 45c5 6cc0 6073 32bf 23e6 c33f f628 a93f
00000130: 78a2 e1be f30d 7bbf 3504 52c0 f310 ee3f
00000140: 2147 f93e 0e7d 2d3f ab49 54c0 fd1b 0141
00000150: 8d51 fd3f 7f9a 8640 5f70 65bf 414f fac0
00000160: 9076 11c0 6439 51bd e813 49bd 348c 4c40
00000170: f43f 7f40 a66c 0e40 a5a9 3bc0 ddad 01c0
00000180: a00c 5e40 04a2 b241 1fc6 b43e 28d7 1a3f
00000190: 5f0e 2240 c0be 3540 ac1d 6e3f 2d70 a03d
000001a0: abfe 3f3e d1dc 3f40 b6e2 ebbf fbae 9b40
000001b0: f621 5140 9ab2 2b40 952b 0341 7614 4dbe
000001c0: 5903 8dc0 c044 72c0 d842 683f 5a65 91bc
000001d0: c1d4 69bf ce34 6140 16e9 efbf a36e b740
000001e0: 0cf9 0541 5160 8740 ea9f 72c0 dafc cabe
000001f0: 2e67 e43f 4560 72c1 3ad8 913f 19eb c540
00000200: 3bff 8e40 83ca 3e41 23e9 4740 18d4 db41
00000210: b585 6ac0 c347 54c1 5c77 8d3f 0b3e 8ebf
00000220: 3171 9440 c8fa d8c0 3f02 f4c0 c897 bb3e
00000230: fa94 62c0 9d3a c93f 85f0 4cbf 5670 ea3f
00000240: b0d5 48be 72dd c0c0 260d 9e40 da05 79c2
00000250: c1fa e0be 67d0 963f 3221 8ec0 5d3c ddbe
00000260: 266a 063f f651 fdbf 28be 9fbf 60cf ce3f
00000270: a032 dcbf f7db 08c1 2ba8 3bbf 4599 0240
00000280: 8c7f bf3f 3d13 a63e b6df 943f 1971 a63f
00000290: 7a8f 88be 87ea e53f 8a4b 3840 3ebb 3e40
000002a0: 3313 4dbe bdbb 76bf 63ac 1b40 2dce 02c0
000002b0: f2eb d0c0 5020 22bf 74ee 6ebe fc39 31c1
000002c0: 3422 75bf e6bd 033f a473 e33f 013a 033c
000002d0: 8afc 88c0 7910 54c0 1c15 1ec0 59b9 a2bf
000002e0: cb05 55c0 23bc babd 5a6b 8cbe 054f a0bf
000002f0: 9b31 26c2 c8b4 6bc1 4400 75bf c8d0 f5bf
00000300: 12bc e1c0 9c0a 323e 5b15 2240 3b3f 4940
00000310: 9033 9f3f f850 13be d59d 02c1 0d0c b640
00000320: 98ec 0a42 e37c b53f 6ad9 193f c326 a040
00000330: 57d0 12c0 0f2a 9fc0 47d2 9a40 b46d 5a3f
00000340: 7a57 5fbe 74bb 2ec0 1c30 88bf 203f d0bf
00000350: e3ff c73f 3833 a0c0 c964 f63f f46b 0f40
00000360: c6d9 0ebf df72 78bf c2fb 9340 16b1 093f
00000370: 5e47 e43f b6e0 99c0 eff9 1f40 f219 77c0
00000380: 18ab 05c1 57f9 8fc0 4716 8cbe 3dc3 01bf
00000390: 8e33 e83e e085 00be d853 aec0 cb9f 1141
000003a0: 26b2 bbbf cf2b 02c0 0560 17c0 b002 8abf
000003b0: 70ea 35bf bab4 2b41 e350 dcc1 4576 6140
000003c0: 2ca0 9bbd aa49 703f bd67 71c0 491b 8b3f
000003d0: 8a7a a7be 9a75 2c3f 1913 0ac0 3c2b 32bf
000003e0: a014 c540 9c00 7f40 22c3 1ec0 2361 f3be
000003f0: d6df 85bf 1539 bdc0 fa9b 1d3f e3d7 8fbf
2.7554553 -6.4657617 3.0403128 11.701757 -5.401759 2.0547552 -2.3656836 5.196191
3.4278882 -14.023854 -3.6740997 -4.660177 0.6132253 0.9091654 10.938544 6.8912945
-7.9881 0.54827935 -16.275 3.5798993 -8.892313 -2.210623 -3.0571363 5.3873043
-4.522842 -12.080672 1.6686333 -2.5490022 -3.748902 0.819039 -1.6513116 -8.890066
-1.2807177 -16.84877 3.0554693 0.12366024 0.63305265 -3.3145635 -2.2840846 0.24646452
4.54898 3.8076751 2.7830994 4.995238 -4.022042 -6.455909 0.5612511 3.2816305
-0.6907849 1.4766316 2.6060853 2.2130814 0.05910834 -0.14278677 -0.13421492 2.2025535
-1.9972061 5.9105062 3.656063 3.4107387 7.0983386 0.41053998 -5.8178277 -1.12523
0.6922637 -1.1747754 0.8154189 3.281355 -1.7186183 1.6713041 6.0923867 2.4713862
-3.6995404 -0.697073 1.5304607 1.3215625 -0.44069266 -0.9806816 -3.2815068 1.8598922
0.4868708 0.67768943 -3.3169963 8.069333 1.9790512 4.2063594 -0.8962459 -7.8221745
-2.2728615 -0.051080123 -0.04909125 3.1960573 3.9882784 2.2253814 -2.9322293 -2.0262368
3.4695206 22.32911 0.35307404 0.6048455 2.5321271 2.8397675 0.93014026 0.07833896
0.18749492 2.9978526 -1.8428562 4.86511 3.2676978 2.682776 8.19814 -0.20027336
-4.4066586 -3.7854462 0.90726995 -0.017748524 -0.9134026 3.518848 -1.8743007 5.7322555
8.373302 4.2305074 -3.7910104 -0.39646035 1.7843988 -15.148503 1.1394112 6.1849484
4.468656 11.924441 3.1236045 27.478561 -3.6644108 -13.26752 1.105205 -1.1112684
4.6388173 -6.780613 -7.625274 0.36639237 -3.5403428 1.5721012 -0.80054504 1.8315532
-0.19612765 -6.027032 4.939105 -62.255714 -0.4394131 1.1782349 -4.441552 -0.43210116
0.5250572 -1.9790637 -1.2479906 1.6157036 -1.720295 -8.553702 -0.7330348 2.0406048
1.4960799 0.32436553 1.1630771 1.3003265 -0.26671964 1.7962197 2.8796105 2.9801784
-0.20026855 -0.96380216 2.4323967 -2.043834 -6.528802 -0.63330555 -0.2333315 -11.076656
-0.95755315 0.5146164 1.7769666 0.008009435 -4.2808275 -3.3135054 -2.4700384 -1.2712814
-3.3284786 -0.091179155 -0.27425653 -1.2524115 -41.548443 -14.731636 -0.9570353 -1.920434
-7.054208 0.1738686 2.5325534 3.1444843 1.2437611 -0.14386356 -8.163533 5.688971
34.73105 1.4178737 0.6009737 5.0047317 -2.293966 -4.973884 4.8381686 0.85323644
-0.21810713 -2.7301912 -1.0639682 -1.6269264 1.5624965 -5.0062523 1.9249507 2.240964
-0.55801046 -0.9705028 4.624482 0.53785837 1.783428 -4.8086805 2.4996297 -3.8609586
-8.354271 -4.499187 -0.27360746 -0.50688535 0.45351833 -0.1255107 -5.447735 9.101512
-1.4663742 -2.0339239 -2.3652356 -1.078207 -0.7106085 10.731623 -27.539495 3.5228436
-0.0759891 0.938624 -3.7719567 1.0867702 -0.32710677 0.67366946 -2.1574156 -0.6959722
6.1587677 3.9844122 -2.48066 -0.47535047 -1.0458934 -5.913218 0.61566126 -1.1237758

fc.bias f4 [52]
00000000: 0f28 dbbf f8ee 4ac0 843f 913f 077e 74bf
00000010: eb5d 9a3e e3a4 bebf 8020 143f e1f7 75c0
00000020: 2391 913e 273c 3abf 64e2 00be 38ce bc3e
00000030: dd70 ea3e ede5 3440 9356 0fbe 2342 c43f
00000040: e326 fcbf eb73 e83f d0ec b2bf 6314 0b3f
00000050: a984 373f 41cf 463f 5fdd cf3f 078d 2dc0
00000060: 5d9b 03be 90bb 52be ad47 85be 4b2a 4d3f
00000070: 7b5b 0ac0 4373 13c0 6bca 4abf 33fc a0be
00000080: d372 93bf a2cc ccbf 415a 1840 0739 a1be
00000090: 9571 bbbe a478 be3f b6ea b43f 24b7 62c0
000000a0: f5b0 9c3f a231 84bc 8dd7 7e3f d545 efbe
000000b0: 9e37 943f 77cc 1540 90fc ec3f 8b10 8b3f
000000c0: 8043 223f 69cf 9b3e 90db c1bf a055 55c1
-1.71216 -3.1708355 1.1347508 -0.955048 0.3014978 -1.489407 0.5786209 -3.8432543
0.28431043 -0.72748035 -0.12586361 0.36876082 0.45789233 2.8265336 -0.13997869 1.5332683
-1.9699367 1.8160375 -1.397852 0.5432798 0.716868 0.77659994 1.6239432 -2.7117326
-0.12852235 -0.20579362 -0.26031247 0.8014266 -2.1618335 -2.30391 -0.79215115 -0.31442413
-1.1519417 -1.5999949 2.3805087 -0.3148882 -0.36610094 1.4880567 1.4134128 -3.542428
1.2241503 -0.016136948 0.99547654 -0.46732965 1.1579473 2.3406045 1.8514576 1.0864424
0.63384247 0.3043168 -1.514513 -13.333405
