rule_based_lstm_model.pth (torch, 809372 bytes, 42 tensors)

lstm.weight_ih_l0 f4 [200, 13]
0	0x3ffc70f9	1.9721977
1	0x3e80aeb9	0.25133303
2	0xbe447581	-0.19185449
3	0xbea657af	-0.32488772
4	0xbe1b5f3d	-0.1517305
5	0x3ea0e9b4	0.314283
6	0x3f1af49f	0.6052951
7	0x3f5fe113	0.8745281
8	0x3e1ad9d1	0.15122153
9	0xbf19e4a5	-0.6011451
10	0xbfa0df6d	-1.2568184
11	0x3ed93863	0.42425832
12	0xbf5f01db	-0.87112206
13	0x3fe273f6	1.7691638
14	0x3e63e35d	0.22254701
15	0xbf344265	-0.7041381
16	0xbf1c28b6	-0.6099962
17	0xbee8f91f	-0.45502564
18	0x3f38e7af	0.7222852
19	0x3f25bbeb	0.64739865
20	0x3f08fc34	0.5350983
21	0x3e55e859	0.20889415
22	0x3f859a52	1.043772
23	0x3f49ac40	0.7877846
24	0xbeb28eea	-0.3487466
25	0xbe189916	-0.14902148
26	0x3ee1b12a	0.44080478
27	0x3e9ea751	0.30987027
28	0xbfc83721	-1.5641824
29	0xbfccb528	-1.5992785
30	0xbf18980e	-0.5960702
31	0x406b33f1	3.6750453
32	0x3f8c85d7	1.0978345
33	0x3f691749	0.91051155
34	0x3f3e54f4	0.7434838
35	0xbebe55cb	-0.3717483
36	0xc0279175	-2.618253
37	0xbd7d3e69	-0.061827097
38	0xbe5ac473	-0.21364002
39	0xbf25ca5f	-0.6476192
40	0xbffd3ce6	-1.978421
41	0xbf8f8fc8	-1.1215754
42	0xbfbc9eb6	-1.4735935
43	0xbf2e52c9	-0.6809507
44	0xbf37ea38	-0.71841764
45	0x3e7d34de	0.24727198
46	0x3f056bab	0.52117413
47	0x3db2deee	0.08733927
48	0x3ec1cbfb	0.37850937
49	0xbf55be66	-0.8349365
50	0x3da01bfe	0.07817839
51	0x3c815de6	0.015791845
52	0xbfb6d4fd	-1.4283749
53	0xbed0a725	-0.4075252
54	0xc005c880	-2.0903625
55	0xbf91a68b	-1.137895
56	0xbf660e96	-0.89866006
57	0xbf3d321c	-0.73904586
58	0x3e6af2dc	0.22944206
59	0x3ea06dd2	0.31333786
60	0x3e40c49a	0.18824998
61	0x3f6807f8	0.9063716
62	0xbfc0cd66	-1.5062683
63	0x3f48fa52	0.7850696
64	0xbf11edf6	-0.57003725
65	0x3feb2c54	1.8372903
66	0xbf1c4910	-0.61048985
67	0xbe5e7a5c	-0.21726364
68	0xbecca0af	-0.39966342
69	0x3dbd2043	0.09234669
70	0xbec6303c	-0.38708675
71	0x3ee9719d	0.45594493
72	0x3e9855d0	0.2975297
73	0xbef45920	-0.47724247
74	0xbf8bb16e	-1.0913522
75	0xbf3a9a40	-0.72891617
76	0x3eb84a1c	0.3599404
77	0xbec91a21	-0.39277747
78	0x4010185e	2.2514873
79	0xbf51e6dc	-0.8199289
80	0xbe620282	-0.22071269
81	0x3cbecff8	0.023292527
82	0xbef1382e	-0.47113174
83	0xbdd86eb7	-0.10567992
84	0x3e86dfdf	0.26342675
85	0x3f0f3996	0.55947244
86	0x3ea10304	0.31447613
87	0x3edc2f73	0.4300495
88	0xbf58f5ef	-0.84750265
89	0xbee77b81	-0.45211414
90	0x3ebcab2b	0.3684934
91	0xc163f55a	-14.2474
92	0xbe28b8b5	-0.1647671
93	0x3ef0c442	0.47024733
94	0xbf1323b4	-0.57476354
95	0xbe0d05a5	-0.13771684
96	0xbe0309d6	-0.12796721
97	0x3f7aa020	0.9790058
98	0x3c95d724	0.018291064
99	0x3d097e5e	0.03356778
100	0xbe94989d	-0.29022685
101	0x3e5a8bc7	0.21342383
102	0x3e394332	0.18092039
103	0xbdafaa1d	-0.085773684
104	0x3fe58ce9	1.7933627
105	0x3f18aac5	0.59635574
106	0xbf136c92	-0.5758754
107	0xbf51d8b5	-0.81971294
108	0xbdbdc342	-0.09265758
109	0xbf57b36f	-0.8425817
110	0x3fd18c2d	1.6370903
111	0x3f60912e	0.87721527
112	0x3f0cdfb8	0.5502887
113	0xbf015d04	-0.50532556
114	0xbfeb2d1d	-1.8373142
115	0x3e4c7032	0.19964674
116	0xbf245d40	-0.6420479
117	0xc00cda22	-2.2008138
118	0x3ee01727	0.43767664
119	0x3f1bc186	0.6084217
120	0x3f521d89	0.8207632
121	0x3f0f3ac1	0.55949026
122	0x3f01290f	0.50453275
123	0xbf6ee173	-0.9331276
124	0xbf9f63e5	-1.245236
125	0xbf052c84	-0.5202105
126	0x3f3320b6	0.6997179
127	0x3f9a44b9	1.2052222
128	0x3f1a76cf	0.6033754
129	0x3e093fcc	0.13403243
130	0x3e876078	0.26440787
131	0xbf341cbb	-0.7035634
132	0xbfacf20c	-1.3511367
133	0xbeeaab3d	-0.4583377
134	0x3d7d7401	0.061878208
135	0x400b6841	2.1782382
136	0x3f0786de	0.52940166
137	0x401a77ef	2.4135702
138	0x3f571d90	0.84029484
139	0x3f3407c2	0.7032434
140	0x3f24278a	0.6412283
141	0xbea9d8b9	-0.3317316
142	0x3e8e13ab	0.2774938
143	0x401313cb	2.298083
144	0xbeca5b2e	-0.3952269
145	0xbeedd603	-0.4645234
146	0xbe401376	-0.18757424
147	0xbe03ccc2	-0.12871078
148	0xbe23bccf	-0.15989994
149	0x3ec953ea	0.39321834
150	0x3ed8af05	0.4232103
151	0x3f0a7e79	0.5409923
152	0x3d8c38a9	0.068467446
153	0x3fc887e5	1.5666472
154	0xbf515ad1	-0.817792
155	0x3e1c5eb7	0.15270506
156	0x3d0d4f63	0.034499537
157	0xbee6b1e0	-0.45057583
158	0xbf411954	-0.7542927
159	0xbf8ecca6	-1.1156204
160	0xbf0fbbf8	-0.5614619
161	0x3d1c8842	0.038215883
162	0x3f257a7b	0.64640015
163	0x3fac43db	1.3458208
164	0x3f307305	0.68925506
165	0xbece906f	-0.4034457
166	0x4005a31f	2.0880811
167	0x3edafdeb	0.4277185
168	0xbec1f97f	-0.37885663
169	0x3ff9f140	1.9526749
170	0xbf9f532f	-1.2447261
171	0xbdd1b689	-0.10239894
172	0xbd5348d0	-0.05158311
173	0x3deade49	0.11468179
174	0x3f5c4006	0.8603519
175	0x3fb639c9	1.4236385
176	0x3fa8da96	1.3191707
177	0x3f619314	0.8811505
178	0x3dc48e09	0.095974036
179	0xbf262d28	-0.6491265
180	0xbf11d37f	-0.5696334
181	0x3ec4ec5a	0.38461572
182	0x40053cfc	2.0818472
183	0x3e5e8e1d	0.217339
184	0xbe885463	-0.26626882
185	0xbdc891aa	-0.09793408
186	0xbda8d959	-0.08244581
187	0x3ea8f7d1	0.3300157
188	0xbf172daf	-0.5905408
189	0xbe8f17c0	-0.27947807
190	0x3da4f09e	0.080537066
191	0x3f561977	0.83632606
192	0x400ed4c5	2.2317364
193	0x3d1e9f31	0.038726036
194	0xbf051f67	-0.5200104
195	0x3fa2b941	1.2712785
196	0xbf73dff2	-0.9526359
197	0xbf1607ca	-0.58605635
198	0x3ebdc99b	0.37067875
199	0xbf1abc4b	-0.6044356
200	0xbdb00e51	-0.08596481
201	0xbee6b9f3	-0.45063743
202	0x3fb069e8	1.378232
203	0xbed32202	-0.41236883
204	0x3e2c46b6	0.16823849
205	0x3feaa61f	1.8331946
206	0x3f36174a	0.71129286
207	0x3f06b449	0.52618843
208	0x40135f24	2.302682
209	0xbe90113f	-0.28138158
210	0xbe8012c7	-0.25014326
211	0xbe8a391f	-0.26996705
212	0xbe5fb70a	-0.21847168
213	0xbe3ddbcf	-0.18540882
214	0x3f6ca77f	0.9244308
215	0x3f34b48b	0.70587987
216	0xbf2271f0	-0.63455105
217	0xbf3abbb3	-0.72942656
218	0xbfc12d81	-1.5092012
219	0xbe8921a0	-0.26783466
220	0xbf10d98c	-0.5658195
221	0x400b4039	2.1757948
222	0xbf0c6c84	-0.5485308
223	0xbf047f2d	-0.51756555
224	0xbf11ee57	-0.570043
225	0xbde8f787	-0.11375337
226	0xbcd1dc81	-0.02561784
227	0x3f0b295c	0.54359984
228	0x3f1c6d07	0.6110386
229	0x3f0a6d0f	0.5407266
230	0xbe21a037	-0.15783773
231	0x3f4acaf9	0.7921596
232	0x3f9d2984	1.2278295
233	0x3decfe84	0.115719825
234	0xbf93a5da	-1.1534989
235	0xbfc32255	-1.5244852
236	0xc02c3133	-2.690503
237	0xbfeb3afc	-1.8377376
238	0xbf9bba93	-1.2166313
239	0xbf7c8d52	-0.9865314
240	0x3eb61da5	0.35569492
241	0xbe812d30	-0.25229788
242	0x3e7d66aa	0.24746194
243	0x3fccd076	1.6001117
244	0x3fdeb528	1.7399035
245	0x40119910	2.2749672
246	0x3e524beb	0.20536773
247	0xc045eddb	-3.0926425
248	0x3f81226d	1.0088631
249	0x3fafebb0	1.3743801
250	0xc01f6cbf	-2.4910123
251	0xbf99e63b	-1.2023386
252	0xbecb1fd7	-0.3967273
253	0x3ebccb01	0.3687363
254	0xbd827692	-0.06370272
255	0x3e729e69	0.23693241

lstm.weight_hh_l0 f4 [200, 50]
0	0xbdb7c6b7	-0.08973449
1	0xbbc800e0	-0.00610362
2	0x3d5d20e4	0.053986445
3	0x3dede7f2	0.11616506
4	0xbe012d13	-0.1261485
5	0xbd17f6ae	-0.037100486
6	0xbe0405c8	-0.1289283
7	0x3db8fa8c	0.09032163
8	0x3de9786e	0.11399923
9	0xbdc00ea6	-0.09377794
10	0x3d3f0018	0.04663095
11	0xbcc2cd84	-0.023779638
12	0xbc3c0ba0	-0.011477381
13	0xbd1dd796	-0.038535677
14	0xbded5d94	-0.11590114
15	0xbbedecc0	-0.007260889
16	0x3de03f1e	0.10949539
17	0x3dd97b86	0.10619263
18	0x3dc3c0a0	0.09558225
19	0xbdc56dc2	-0.09640075
20	0xbcedc560	-0.02902478
21	0x3e037f85	0.12841614
22	0x3e01f043	0.12689309
23	0x3ba2d840	0.0049696267
24	0xbd367184	-0.04454185
25	0xbd2e9bca	-0.04262904
26	0x3d1ecf20	0.03877175
27	0xbcf90c00	-0.03040123
28	0x3de978b6	0.11399977
29	0xbd050d08	-0.03248313
30	0xbd9659e7	-0.07341366
31	0xbdab8e6a	-0.08376773
32	0xbc035850	-0.008016661
33	0x3e106a93	0.14103155
34	0xbdff267b	-0.124585114
35	0xbde277e4	-0.110580236
36	0xbd970580	-0.07374096
37	0xbca31bdc	-0.019910745
38	0xbc572e30	-0.013133571
39	0xbd5d7bd6	-0.054073177
40	0x3d443858	0.047905296
41	0xbdd098c7	-0.1018539
42	0xbe0a17e4	-0.13485676
43	0xbd1c1e70	-0.038114965
44	0xbd16d77a	-0.03682659
45	0x3d41c1b4	0.04730387
46	0x3d368928	0.044564396
47	0xbbcd9bc0	-0.0062746704
48	0xbd563d9c	-0.05230485
49	0xbdc2237d	-0.09479425
50	0x3d3ff3e8	0.046863467
51	0xbdb237ae	-0.08702026
52	0xbd48ccfc	-0.049023613
53	0x3d934b78	0.07192129
54	0xbcee5b30	-0.029096216
55	0xbd3c7702	-0.046011932
56	0x3dc577e4	0.09642008
57	0x3e01ef1f	0.12688874
58	0x3ddb0e60	0.10696101
59	0xbd48ae8c	-0.048994586
60	0xbd969fdc	-0.073547095
61	0x3e1047cd	0.1408989
62	0xbde79688	-0.113080084
63	0xba9c8680	-0.001194194
64	0x3dd69ed4	0.10479513
65	0x3d8590b4	0.065217406
66	0xbdf3d953	-0.11906686
67	0xbd9afc5d	-0.07567666
68	0x3d646608	0.055761367
69	0xbc23d0b0	-0.009998485
70	0x3e0aef7d	0.1356792
71	0x3e0b0d79	0.13579358
72	0xbd80d376	-0.06290333
73	0xbb1eddc0	-0.002424106
74	0xbd9fdd7f	-0.07805919
75	0xbde1fe4e	-0.11034833
76	0xbe09f50a	-0.13472381
77	0xbd5c5fb8	-0.053802222
78	0x3ddeb83e	0.10874985
79	0x3b932e20	0.0044915825
80	0x3db5f53a	0.08884664
81	0x3cb7ca70	0.022435397
82	0x3e0d24db	0.1378359
83	0xbd98a083	-0.0745249
84	0x3ccbdd48	0.024885789
85	0x3dd01c9e	0.10161708
86	0xbd87eb03	-0.06636622
87	0xbdace260	-0.08441615
88	0x3d2a4e40	0.04157853
89	0x3e0a4da9	0.13506187
90	0x3dbf16a8	0.09330493
91	0xbd954e75	-0.07290355
92	0xbda2710f	-0.079317205
93	0xbe04ba75	-0.12961753
94	0x3dc26450	0.09491789
95	0xbe0f21b1	-0.13977696
96	0x3df4676e	0.1193379
97	0x3d7b84ac	0.061405823
98	0x3dc3823e	0.09546326
99	0xbd171ad8	-0.036890835
100	0x3d72a33c	0.059237704
101	0x3e04eb63	0.12980418
102	0xbd95dda5	-0.07317666
103	0xbb701b00	-0.0036637187
104	0xbdcb87a0	-0.09937978
105	0xbcf5bbf8	-0.029996857
106	0xbda7553f	-0.08170556
107	0xbe0376df	-0.12838314
108	0xbc053740	-0.008130848
109	0x3828d000	4.0248036e-05
110	0x3dafbab4	0.08580533
111	0x3e05b9bf	0.13059138
112	0xbc3dae50	-0.011577204
113	0x3db4d23a	0.0882916
114	0x3d64d960	0.055871367
115	0x3d7f6814	0.062355116
116	0xbddab509	-0.10679061
117	0xbe01d90e	-0.12680456
118	0x3df0848a	0.1174403
119	0xbda16fe9	-0.07882673
120	0x3dde13ae	0.10843597
121	0x3df733be	0.12070416
122	0xbd8ef94a	-0.06981142
123	0x3e09fdb9	0.13475694
124	0x3ce3ca50	0.027806431
125	0x3d9f7684	0.07786277
126	0x3d048970	0.032357633
127	0x3dd9d22e	0.10635792
128	0x3c35ae00	0.011088848
129	0xbdb83890	-0.089951634
130	0xbd1d7a8c	-0.038446948
131	0x3cb88cf0	0.022528142
132	0x3d017508	0.03160575
133	0x3e06c6ef	0.13161825
134	0x3d8a7924	0.06761387
135	0xbd98c68c	-0.07459745
136	0x3d41ea5c	0.047342643
137	0xbd92511e	-0.07144378
138	0xbc487e10	-0.012237087
139	0x3d77c820	0.06049359
140	0x3dd68dc6	0.1047626
141	0x3df72c72	0.12069024
142	0x3d8d531a	0.06900616
143	0x3da8e1ce	0.08246194
144	0x3dd68128	0.10473853
145	0xbcca659c	-0.024706654
146	0x3d0a13cc	0.033710286
147	0x3d83a3ae	0.06427704
148	0xbd1693ca	-0.036762036
149	0xbd172d9e	-0.03690874
150	0xbd23dfb6	-0.04000827
151	0xbc749770	-0.014928684
152	0xbd798c8e	-0.06092506
153	0x3dce029a	0.1005909
154	0x3d67a584	0.056554332
155	0x3e0afc91	0.13572909
156	0x3db81a20	0.08989358
157	0x39ed4200	0.00045253336
158	0x3df0a586	0.11750321
159	0x3c7a00d0	0.015258983
160	0xbd8c07b8	-0.0683741
161	0x3dffd73a	0.12492223
162	0x3dfe29b6	0.124102995
163	0xbc93daa8	-0.0180486
164	0xbd1e9b4c	-0.03872232
165	0xbdeb3e95	-0.11486546
166	0xbd368e16	-0.044569097
167	0xbe03965b	-0.12850325
168	0x3dc8fefc	0.098142594
169	0xbcbf096c	-0.023319922
170	0x3d031a3c	0.03200744
171	0x3dae0ce6	0.08498554
172	0xbcd93894	-0.026516236
173	0xbdf071b4	-0.11740437
174	0x3d853fa0	0.06506276
175	0x3dad11d2	0.084506646
176	0x3df16362	0.11786534
177	0xbe0d5a2b	-0.13803928
178	0xbdcfcbc7	-0.10146289
179	0xbdb804ec	-0.08985314
180	0x3dcdf7c0	0.1005702
181	0xbd1f3f8a	-0.038878955
182	0x3c55a900	0.013040781
183	0x3ddedb12	0.10881628
184	0x3d6a3654	0.057180718
185	0x3c313f90	0.010818377
186	0xbdc33fe3	-0.0953367
187	0x3dc91a18	0.0981943
188	0xbd61283c	-0.05497001
189	0x3dfccd3a	0.12343831
190	0xbdeac27e	-0.11462878
191	0x3dc2b790	0.09507668
192	0xbdaf2616	-0.08552186
193	0xbd3ec3bc	-0.046573386
194	0xbd8a0f9a	-0.06741257
195	0x3daaa16a	0.083315685
196	0x3dfdaa92	0.12386049
197	0xbe049ad6	-0.1294969
198	0xbd8b80df	-0.068116896
199	0xbdcc9424	-0.09989193
200	0x3db8f572	0.0903119
201	0x3e0638f5	0.13107665
202	0xbe02a2e3	-0.12757449
203	0x3c4947a0	0.012285143
204	0xb8238000	-3.8981438e-05
205	0xbc64c7d0	-0.013963655
206	0xbd945fd1	-0.07244838
207	0x3c6ac2a0	0.014328629
208	0xbdd765e0	-0.10517478
209	0x3a7c8a00	0.0009633601
210	0xbe0447b0	-0.12917972
211	0xbce5f940	-0.028072953
212	0xbd114538	-0.035466403
213	0xbd85ae16	-0.06527345
214	0x3c2afc20	0.010436088
215	0x3e0b7937	0.13620459
216	0x3d977ef4	0.07397261
217	0x3df876b6	0.12132017
218	0x3c1c48a0	0.0095387995
219	0x3df8c56a	0.12147029
220	0x3d8d5236	0.06900446
221	0x3db763fa	0.08954616
222	0xbcf22964	-0.029560752
223	0xbd913301	-0.07089806
224	0xbc85b780	-0.016322851
225	0xbca8f790	-0.02062586
226	0x3dc8b172	0.0979947
227	0x3dd665c2	0.104686275
228	0x3cedb3e0	0.029016435
229	0x3dfa3826	0.12217741
230	0xbdfba32c	-0.12286982
231	0xba476200	-0.00076058507
232	0x3d058fe4	0.032607928
233	0xbdb5ee26	-0.08883314
234	0xbbd99a80	-0.0066407323
235	0x3c209050	0.009800032
236	0xbd359506	-0.044331573
237	0x3d83c616	0.06434266
238	0x3d3e130c	0.046404883
239	0x3cfecc48	0.031103268
240	0xbdb965f9	-0.09052653
241	0x3df05182	0.117342964
242	0x3bef48c0	0.0073023736
243	0x3d793d1c	0.060849294
244	0x3d8c77e4	0.06858805
245	0x3db167c2	0.08662368
246	0xbe03f8ec	-0.12887925
247	0x3c553840	0.013013899
248	0xbbea3540	-0.007147461
249	0x3c69ebd0	0.0142774135
250	0x3dbde538	0.09272236
251	0x3d028ca8	0.03187242
252	0xbdc1531f	-0.09439682
253	0x3d0b2484	0.03397037
254	0x3d9449cc	0.07240638
255	0xbe09f1ba	-0.13471118

lstm.bias_ih_l0 f4 [200]
0	0xbf2e2c2b	-0.68036145
1	0xbe655ddb	-0.22399084
2	0xbe1e8c58	-0.15483224
3	0xc00429df	-2.0650556
4	0x3fc26304	1.5186467
5	0xbf4bd911	-0.7962809
6	0xbd3b276c	-0.045691893
7	0xbe69aa25	-0.22818811
8	0x3f284f00	0.65745544
9	0xbf39dc5d	-0.7260187
10	0xbec55022	-0.385377
11	0xbf0c856d	-0.5489109
12	0xbee77516	-0.45206517
13	0x3b72d42c	0.0037052734
14	0xbef0f838	-0.47064376
15	0xbf6f326f	-0.9343633
16	0x3e206135	0.15662082
17	0xbf3869cf	-0.7203645
18	0x3f2d5fa5	0.67724067
19	0x3f15c811	0.585084
20	0xbf9ca070	-1.2236462
21	0x3f8e2f38	1.110816
22	0xbf563f76	-0.83690584
23	0xbe1e620b	-0.15467088
24	0x3bbdf61c	0.005797161
25	0xbe8ff4cc	-0.28116453
26	0xbf076a69	-0.52896744
27	0xbef51f2c	-0.47875345
28	0x3e206612	0.15663937
29	0xbf73bf38	-0.9521365
30	0xbf0347bf	-0.5128135
31	0x3eb46d97	0.3523986
32	0xbf4024e1	-0.7505627
33	0xbf9eb5e6	-1.2399261
34	0xbedd28c3	-0.4319516
35	0xbe8665df	-0.26249596
36	0xbecdf1a3	-0.40223417
37	0xbf41ddd8	-0.7572913
38	0xbf556dc5	-0.8337062
39	0xbd891d95	-0.066950954
40	0xbed9ed69	-0.42563942
41	0xbf706460	-0.9390316
42	0xbf8db98b	-1.1072248
43	0xbe10d509	-0.14143766
44	0xbf34bcf5	-0.70600826
45	0x3f388f5f	0.72093767
46	0xbf2a9918	-0.6663985
47	0xbfcf4b00	-1.6194763
48	0xbe80b9bc	-0.25141704
49	0x3f898063	1.0742306
50	0x3d8e4a1a	0.069477275
51	0x3d33def4	0.043913797
52	0x3d671b30	0.056422412
53	0x3e01a07d	0.12658878
54	0x3dc9b4de	0.09848951
55	0xbe0f4cda	-0.1399416
56	0xbd0936ca	-0.033499517
57	0x3e0b5b3d	0.13609023
58	0xbaa38480	-0.0012475401
59	0x3debd662	0.115155
60	0xbda8e89e	-0.08247493
61	0xbc70a350	-0.014687374
62	0x3cb545c0	0.022127986
63	0xbcee006c	-0.029052936
64	0xbdc3c3e8	-0.095588505
65	0xbce9d55c	-0.02854412
66	0xbc31afd0	-0.01084514
67	0xbdadbd84	-0.08483413
68	0x3db229d4	0.08699384
69	0xbd8f753f	-0.07004785
70	0xbd9147b2	-0.07093753
71	0xbd6f01b0	-0.05835122
72	0x3d8a6640	0.06757784
73	0x3c3c4980	0.011492133
74	0x3cda7420	0.0266667
75	0x3d8809bc	0.06642482
76	0x3d1cbbe0	0.03826511
77	0xbdfeacc7	-0.124352984
78	0x38c8f800	9.582937e-05
79	0xbc85ab48	-0.016317025
80	0x3dbd64d0	0.09247744
81	0x3c956128	0.018234804
82	0xbce108fc	-0.027470104
83	0x3e0eb439	0.13935937
84	0x3d1b0a5c	0.037851676
85	0xbc9872a4	-0.018609352
86	0xbcd8c660	-0.02646178
87	0x3e01cb61	0.12675239
88	0xbd86a04c	-0.06573543
89	0xbd02d95e	-0.03194558
90	0xbd0c622c	-0.03427331
91	0xbd190fbe	-0.03736853
92	0xbcd314dc	-0.025766782
93	0xbca0c99c	-0.019627385
94	0xbd8ddb1d	-0.06926558
95	0xbe0ae0dd	-0.13562341
96	0xbbf471a0	-0.007459834
97	0x3b45ff00	0.0030211806
98	0xbdfe9ab4	-0.12431851
99	0xbbd71e00	-0.0065648556
100	0x3e8335d6	0.2562701
101	0x3f26c5f0	0.6514578
102	0xbf1ebd28	-0.6200738
103	0xbeadf934	-0.3397919
104	0xbf25f0cb	-0.64820546
105	0xbd238541	-0.039922003
106	0xbe8e783d	-0.2782611
107	0xc041f0dc	-3.030326
108	0x3f2def35	0.67943126
109	0xbebb051b	-0.36527333
110	0x3e6e9c71	0.23301865
111	0xbe5d6a83	-0.21622662
112	0xbf0c11da	-0.5471474
113	0xbe31ab9a	-0.17350617
114	0xbe0a78d6	-0.13522658
115	0x3ec6ff16	0.3886649
116	0x3f1d8ca6	0.6154274
117	0x3ef94dfd	0.48692313
118	0x3f9bf810	1.2185078
119	0xbf1af17b	-0.6052472
120	0x3ee7f7dd	0.45306292
121	0xbf289073	-0.6584541
122	0xbe18104f	-0.14849971
123	0xbe5f416d	-0.21802302
124	0x3f181ce2	0.5941907
125	0x406b820a	3.679812
126	0x3f295fed	0.66161996
127	0x3d1eb2b3	0.03874464
128	0xbec2c201	-0.38038638
129	0xbe87cd9e	-0.2652406
130	0xbefa86c9	-0.48930958
131	0xbf0423e1	-0.51617247
132	0xbdb2feb4	-0.08739987
133	0x3eb5b9a4	0.35493195
134	0x3e4bb347	0.19892608
135	0xbec7a554	-0.38993323
136	0x3e825422	0.25454813
137	0xbea9083f	-0.33014104
138	0x3cb230f0	0.02175185
139	0x40744fed	3.8173783
140	0x3f11706e	0.5681218
141	0x3f4d05c4	0.8008692
142	0xbecc2931	-0.39875177
143	0xc0637b23	-3.5543907
144	0xbdfcca3f	-0.12343263
145	0xbe361124	-0.17779976
146	0x3ec5bc90	0.38620424
147	0xbe8a407a	-0.27002317
148	0x3daab6ee	0.08335672
149	0xbf86f4e2	-1.0543482
150	0xbeef29c3	-0.4671155
151	0x3e10be84	0.14135176
152	0x3ec947e2	0.39312655
153	0xbfe69a71	-1.8015882
154	0x3fea5f9e	1.831043
155	0xbf5b2d76	-0.8561624
156	0xbe3b3ac5	-0.18284138
157	0x3cc962a6	0.024583172
158	0x3ed3023f	0.4121265
159	0xbf435eb5	-0.76316386
160	0xbed9200d	-0.42407265
161	0xbf0d335e	-0.55156505
162	0xbec50174	-0.3847767
163	0x3d806dd7	0.0627095
164	0xbf3fb8bb	-0.7489125
165	0xbf6bc839	-0.9210239
166	0x3e954327	0.29152796
167	0xbf223646	-0.63364065
168	0x3f309458	0.68976355
169	0x3f582ba9	0.8444162
170	0xbf9d23df	-1.2276572
171	0x3f27764d	0.6541489
172	0xbf89da5f	-1.0769767
173	0xbe133233	-0.14374618
174	0x3df5c6e0	0.12000823
175	0xba0877b4	-0.00052058254
176	0xbefb58a3	-0.49091062
177	0xbe80a79c	-0.25127876
178	0x3e52b5e5	0.205772
179	0xbf2847b1	-0.6573439
180	0xbeb98852	-0.36236817
181	0x3ee93670	0.45549345
182	0xbf41cf45	-0.75706893
183	0xbfa4e7c9	-1.2883235
184	0xbe70202a	-0.2344977
185	0xbeeb4e45	-0.45958152
186	0xbf25bca1	-0.6474095
187	0xbf0fdb85	-0.56194335
188	0xbf1cce39	-0.6125217
189	0x3d5b30ab	0.05351321
190	0xbecb6bb5	-0.3973061
191	0xbf50d6e5	-0.81577903
192	0xbf9c8429	-1.2227832
193	0xbdb504bf	-0.08838796
194	0xbf21f130	-0.6325865
195	0x3f47ce7e	0.7804946
196	0xbee315cd	-0.4435257
197	0xbfeb3d0a	-1.8378003
198	0xbe87a972	-0.26496464
199	0x3f8aaa51	1.0833226

lstm.bias_hh_l0 f4 [200]
0	0xbf26cf01	-0.6515961
1	0xbe355476	-0.17708
2	0xbd7dbff7	-0.06195065
3	0xbff8f5ec	-1.9450049
4	0x3fa86a90	1.315752
5	0xbf817b1a	-1.0115693
6	0xbdf29c70	-0.11846244
7	0xbe480039	-0.19531335
8	0x3f027c53	0.50970954
9	0xbf50815d	-0.8144739
10	0xbec72f4a	-0.38903266
11	0xbf1fb347	-0.6238293
12	0xbed9b85e	-0.42523474
13	0xbe134271	-0.14380814
14	0xbf3df3bc	-0.74200034
15	0xbf44026d	-0.765662
16	0x3e70dbcf	0.2352135
17	0xbf326e5d	-0.6969965
18	0x3f411875	0.75427943
19	0x3f0d6749	0.55235726
20	0xbfb1524c	-1.385324
21	0x3f7f7ea1	0.99802595
22	0xbf4e9ec4	-0.8071101
23	0xbe290fbf	-0.16509913
24	0x3db3fc0e	0.0878831
25	0xbe991c34	-0.2990433
26	0xbec30646	-0.38090724
27	0xbecd1c0f	-0.4006047
28	0x3ccae35b	0.024766615
29	0xbf4a3eb6	-0.7900194
30	0xbec9387a	-0.393009
31	0x3e473d64	0.19457012
32	0xbf7ff965	-0.9998992
33	0xbfaed0d4	-1.3657479
34	0xbf0446c3	-0.51670474
35	0xbe9dd1e5	-0.308242
36	0xbf09f09c	-0.53882766
37	0xbf2670e2	-0.65015996
38	0xbf30b29f	-0.69022554
39	0xbe86ba1e	-0.2631387
40	0xbf1d4ee6	-0.61448514
41	0xbf7db79e	-0.991083
42	0xbf738525	-0.9512504
43	0xbe164a0b	-0.14676683
44	0xbf43a5c3	-0.7642481
45	0x3f497915	0.7870038
46	0xbf23165c	-0.6370599
47	0xbfe76262	-1.8076899
48	0xbe769de3	-0.24083667
49	0x3f6e3db8	0.93062925
50	0xbdd67918	-0.104723155
51	0xbd9a408a	-0.07531841
52	0xbd93787f	-0.07200717
53	0xbd99a058	-0.07501286
54	0x3ca54808	0.020175949
55	0x3da9564c	0.08268413
56	0x3e04c129	0.1296431
57	0x3df64ca2	0.12026335
58	0xbba40220	-0.005005136
59	0xbd9b985a	-0.07597418
60	0xbd9ce4aa	-0.07660802
61	0xbcb74a8c	-0.022374414
62	0x3d6baf10	0.05754
63	0x3cceb998	0.025234982
64	0x3dba53f8	0.09098047
65	0x3ced1118	0.028938815
66	0xbe08462b	-0.13308017
67	0x3d7a0cac	0.06104724
68	0xbd91bef6	-0.07116501
69	0xbd6349dc	-0.05549036
70	0x3deed4d6	0.11661689
71	0x3e0aa6c5	0.1354018
72	0xbd652098	-0.055939287
73	0xbd6b53ce	-0.05745297
74	0xbde04c3f	-0.10952043
75	0xbd5e68a6	-0.05429902
76	0xbd0b8e0a	-0.034071006
77	0xbde9e286	-0.11420159
78	0xbbf9edc0	-0.007627219
79	0xbd87afa9	-0.066253014
80	0x3dc36614	0.09540954
81	0x3c399f40	0.011329472
82	0xbc2dae30	-0.010600612
83	0xbdcec37d	-0.1009588
84	0x3d8d2224	0.068912774
85	0x3d166c98	0.036724657
86	0x3dd29666	0.102825925
87	0xbb4b2ac0	-0.0031000823
88	0x3cac0d18	0.021002337
89	0x3d518830	0.05115527
90	0x3dc4ecd0	0.09615481
91	0x3b803d40	0.0039135516
92	0xbde9043f	-0.11377763
93	0xbd63075a	-0.055426933
94	0x3d360998	0.044442743
95	0x3d0d9fb4	0.034576133
96	0xbe009d2a	-0.12559953
97	0xbb555bc0	-0.0032555908
98	0x3c7cb170	0.015423164
99	0xbcaf145c	-0.021372013
100	0x3e4b80a9	0.19873299
101	0x3f458908	0.7716222
102	0xbf03096d	-0.5118626
103	0xbf00c91c	-0.5030687
104	0xbf2b1fb5	-0.66845256
105	0x3dbd024f	0.09228956
106	0xbe9c1cfb	-0.3049086
107	0xc049f658	-3.1556606
108	0x3f2af0c9	0.6677366
109	0xbe88ab41	-0.26693156
110	0x3e9e48ef	0.3091502
111	0xbdada10a	-0.084779814
112	0xbf188803	-0.5958254
113	0xbe38e82c	-0.18057317
114	0xbe480d1e	-0.19536254
115	0x3eee34fe	0.46524805
116	0x3f1809a0	0.59389687
117	0x3ec5b9dd	0.38618365
118	0x3fbb0fae	1.461416
119	0xbf042dad	-0.51632196
120	0x3f0f9f81	0.5610276
121	0xbf1c5421	-0.6106587
122	0xbe87efc3	-0.2655011
123	0xbe779589	-0.24178137
124	0x3ecb747f	0.39737317
125	0x406efab4	3.7340517
126	0x3f03aeb4	0.5143845
127	0x3dba3336	0.09091799
128	0xbf07f708	-0.53111315
129	0xbf033be6	-0.5126327
130	0xbe79b4c1	-0.24385358
131	0xbf14efa7	-0.5817818
132	0xbdd923fe	-0.10602568
133	0x3ea87718	0.3290336
134	0x3e7e9297	0.24860607
135	0xbeb1e846	-0.34747523
136	0x3e757694	0.23971015
137	0xbe2060c9	-0.1566192
138	0x3ca1e7f4	0.019763924
139	0x406a8f11	3.664982
140	0x3ea6162d	0.32438794
141	0x3f2c4852	0.6729785
142	0xbeb84751	-0.3599191
143	0xc0665edf	-3.5995405
144	0xbe3f23b6	-0.18665966
145	0xbed7f4b8	-0.42178893
146	0x3e4e9a30	0.20176005
147	0xbebea871	-0.37237886
148	0x3dc19560	0.09452319
149	0xbf631178	-0.8869853
150	0xbeebb867	-0.46039125
151	0x3e2d5f09	0.16930784
152	0x3f1c46e9	0.610457
153	0xbfe6dbdd	-1.8035847
154	0x3fdc1ac2	1.7195666
155	0xbf4a822c	-0.79104877
156	0xbe6f9171	-0.23395325
157	0xbd2a2797	-0.041541662
158	0x3f1668d9	0.58753735
159	0xbf48e283	-0.7847063
160	0xbef0c9d1	-0.47028974
161	0xbf052924	-0.520159
162	0xbeb9e188	-0.3630488
163	0x3e5136ab	0.2043101
164	0xbf229999	-0.6351562
165	0xbf39fc6f	-0.7265081
166	0x3ecaf5f7	0.3964078
167	0xbeec2438	-0.46121383
168	0x3f141d3a	0.57857096
169	0x3f58da93	0.8470852
170	0xbfab75cf	-1.3395327
171	0x3f4b2d99	0.7936645
172	0xbf8ba61f	-1.0910071
173	0xbdb39da3	-0.08770301
174	0x3eb158dc	0.34638107
175	0x3d6e96a3	0.058249127
176	0xbe95cfe7	-0.2926018
177	0xbebb6847	-0.36602995
178	0x3e0cbc17	0.13743626
179	0xbf527233	-0.82205504
180	0xbe801697	-0.25017235
181	0x3eb112c6	0.34584635
182	0xbf3b89dd	-0.7325724
183	0xbfa75ae1	-1.3074609
184	0xbed6c021	-0.41943458
185	0xbe8de015	-0.27710024
186	0xbefafeeb	-0.49022612
187	0xbf3016e5	-0.68784934
188	0xbf1eeb81	-0.620781
189	0x3e0025e9	0.12514462
190	0xbec5e575	-0.38651624
191	0xbf513da3	-0.81734675
192	0xbf9c4aaf	-1.2210292
193	0xbe23d5ce	-0.15999529
194	0xbf12c4be	-0.57331455
195	0x3f3cb4d8	0.73713446
196	0xbee54ca1	-0.44785026
197	0xbfd941ae	-1.6973169
198	0xbe3c4976	-0.18387398
199	0x3f912ad1	1.1341192

lstm.weight_ih_l1 f4 [200, 50]
0	0xbd63caef	-0.055613454
1	0xbf9d2d83	-1.2279514
2	0x3fb15140	1.385292
3	0xbd301a8f	-0.04299408
4	0xbf326e7c	-0.69699836
5	0xbeaa8fc0	-0.33312798
6	0x3f1e8805	0.619263
7	0x401279eb	2.2886913
8	0xbf90c71a	-1.1310761
9	0xbed3b593	-0.41349468
10	0x3f17d602	0.59310925
11	0xbd2edee0	-0.04269302
12	0x3e320cf3	0.17387752
13	0x3e9025d2	0.28153855
14	0x3e84063d	0.2578601
15	0xbf2b3c5d	-0.6688898
16	0xbf9292f7	-1.14511
17	0x3c9ca043	0.019119387
18	0xbfd602f4	-1.6719651
19	0x3f9f8200	1.2461548
20	0x3ea997d1	0.3312364
21	0x3f03a477	0.5142283
22	0xbe6c6ac5	-0.23087604
23	0x3eb1890c	0.3467487
24	0xbf53bec3	-0.82712954
25	0x3f06d357	0.5266623
26	0x3f156ec6	0.5837215
27	0xbf0533bb	-0.5203206
28	0x3f8da630	1.1066341
29	0x3e7f9cab	0.24962108
30	0x3e87d05f	0.26526162
31	0x3fb274d3	1.3941902
32	0x3e79bf87	0.24389468
33	0x3e9c05cd	0.30473176
34	0xbed0acd4	-0.40756857
35	0x3eea7d90	0.45798922
36	0x3e9a4788	0.301327
37	0x3e716613	0.23574094
38	0x3ecd16c8	0.40056443
39	0x3e871902	0.26386267
40	0xbe970bd2	-0.29501206
41	0xbf1e5b36	-0.61857927
42	0x3ebeb648	0.37248445
43	0xbf2a1fcf	-0.66454786
44	0x3f6c3a9d	0.92276937
45	0xbea0dd45	-0.31418815
46	0xbf2e6fff	-0.6813964
47	0x3e67dd7d	0.22643085
48	0x3f3614f2	0.7112571
49	0x3e7eb0c9	0.24872126
50	0x3f43e1f7	0.7651667
51	0x3ef78051	0.48340085
52	0x3e961fd1	0.2932115
53	0x3f1cf15a	0.61305773
54	0xbd086e13	-0.0333081
55	0x3eb75ef9	0.35814646
56	0x3f6a6b70	0.91570187
57	0xc074be31	-3.8241084
58	0xbe3e6c8b	-0.18596093
59	0x3d095705	0.033530254
60	0xbeb2e5ff	-0.34941098
61	0xbee80d39	-0.45322588
62	0x3f26b019	0.65112454
63	0xbfa91ed4	-1.3212533
64	0xbed24122	-0.41065317
65	0xbe8c4582	-0.2739678
66	0xbe1f4b90	-0.15556169
67	0x3f90cbec	1.1312232
68	0x3f226bb3	0.63445586
69	0x3f0425f7	0.5162043
70	0xbf090632	-0.5352508
71	0x4014e649	2.3265555
72	0xbda6c6dd	-0.08143399
73	0xbe86ff63	-0.2636672
74	0xbf93e032	-1.1552794
75	0x404b0e08	3.1727314
76	0x3db7d86f	0.08976828
77	0x3ef15e7e	0.47142404
78	0x3f1e6696	0.61875284
79	0xbddfa643	-0.10920384
80	0xbe989846	-0.29803675
81	0x3f406f7d	0.7517012
82	0xbf196292	-0.5991603
83	0xbec71b2b	-0.38887915
84	0xbf83e3d8	-1.0303907
85	0xbea3e663	-0.3201171
86	0x3e027f52	0.12743881
87	0xbed39d92	-0.41331154
88	0xbd1d4510	-0.03839594
89	0x3fc05d2d	1.5028435
90	0xbf8d9518	-1.1061125
91	0xbe98f045	-0.2987081
92	0xbec82431	-0.39090112
93	0xc004eac3	-2.0768287
94	0xbea1b589	-0.31583813
95	0xbe8a9498	-0.27066493
96	0x3ef83d60	0.48484325
97	0xbf70ded4	-0.9409001
98	0xbf1e703c	-0.61890006
99	0xbf4c609e	-0.79834926
100	0x40078b5f	2.1178815
101	0x3f296db9	0.6618305
102	0xbf7dbb1a	-0.9911362
103	0x3e98484b	0.29742655
104	0x3fb92c2e	1.4466608
105	0x3f9ac5f8	1.2091665
106	0xbefbbb10	-0.49166155
107	0xbff7e60c	-1.936708
108	0x3f777ad5	0.966718
109	0x3fed263e	1.8527296
110	0x3fc4da6f	1.5379161
111	0xbe6a2e45	-0.22869213
112	0xbf0821b0	-0.53176403
113	0xbe944bbd	-0.28964034
114	0x3f762883	0.96155566
115	0x3e4ed90b	0.20199983
116	0x3fcbb414	1.591433
117	0xbf76a922	-0.96351826
118	0x3f2a926d	0.6662968
119	0x3de52ae5	0.11189822
120	0xbd50798f	-0.050897177
121	0x3e1b7019	0.1517948
122	0xbf18c991	-0.59682566
123	0x3e23cf40	0.15997028
124	0xc02b145b	-2.6731174
125	0xbea47824	-0.3212291
126	0x3eefee78	0.46861625
127	0x3f674003	0.9033205
128	0x3e7767de	0.24160716
129	0x3eb856c4	0.36003697
130	0xbfe70648	-1.8048792
131	0x3e75d7ee	0.24008152
132	0xbf80f940	-1.0076065
133	0x3eb9c702	0.36284643
134	0x3f94c997	1.162402
135	0xbfc40577	-1.5314168
136	0xbcf0f549	-0.029413836
137	0xbf2430a5	-0.64136726
138	0xbf1dcf40	-0.61644363
139	0xbf3c7f56	-0.736318
140	0x3d97bd61	0.07409168
141	0xbe2d1ec9	-0.16906275
142	0xbf53c656	-0.8272451
143	0x3e62b3db	0.22138922
144	0xc018a46c	-2.3850355
145	0xbeba5acf	-0.36397406
146	0x3e9cbd78	0.30613303
147	0xbf03433b	-0.5127446
148	0x3f2c8138	0.6738467
149	0x3e1ae016	0.15124545
150	0x3e8d7705	0.27629867
151	0xbedec5aa	-0.4351018
152	0x3d1934e1	0.037403945
153	0x3f8fded2	1.1239874
154	0x3fdd7702	1.7301943
155	0x3f8a9a0c	1.0828261
156	0x3fc2d3d3	1.5220894
157	0xbf2a236d	-0.66460305
158	0xbf701f42	-0.93797696
159	0x3f0039e7	0.5008835
160	0x3f81d69b	1.0143617
161	0xbf86db6e	-1.0535715
162	0xbf547719	-0.8299423
163	0xbdd076d2	-0.10178913
164	0x3f090e41	0.53537375
165	0xba77fb9e	-0.0009459796
166	0xbf880cae	-1.062887
167	0x3ed2be83	0.41160974
168	0xbfed0f5d	-1.8520314
169	0xc04c8fe7	-3.196283
170	0xbfaf84ca	-1.3712399
171	0x3fac53f1	1.3463117
172	0xc028741a	-2.6320863
173	0xbf9d00b8	-1.2265844
174	0xbe36e2aa	-0.17859903
175	0xbccf5320	-0.025308192
176	0x3fabd407	1.3424081
177	0x3edd1ff1	0.43188432
178	0x3e87802b	0.26464972
179	0xbf1de4d4	-0.6167729
180	0x3e3b598d	0.1829588
181	0x3e5fc2f3	0.21851711
182	0xbf331d66	-0.69966733
183	0xbd2a2449	-0.04153851
184	0x3ee0a24b	0.4387382
185	0x3e1ff630	0.15621257
186	0x3efbcb46	0.49178523
187	0xbf44acad	-0.7682598
188	0xbf48e266	-0.78470457
189	0x3f2bf525	0.67170936
190	0x3f68eee4	0.9098952
191	0xbe7c9e83	-0.24669842
192	0xbf812d8b	-1.0092024
193	0x3e0d5fb9	0.13806047
194	0xbf9ad5b4	-1.2096467
195	0xc042d0cf	-3.0439947
196	0x3ee50576	0.4473073
197	0xbf1d2738	-0.6138797
198	0xbf022cd1	-0.50849634
199	0x3fdae837	1.7102116
200	0xbed4e428	-0.4158032
201	0xbf4ad09c	-0.7922456
202	0x3f33f73b	0.7029912
203	0x3f3125c1	0.6919823
204	0x3f898ce1	1.0746118
205	0xbf17a243	-0.59231967
206	0xbf3a604e	-0.728032
207	0xbffca4c8	-1.9737787
208	0xbf63045e	-0.8867854
209	0x3fef8477	1.87123
210	0xbf15c916	-0.5850996
211	0x3e998cde	0.29990286
212	0x3d5afe7a	0.053465344
213	0x3e9a7358	0.30166125
214	0x3fa6535a	1.2994187
215	0xbf6da096	-0.9282316
216	0xbf8bfe7b	-1.0937036
217	0xbf363e3a	-0.711887
218	0xbfa6395f	-1.2986258
219	0xbecfd238	-0.40590072
220	0xbf9be8d0	-1.2180424
221	0x3ead6999	0.33869627
222	0x3e2e007d	0.16992374
223	0x3efd6900	0.4949417
224	0xc0011584	-2.0169382
225	0x3f87c8bd	1.0608135
226	0x3f01c9c4	0.50698495
227	0xbf6e6c69	-0.9313417
228	0x3fe9185b	1.8210558
229	0x3ed4552f	0.4147124
230	0x3f07f88f	0.53113645
231	0x3ffb1056	1.961436
232	0x3efd7187	0.49500677
233	0xbf01ccca	-0.5070311
234	0x3fd3e162	1.6553156
235	0x3f3e9903	0.7445223
236	0xbdace97a	-0.084429696
237	0x3f4a7383	0.79082507
238	0x3f4192a9	0.7561441
239	0x3fa9babe	1.3260114
240	0xbe510d17	-0.2041515
241	0xbf753d06	-0.9579624
242	0x3ed68a9d	0.4190263
243	0xbf95f8bd	-1.1716534
244	0xbf2adff4	-0.66747975
245	0xbfd0708d	-1.6284348
246	0xbf92273e	-1.1418226
247	0x3f220a26	0.63296735
248	0x40093f04	2.1444712
249	0x3e7fb698	0.24971998
250	0xbfffaeda	-1.9975235
251	0xbf1b34c0	-0.60627365
252	0x3f069571	0.5257178
253	0xbef55163	-0.47913656
254	0xbecd4d7d	-0.4009818
255	0xbfeafa79	-1.8357688

lstm.weight_hh_l1 f4 [200, 50]
0	0xbe0d0efa	-0.13775244
1	0x3de7da0a	0.113208845
2	0xbd12cf2c	-0.035842106
3	0x3db345e0	0.08753562
4	0x3caad5b0	0.020853847
5	0x3c5fdbe0	0.013663262
6	0xbded1b89	-0.115775175
7	0x3d88aa68	0.066731274
8	0x3dfc23a2	0.12311484
9	0x3c3535f0	0.011060223
10	0xbde72e94	-0.11288181
11	0x3dd930d4	0.10605016
12	0xbdf6856d	-0.12037168
13	0x3ba92680	0.0051620603
14	0xbd1fa8ce	-0.038979344
15	0x3de2dd82	0.110774055
16	0xbdaa28a0	-0.0830853
17	0xbd944f28	-0.0724166
18	0x3cb7de78	0.022444949
19	0x3ce8c2e8	0.028413251
20	0x3d3b4c7c	0.045727238
21	0xbbf72520	-0.0075422674
22	0x3d441484	0.047871128
23	0x3b3e8600	0.002907157
24	0xbd1c9602	-0.038228996
25	0xbd25dbf6	-0.040492974
26	0xbdc55658	-0.096356094
27	0x3d6e43fc	0.058170304
28	0x3dc95aba	0.09831758
29	0x3bb4ece0	0.0055214018
30	0xbc848418	-0.016176268
31	0x3def4fea	0.11685164
32	0xbcbc12f0	-0.022958249
33	0x3cf20d30	0.029547304
34	0xbdd6c13f	-0.104860775
35	0x3e040cb1	0.12895466
36	0xbcb3e928	-0.021961764
37	0x3dd50ba2	0.104026094
38	0x3d9c6864	0.076370984
39	0x3d807952	0.0627314
40	0x3d94c8c6	0.07264857
41	0x3e0fdf9d	0.14050145
42	0xbdb1a4ee	-0.08674036
43	0x3d3fc9b4	0.04682322
44	0xbbce4480	-0.006294787
45	0xbd0b02f0	-0.03393835
46	0x3e00e2e7	0.12586556
47	0xbcb21834	-0.021740057
48	0x3dbedf10	0.093198895
49	0x3d5b8b94	0.05359991
50	0xbc9f1ecc	-0.019423865
51	0xbd8bed89	-0.068324156
52	0x3df1651a	0.11786862
53	0x3c59eb50	0.013300732
54	0x3ba15200	0.0049231052
55	0xbdcbcba4	-0.09950951
56	0x3df626d2	0.12019123
57	0x3daa7dd0	0.08324778
58	0xbdb610d9	-0.08889932
59	0x3de388aa	0.11110051
60	0xbdbc4287	-0.091923766
61	0xbe07f772	-0.13277987
62	0xbcb12c50	-0.021627575
63	0xbb0ea100	-0.0021763444
64	0xba487100	-0.0007646233
65	0x3dc11c50	0.09429228
66	0xbd0b987e	-0.034080975
67	0xbe0c2b7d	-0.13688464
68	0x3c78dfe0	0.015190095
69	0xbd4fa3a0	-0.050693154
70	0xbd5ef5a0	-0.054433465
71	0x3dc67b98	0.096915424
72	0x3db50790	0.08839333
73	0xbc3874d0	-0.011258319
74	0xbcf1c1a0	-0.029511273
75	0x3ddc47c6	0.10755877
76	0xbb889ec0	-0.004169315
77	0xbdd52508	-0.10407454
78	0xbc364ab0	-0.011126205
79	0x3d07f590	0.03319317
80	0xbdeb9ddd	-0.115047194
81	0xbd96b65f	-0.07359003
82	0xbdb3c788	-0.08778292
83	0xbc77cf90	-0.01512517
84	0x3d540a8c	0.05176787
85	0xbdfc51ad	-0.12320266
86	0x3dd585a4	0.104258806
87	0xbb193740	-0.0023378879
88	0x3dfca082	0.12335302
89	0xbc557750	-0.013028935
90	0xbd0f9e9a	-0.035063364
91	0xbdfb9387	-0.12283998
92	0xbde4fb6c	-0.111807674
93	0xbcfeaec0	-0.031089187
94	0x3dbd229a	0.09235115
95	0x3e0c940b	0.13728349
96	0x3d312d6c	0.04325621
97	0x3e0069bf	0.12540339
98	0x3cca7c48	0.024717465
99	0x3dc18f0c	0.09451112
100	0xbd5531e6	-0.05204954
101	0xbd83b192	-0.06430353
102	0xbd0fe1f8	-0.03512761
103	0xbdd8d6a9	-0.10587818
104	0xbe0f8b98	-0.14018095
105	0xbdddd66d	-0.10831914
106	0x3d0c9ba8	0.034328133
107	0x3e106117	0.14099537
108	0xbb95ef00	-0.00457561
109	0xbc1fa050	-0.009742811
110	0xbd998cb7	-0.07497542
111	0x3b61bb40	0.0034443885
112	0x3dcae982	0.09907819
113	0x3e08a62f	0.13344644
114	0xbd842715	-0.06452767
115	0xbdc49e24	-0.096004754
116	0x3c591e20	0.013251811
117	0xbcc65298	-0.024209306
118	0xbd86f906	-0.06590466
119	0x3df1d1ae	0.11807571
120	0x3db79d6a	0.08965571
121	0xbe07152e	-0.13191673
122	0xbe0d3d9a	-0.1379303
123	0xbddeb6ad	-0.108746864
124	0x3da5b9fe	0.08092116
125	0xbde0bb97	-0.1097328
126	0x3d6fea84	0.05857326
127	0x3db428d0	0.08796847
128	0x3c2a8d00	0.010409594
129	0xbd2aedaa	-0.04173056
130	0xbdeeb79e	-0.11656116
131	0x3d4621a0	0.04837191
132	0xbd03f68e	-0.032217555
133	0xbd722226	-0.059114598
134	0xbc674830	-0.014116332
135	0x3d222cc4	0.039593473
136	0xbc9d0cec	-0.0191712
137	0x3c3a8e90	0.011386529
138	0xbd3e8280	-0.046511173
139	0xbd98267c	-0.07429215
140	0x3e10a75d	0.14126344
141	0xbcce6f70	-0.025199622
142	0x3c911e68	0.017714694
143	0xbd869992	-0.0657226
144	0x3e0b4b37	0.13602911
145	0x3c9c0c60	0.01904887
146	0xbcd36310	-0.025804073
147	0x3dcf6ea6	0.101285264
148	0x3b9d3000	0.004796982
149	0xbdeed0b8	-0.11660904
150	0x3d7e6588	0.062108546
151	0x3dfffebe	0.1249976
152	0x3d6bc300	0.057559013
153	0xbdfdc88a	-0.123917654
154	0xbdc4c976	-0.09608738
155	0x3dd283b0	0.10279024
156	0x3d2522c8	0.040316373
157	0xbd2c252e	-0.042027645
158	0xbd3eb59c	-0.046559915
159	0x3e0c0fe3	0.13677935
160	0x3d291030	0.041275203
161	0xbe0f265d	-0.13979478
162	0xbd0392ee	-0.032122545
163	0xbda221da	-0.07916613
164	0xbe04a519	-0.12953605
165	0x3d5bcba0	0.05366099
166	0xbdd68085	-0.10473732
167	0x3cd1d218	0.025612876
168	0x3dc0b2f4	0.094091326
169	0x3e0a890f	0.13528846
170	0xbd344a5e	-0.044016235
171	0xbd19b7ae	-0.037528686
172	0x3d29b12c	0.04142873
173	0x3e02f445	0.12788494
174	0xbd222148	-0.03958252
175	0x3df0f386	0.117651984
176	0x3e0a3f99	0.13500823
177	0x3c63d600	0.013906002
178	0xba769300	-0.000940606
179	0x3deb27e6	0.114822194
180	0xbd4f5cca	-0.0506256
181	0xbd499656	-0.049215637
182	0x3da9bb98	0.08287734
183	0xbd50ded0	-0.05099374
184	0xbd834302	-0.06409265
185	0x3c97b1c0	0.018517375
186	0x3cf02250	0.029313236
187	0x3cbe0a80	0.023198366
188	0xbd5fe666	-0.054663084
189	0xbe0897a6	-0.133391
190	0x3e0472fb	0.12934487
191	0xbd19864a	-0.037481584
192	0x3dd24374	0.10266772
193	0xbd12fa84	-0.03588344
194	0x3d968298	0.073491275
195	0xbdf5a0e3	-0.11993577
196	0xbe00e57f	-0.12587546
197	0xbd221d88	-0.039578944
198	0xbd5526ec	-0.052039072
199	0xbdc8b927	-0.0980094
200	0xbd8b9e65	-0.06817321
201	0x3df1b662	0.11802365
202	0x3cebe390	0.028795034
203	0x3db10394	0.086432606
204	0xbdcc9066	-0.09988479
205	0xbe0a1462	-0.13484338
206	0x3e0393d7	0.12849365
207	0xbe007232	-0.12543562
208	0x3d3299b4	0.043603614
209	0xbcb14038	-0.021637067
210	0xbd916272	-0.07098855
211	0x3dc22a24	0.09480694
212	0x3bb40240	0.0054934323
213	0x3cbd8da8	0.023138836
214	0x3d8bcd72	0.06826295
215	0x3c539a10	0.012915149
216	0x3deef162	0.11667134
217	0x3c9a55d8	0.018839762
218	0x3dc7bb68	0.09752542
219	0x3d747a40	0.0596869
220	0xbd4d77d6	-0.050163113
221	0x3df57ef2	0.119871035
222	0xbb808620	-0.003922239
223	0x3de13f96	0.10998456
224	0x3d6c2244	0.057649866
225	0x3cbbdac8	0.022931471
226	0x3d1df404	0.03856279
227	0xbd258a66	-0.04041519
228	0x3d97668e	0.07392608
229	0x3df1d792	0.11808695
230	0x3d9100ec	0.07080254
231	0xbc78e2e0	-0.01519081
232	0xbdcd3ef4	-0.10021773
233	0x3db83c8a	0.08995922
234	0xbb9e5ce0	-0.004832849
235	0xbca049f8	-0.019566521
236	0xbcb81e64	-0.022475429
237	0x3d7b4240	0.061342478
238	0x3d86542c	0.06559023
239	0xbd27260e	-0.040807776
240	0xbe0d5bbe	-0.13804528
241	0x3d6ce7ac	0.057838127
242	0xbdbba6e6	-0.09162693
243	0xbd8af759	-0.06785459
244	0xbd923ebe	-0.071408734
245	0x3df1383a	0.117783025
246	0xbc9de874	-0.019275881
247	0x3c9d6d30	0.019217104
248	0x3d31d370	0.043414533
249	0x3e06010d	0.13086338
250	0xbddbf875	-0.10740749
251	0xbcccac54	-0.024984516
252	0xbd9e7926	-0.07737951
253	0x3cb72c70	0.022360057
254	0xbd041068	-0.03224221
255	0x3d2740bc	0.04083322

lstm.bias_ih_l1 f4 [200]
0	0xbf5631f6	-0.83669984
1	0xbf8c81c0	-1.0977097
2	0xbfbbcd5f	-1.4672049
3	0xbe930ac2	-0.28719145
4	0xbf4b1bc0	-0.7933922
5	0x4003ed2c	2.0613508
6	0xbeeb579e	-0.45965284
7	0xbea77804	-0.32708752
8	0xbd756868	-0.059914023
9	0xbe9b2ee9	-0.30309227
10	0xbf599c5e	-0.8500422
11	0xbea2cbd4	-0.31796134
12	0xc0067b45	-2.1012738
13	0xbf11e4c9	-0.56989723
14	0xbea4ad84	-0.32163632
15	0xbf2be7e1	-0.67150694
16	0x3f866cd7	1.0501965
17	0xbe2ae518	-0.16688955
18	0xbf43b613	-0.764497
19	0xbf20f3f8	-0.62872267
20	0xbdd8eb3a	-0.10591741
21	0x3e6cc2a6	0.23121127
22	0xbfc1969d	-1.5124089
23	0xbeb3511b	-0.35022816
24	0xbf68aead	-0.90891534
25	0xbedf3e26	-0.43602103
26	0xbf5c2003	-0.85986346
27	0x3e74f183	0.23920254
28	0xbf925838	-1.1433172
29	0xbf95abd5	-1.1693064
30	0xbf8f7d25	-1.1210066
31	0x3e34632d	0.17615958
32	0xbf92214b	-1.141641
33	0x3f660958	0.8985801
34	0xbeef3690	-0.46721315
35	0xbf8f81f7	-1.1211537
36	0xbe994d30	-0.29941702
37	0x3e2ea5c3	0.1705542
38	0xbfc25f53	-1.5185341
39	0xbef6f2e1	-0.48232177
40	0xbef2147b	-0.4728125
41	0xbe83be70	-0.2573123
42	0xbe824afa	-0.25447828
43	0xbeaa6505	-0.33280197
44	0xbf587016	-0.8454603
45	0xbe8d9619	-0.27653578
46	0xbf2c8d94	-0.6740353
47	0x3f70773d	0.93931943
48	0xbf07a4dd	-0.52985936
49	0xc01818e3	-2.376519
50	0xbb488bc0	-0.0030600876
51	0x3b52ba80	0.003215462
52	0xbdb1ebcc	-0.08687553
53	0xbd24ae6e	-0.04020541
54	0x3ae02000	0.001709938
55	0x3df7eeda	0.12106104
56	0xbd1ff4fa	-0.039051987
57	0x3d0b6128	0.034028202
58	0x3e0dc0e1	0.13843109
59	0x3daceffe	0.084442124
60	0x3df2769e	0.11839031
61	0x3d5fd8d0	0.054650128
62	0x3dd097ec	0.10185227
63	0x3ddbb140	0.10727167
64	0xbde2af3b	-0.11068579
65	0x3dbc51a6	0.09195261
66	0xbd714ede	-0.058913104
67	0x3d097488	0.0335584
68	0x3e08b883	0.13351636
69	0xbdff675e	-0.124708876
70	0x3d8728d8	0.06599587
71	0xbdcb5996	-0.099291965
72	0xbcf93b3c	-0.030423753
73	0x3a43cf00	0.0007469505
74	0xbdaf6f2c	-0.08566126
75	0xbe07ec5d	-0.13273759
76	0x3d3d2574	0.046178296
77	0x3d890e10	0.06692135
78	0xbd0adf5e	-0.033904426
79	0x3dccf78c	0.10008153
80	0xbdf38ad8	-0.11891717
81	0xbdb0c55c	-0.08631393
82	0xbd2695f2	-0.040670343
83	0xbcf6b600	-0.030116081
84	0x3c29a0b0	0.010353252
85	0x3da48354	0.08032861
86	0x3ce68c48	0.028143063
87	0xbcec94c4	-0.02887953
88	0x3dc72a78	0.09724897
89	0xbd2a343e	-0.04155373
90	0x3d9b3b0a	0.0757962
91	0xbde6a2d2	-0.11261524
92	0xbd92a2f1	-0.07159985
93	0xbddbb203	-0.107273124
94	0x3c143b80	0.009047389
95	0xbd886874	-0.06660548
96	0xbc020fe0	-0.007938355
97	0xbdce7ce2	-0.10082413
98	0xbda5f887	-0.081040435
99	0x3e0ded73	0.13860111
100	0x3d7e4b01	0.062083248
101	0x3d84c2bf	0.06482457
102	0x3edf3f84	0.43603146
103	0x3f303b9e	0.6884097
104	0xbf055570	-0.5208349
105	0x3ec22c56	0.3792445
106	0xbea60711	-0.32427266
107	0xbf02e009	-0.511231
108	0x3f030b41	0.5118905
109	0xbfc50ac3	-1.5393909
110	0xbf26a5eb	-0.6509692
111	0xbf2523f0	-0.6450796
112	0xbe51c18a	-0.20483986
113	0xbf3de75a	-0.7418114
114	0xbf5861a1	-0.8452397
115	0x3f02be5d	0.5107172
116	0x3e8ec3df	0.27883813
117	0xbf23c102	-0.6396638
118	0x3e27a880	0.16372871
119	0xbf72fc88	-0.9491658
120	0xbdae5bbf	-0.08513593
121	0xbee46996	-0.44611806
122	0x3ef291a8	0.47376752
123	0x3f4df1e3	0.80447215
124	0x3e7b2589	0.24526037
125	0xbea24349	-0.3169196
126	0x3f30555f	0.68880266
127	0x3e957e51	0.29197934
128	0x3ea759d7	0.3268573
129	0xbe19fc35	-0.15037616
130	0xbdc154cd	-0.094400026
131	0x3fa3ba88	1.27913
132	0x3ec60bcd	0.38680878
133	0x3f2394e2	0.6389905
134	0x3f353dee	0.7079762
135	0xbe546c6a	-0.20744482
136	0x3e03883f	0.12844943
137	0x3d87b338	0.0662598
138	0x3e589999	0.21152343
139	0xbed58cdd	-0.41709033
140	0x3f71b919	0.9442306
141	0xbda3e586	-0.080027625
142	0xbe677368	-0.22602618
143	0x3e5ea747	0.21743499
144	0xbee04b0d	-0.4380726
145	0x3ece5333	0.4029785
146	0xbc69f541	-0.0142796645
147	0xbf4a96be	-0.79136264
148	0x3f3202ee	0.6953572
149	0xbeeba9e4	-0.46028054
150	0xbf33a1d1	-0.7016879
151	0xbf878521	-1.0587503
152	0xbfc66e33	-1.550238
153	0xbeb0d9d2	-0.34541184
154	0xbf1e4d80	-0.61837006
155	0x3ff2ddd1	1.8973943
156	0xbf24f80f	-0.6444101
157	0xbf60ba6e	-0.8778447
158	0x3e278f52	0.16363266
159	0xbe40279c	-0.1876511
160	0xbf34ded3	-0.706525
161	0xbe804bd3	-0.2505785
162	0xc004e248	-2.076311
163	0xbf03dabb	-0.5150563
164	0xbda0d558	-0.07853192
165	0xbf5143a6	-0.8174385
166	0x3eae13dd	0.3399953
167	0xbb0b7af6	-0.0021283007
168	0xbf5e99d8	-0.86953497
169	0xbf54e837	-0.8316683
170	0xbdb39767	-0.08769112
171	0x3e80e5a3	0.251752
172	0xbfa942ba	-1.3223488
173	0xbea6e1c8	-0.32594132
174	0xbf59cd48	-0.8507886
175	0xbec1c39e	-0.37844557
176	0xbf547f50	-0.83006763
177	0x3dda89e0	0.10670829
178	0xbf3aa995	-0.7291501
179	0xbf9159eb	-1.1355566
180	0xbf7eedba	-0.9958149
181	0xbd660540	-0.05615735
182	0xbf905fab	-1.1279196
183	0x3f8e6f10	1.1127644
184	0xbf27a768	-0.65489817
185	0xbf98446a	-1.1895878
186	0xbe9b5da0	-0.30344868
187	0xbec999f9	-0.39375284
188	0xbfe10b03	-1.7581486
189	0xbf374ef6	-0.7160486
190	0xbec1cbcb	-0.37850794
191	0xbe5c4d5f	-0.2151389
192	0xbee1f1ed	-0.44129887
193	0xbe5a344c	-0.21309012
194	0xbf716b50	-0.9430437
195	0xbe99a68e	-0.30009884
196	0xbf0b83bb	-0.5449788
197	0x3f66c8ae	0.9014996
198	0xbfb7b1c2	-1.4351122
199	0xc013e274	-2.3106966

lstm.bias_hh_l1 f4 [200]
0	0xbf7c8eba	-0.98655283
1	0xbf96b854	-1.1775002
2	0xbfb14a83	-1.3850864
3	0xbea2ad2e	-0.3177275
4	0xbf539a80	-0.82657623
5	0x3ffc2ab3	1.9700531
6	0xbecbcc4a	-0.39804298
7	0xbe4448d7	-0.19168411
8	0xbd19d1a0	-0.03755343
9	0xbf01b599	-0.5066772
10	0xbf7ba9aa	-0.9830576
11	0xbdbaf83e	-0.0912938
12	0xc00b5b4d	-2.1774476
13	0xbf33015f	-0.6992397
14	0xbe9d8a12	-0.30769402
15	0xbf303baf	-0.6884107
16	0x3f6d5f1a	0.9272324
17	0x3d18a3f7	0.037265744
18	0xbf667873	-0.9002754
19	0xbf2beac0	-0.67155075
20	0xbd89d150	-0.06729376
21	0x3e20ee62	0.15715936
22	0xbfc0955f	-1.5045584
23	0xbeac262d	-0.33622876
24	0xbf7f8672	-0.9981452
25	0xbeb22ba0	-0.34798908
26	0xbf351b07	-0.70744365
27	0x3e5fbd69	0.21849598
28	0xbf6fe61e	-0.93710506
29	0xbf85f913	-1.0466636
30	0xbf81afdb	-1.0131792
31	0x3dcf7a76	0.101307794
32	0xbf844705	-1.0334173
33	0x3f8e5719	1.112033
34	0xbe922164	-0.285411
35	0xbf80af16	-1.0053432
36	0xbe371e85	-0.17882736
37	0x3e3fe4df	0.18739651
38	0xbfb9ebbd	-1.4525067
39	0xbf0229a3	-0.5084478
40	0xbf06bb90	-0.5262995
41	0xbeab3c8a	-0.33444625
42	0xbeceea47	-0.40413114
43	0xbea9745b	-0.33096585
44	0xbf7d1160	-0.9885464
45	0xbdce9462	-0.100868955
46	0xbf40f5e0	-0.75375175
47	0x3f74ba45	0.95596725
48	0xbf04860d	-0.51767045
49	0xc01706d1	-2.359791
50	0xbe094f45	-0.13409145
51	0x3e0b9879	0.13632382
52	0x3e04ca67	0.12967835
53	0x3e10a82b	0.14126651
54	0x3d6f94c8	0.0584915
55	0xbd66da46	-0.056360506
56	0xbdb23eb0	-0.08703363
57	0x3d330620	0.043707013
58	0x3db417a8	0.087935746
59	0x3d293810	0.04131323
60	0xbcb1f174	-0.02172158
61	0xbcb8e9cc	-0.02257242
62	0x3d7a2de8	0.061078936
63	0xbde24441	-0.11048175
64	0xbd5dde20	-0.054166913
65	0x3d265568	0.040608793
66	0x3d7a1684	0.06105663
67	0x3d2a2b4c	0.041545197
68	0xbd073be6	-0.033016108
69	0xbcad660c	-0.021166824
70	0x3d691418	0.05690393
71	0x3dd368a4	0.10322693
72	0xbdafeb14	-0.085897595
73	0x3d2dac68	0.042400748
74	0xbd428b20	-0.04749596
75	0xbde29d5e	-0.11065172
76	0xbbd99120	-0.0066396147
77	0x3d45a7b0	0.048255622
78	0xbde97511	-0.11399282
79	0xbd8ac41e	-0.06775688
80	0x3c8b35a8	0.016993359
81	0x3de2cd62	0.1107433
82	0xbdad2378	-0.08454031
83	0xbd103b1e	-0.03521263
84	0x3dce58ba	0.10075517
85	0xbdba30d3	-0.09091344
86	0x3c870e98	0.016486451
87	0xbdfe1827	-0.124069504
88	0x3cc1f200	0.023674965
89	0x3df03d4a	0.1173044
90	0x3da92cbc	0.082604855
91	0x3caa26a0	0.020770371
92	0x3b9865e0	0.0046508163
93	0xbd2282e6	-0.039675616
94	0xbdff3345	-0.12460951
95	0x3d7ea2b4	0.062166885
96	0x3d4b1468	0.049580008
97	0x3cd78918	0.026310489
98	0x3d4697a8	0.048484474
99	0xbdf42d5b	-0.11922713
100	0x3dc8860f	0.09791195
101	0x3e8a8273	0.2705265
102	0x3e76c916	0.24100146
103	0x3f3d6a14	0.7398999
104	0xbf315200	-0.6926575
105	0x3ea32458	0.31863666
106	0xbf02416b	-0.5088107
107	0xbf038257	-0.5137076
108	0x3ea5d51f	0.3238916
109	0xbfab9e0d	-1.3407608
110	0xbf3a27bd	-0.72716886
111	0xbede3dfb	-0.43406662
112	0xbe5b88fe	-0.21438977
113	0xbf360d9c	-0.71114516
114	0xbf525d49	-0.8217359
115	0x3f3f4aa1	0.7472325
116	0x3d67645b	0.05649219
117	0xbf325690	-0.69663334
118	0x3e1b6fe2	0.15179399
119	0xbf3e2be8	-0.74285746
120	0x3dbab3c8	0.09116322
121	0xbf275646	-0.6536602
122	0x3ec129c3	0.37727174
123	0x3f298d5d	0.6623133
124	0x3e8ac9e9	0.2710717
125	0xbe0ea6e7	-0.13930856
126	0x3f5c9e25	0.8617881
127	0x3e91e099	0.28491667
128	0x3ec2b1a1	0.38026145
129	0xbe94cc1f	-0.29061982
130	0xbe702492	-0.2345145
131	0x3fa3410a	1.2754223
132	0x3ef8971b	0.48552784
133	0x3f195984	0.59902215
134	0x3f1cd1ce	0.61257637
135	0xbe3d4982	-0.18485072
136	0x3de9afa4	0.11410454
137	0xbd65c6e0	-0.056097865
138	0x3e8649c6	0.2622816
139	0xbe62efdd	-0.22161813
140	0x3f5e6aaf	0.86881536
141	0xbae78a59	-0.0017665132
142	0xbec5d58c	-0.38639486
143	0x3e61cc57	0.22050606
144	0xbe353f05	-0.17699821
145	0x3e844623	0.2583476
146	0xbe2f290e	-0.17105505
147	0xbf731ed6	-0.94968927
148	0x3f315afa	0.69279444
149	0xbebfe674	-0.3748051
150	0xbf3c6695	-0.7359403
151	0xbf6776b7	-0.9041552
152	0xbfaecde1	-1.3656579
153	0xbed7c61a	-0.42143327
154	0xbf3bf8dc	-0.73426604
155	0x3ff118b7	1.8835667
156	0xbf01aca7	-0.5065407
157	0xbf4e332a	-0.8054682
158	0x3da0a59c	0.078440875
159	0xbe57ba5e	-0.21067187
160	0xbf42345f	-0.7586116
161	0xbc3cff10	-0.011535421
162	0xc0011c23	-2.0173423
163	0xbf2f0c3e	-0.68378055
164	0xbe17adf3	-0.1481245
165	0xbf5aa646	-0.85409963
166	0x3f106829	0.56408936
167	0xbd6b7ac0	-0.05749011
168	0xbf5a1666	-0.8519043
169	0xbf4053b3	-0.75127715
170	0xbd8e7099	-0.0695507
171	0x3d86a74b	0.06574877
172	0xbfc17cb8	-1.5116186
173	0xbe585fd9	-0.21130313
174	0xbf367b0c	-0.71281505
175	0xbf11cbd4	-0.5695164
176	0xbf1675cc	-0.58773494
177	0x3df7dea0	0.12103009
178	0xbf3ca5b5	-0.7369035
179	0xbf698932	-0.9122497
180	0xbf9cd987	-1.2253884
181	0xbd0bb3a8	-0.03410688
182	0xbfa21c0b	-1.2664808
183	0x3f9077b2	1.1286528
184	0xbf17d78e	-0.59313285
185	0xbf92ff60	-1.1484184
186	0xbe0ccabe	-0.13749215
187	0xbed01ef1	-0.40648606
188	0xbfdb96db	-1.7155412
189	0xbf1a0218	-0.60159445
190	0xbeb0641b	-0.34451374
191	0xbe4db4c1	-0.20088483
192	0xbe9a5995	-0.3014647
193	0xbe581b0e	-0.2110407
194	0xbf423e02	-0.75875866
195	0xbe47170a	-0.19442382
196	0xbf27121d	-0.65262014
197	0x3f573fba	0.84081614
198	0xbfc9be46	-1.5761192
199	0xc01237a8	-2.284647
